saved_model/base_model.pt (torch, 7010 bytes, 16 tensors)

conv1.weight f4 [3, 3, 1, 3, 3]
00000000: 6c4f fdbd ea9a 88be 305b a13e 7514 cbbd
00000010: 9a82 71bd 136a a23e 173e 87be 4ee6 b63b
00000020: 875b df3d e7f4 623c aa95 68be fe12 4fbd
00000030: 046c d53e 0b1e 833d a2da b5be d4f9 f83e
00000040: 9fad cd3d d6ce 92bd 2d67 53be 016c 6cbe
00000050: 6f9c 97be b46b 1fbe 9175 253f 7e23 633d
00000060: a872 35be b2dd 2e3f 1d17 93be 5e64 743e
00000070: 19c9 e2be d253 2bbe f011 e53e d3b2 7f3d
00000080: 07a7 683c dc65 f8be ccc9 c23e d2e0 5f3e
00000090: 8369 943e 39dd 573e 6879 523d 72fc ffbe
000000a0: 5af3 c73e 360f 9abe c22f 403e 9101 78be
000000b0: b558 2a3d 0cbe 163d 73cb 083f b17c a1bd
000000c0: 21f2 0c3c 38f1 a1be 815d 0d3d 5497 923e
000000d0: 6bc3 0fbe dc8b ca3e 9517 ca3e 47f5 453e
000000e0: abcc 053e d769 abbc 99a6 693d 4028 74be
000000f0: f260 673e cf78 223c a144 a43e e152 15bc
00000100: b480 793e 69bb 733d 872b d43d 55cc 1c3d
00000110: 4aa8 313e 1573 333c acdf bd3e 268c 81be
00000120: 1cbe 433d 3eb2 6eba 224b 223e 9e86 af3d
00000130: f259 e63e 6088 84be 3a9f 59be 4c1c 703e
00000140: 4736 683e
-0.12368664 -0.2668069 0.31514883 -0.09916011 -0.058962442 0.31721553 -0.26414558 0.0055816537
0.10906129 0.013852335 -0.22713342 -0.05055522 0.41683972 0.064022146 -0.35518366 0.48628104
0.10042881 -0.07168357 -0.20644827 -0.23088075 -0.29611537 -0.15568429 0.6463252 0.05545377
-0.17719519 0.6830703 -0.28728572 0.23866412 -0.4429405 -0.16731194 0.44740248 0.0624264
0.014199979 -0.48515213 0.38044584 0.21863106 0.2898675 0.21080483 0.051385313 -0.49997288
0.3905285 -0.3008973 0.18768218 -0.24219348 0.041588504 0.036802337 0.5343544 -0.07885111
0.00860265 -0.31629348 0.034513 0.2863108 -0.1403939 0.3955983 0.39471117 0.19331847
0.13066356 -0.020924492 0.057043646 -0.23843479 0.22595575 0.009916498 0.3208361 -0.009113998
0.24365503 0.0595049 0.10359865 0.038280804 0.17349353 0.010952731 0.3708471 -0.25302237
0.047788724 -0.00091055396 0.15848973 0.08570598 0.44990498 -0.25885296 -0.21252146 0.23448294
0.22676955

conv1.bias f4 [3]
00000000: ce4e 2b3d 2fd3 683d 037e fb3d
0.0418232 0.056842025 0.12279894

conv2.weight f4 [3, 3, 3, 1, 1]
00000000: 19c2 c9be e4ee 44be 03bc 26bf 1a43 13bf
00000010: 498e abbe af22 5d3e 7bb3 13bf 1fde 8d3d
00000020: 10e5 05bf 9d12 643f 11b0 683e 7419 693f
00000030: 2fa5 333e 3467 0ebf 39f8 173f 48b3 813b
00000040: 3a34 26bb 5d75 bfbe 41d1 ae3e 7c0e 2dbf
00000050: 1095 80be 057d 7f3e 0b0f 833f c0f9 843e
00000060: da81 8a3d 79ab ffbc 4ba2 1a3e
-0.39405897 -0.19231755 -0.65130633 -0.57524264 -0.33506992 0.21595262 -0.5769574 0.06927132
-0.52302647 0.890909 0.22723414 0.91054463 0.17543481 -0.55626225 0.5936313 0.0039581396
-0.002536072 -0.3739423 0.34144023 -0.67600226 -0.25113726 0.24950035 1.0238966 0.25971794
0.067630485 -0.031209694 0.15100972

conv2.bias f4 [3]
00000000: 381e b13c 5c01 b8bd d9ab ec3c
0.021620855 -0.08984634 0.028890537

conv3.weight f4 [3, 3, 1, 3, 3]
00000000: a491 0f3e 24c9 2f3e 491b c53e 2679 07bd
00000010: e923 913e 9dc3 993d b06a e33d e677 823d
00000020: 878a d1be a13f 4bbe 761f aebe 808d bf3d
00000030: e9ea d23e bd42 a9be 8570 623e 399d d83e
00000040: 80b0 23bf f01b 9fbe 7ee9 8abe f6ac b03e
00000050: 0304 ee3d 74cd e2be 64b3 f9be 3ff7 b23d
00000060: 3f5c 52be fffb 42be f994 29be 3147 153f
00000070: 961e 9c3d bc6e 88be e928 0cbe 0078 bfbe
00000080: df12 1f3e 7c40 82be f117 8d3e 7427 35be
00000090: cabf a53c 95a8 9bbe 18ec 1dbe 21c0 1dbd
000000a0: ad91 18be c285 64be b328 973e 2637 383d
000000b0: 44bc 033f 0140 563d d6cd 5c3a 016d e23e
000000c0: fbf8 0e3e 43ee e13e 4a1a e13d 76b0 d5bc
000000d0: e1c5 283f d6e0 8b3e 1666 92be 362d aabc
000000e0: 39a4 82be 31fc 223f e38b a93d 0fc5 27bd
000000f0: 4106 f43e eb06 fa3e 5155 00bf fe98 293e
00000100: 1f01 b73e 1906 86bd a944 babe 7de3 17bf
00000110: 4f4e 3d3d 0f2c c33c 56d9 20be 585f 34bf
00000120: 78d5 0bbf 3b50 44be 2463 6cbe b8be a2bd
00000130: 4f03 3d3e 422f 3e3e 55fd 1abe b287 9fbe
00000140: f241 af3c
0.14020401 0.17166573 0.3849738 -0.03307452 0.2834771 0.075080134 0.111043334 0.06370525
-0.40926 -0.19848491 -0.34008378 0.09353161 0.41194847 -0.3305873 0.22113235 0.4230745
-0.6394119 -0.31076002 -0.27131265 0.3450696 0.11621859 -0.44297373 -0.48769677 0.08738565
-0.20543002 -0.19041441 -0.16560735 0.58311754 0.07623021 -0.26646984 -0.13687481 -0.3739624
0.15534543 -0.25439823 0.27557328 -0.17690831 0.020233054 -0.30402055 -0.15422094 -0.038513307
-0.14899321 -0.2231665 0.2952324 0.04497447 0.51459146 0.052307133 0.0008423006 0.44223788
0.13962166 0.44127092 0.10991342 -0.02608512 0.6592694 0.27319974 -0.2859351 -0.020773511
-0.25515917 0.63666064 0.082786344 -0.040959414 0.4766102 0.48833403 -0.5013018 0.16562268
0.35743043 -0.06544132 -0.3638051 -0.59331495 0.04621726 0.02382472 -0.15707907 -0.70457983
-0.546226 -0.1917123 -0.23084694 -0.07946533 0.18458293 0.18572715 -0.15135701 -0.31158215
0.02139375

conv3.bias f4 [3]
00000000: 990c 2ebd 8c81 4cb9 a895 07bb
-0.042492483 -0.00019503216 -0.0020688567

conv4.weight f4 [3, 3, 3, 1, 1]
00000000: ec89 09bf 1a36 a4be 6a45 9ebe a032 633e
00000010: 0f39 5a3d 7c1d 08be 455f 6ebf 3a4b 00bd
00000020: 613b b93e bc77 ca3d cf48 553e a4ef 0a3c
00000030: 9b43 623e 462f 9a3e 4c63 a23f d49c cd3d
00000040: 1b1f f43e df97 27bf 3608 43bf 7327 2f3f
00000050: f48d 07bf 8413 683e 11c7 96be 515b 553f
00000060: fa37 ce3d 07e1 973e 412a 03bf
-0.5372608 -0.32072526 -0.30912334 0.2218728 0.05327707 -0.13292497 -0.9311412 -0.03132174
0.36178115 0.09886119 0.20828556 0.008479986 0.22096102 0.30114192 1.2686553 0.10039678
0.47679982 -0.6546611 -0.76184404 0.6841957 -0.5295098 0.22663695 -0.2944875 0.8334246
0.100692704 0.2966387 -0.5123635

conv4.bias f4 [3]
00000000: a566 863d 22ae 91bd e578 23bc
0.06562547 -0.07113291 -0.009977554

conv5.weight f4 [3, 3, 1, 3, 3]
00000000: 7e56 bfbe fa78 16bf 1c6b a33e 7696 be3d
00000010: 2399 363e c0eb 5a3e 629e 273e f202 123e
00000020: 1289 f2be 3cfc 713c b802 acbe 3743 ef3e
00000030: 1bb3 3cbd 5496 bdbd dfe5 5abe 6539 31bf
00000040: 6d81 c73e d569 5ebe a91a 623e 22a3 62be
00000050: cc93 f2bd 189c 74be 865f 513e f373 a3bd
00000060: 36db 853e d669 6dbc 0f17 9bbd 45d3 373e
00000070: 5847 1c3e f344 cabe 9168 453e 410f c13e
00000080: 6c10 d7be edbb 88be 239c 80be 19b9 783e
00000090: 4323 b93c 0692 0b3e 67dd d7be 5007 e9bd
000000a0: 5694 c5bd e044 403e 3b18 9e3e 581c 403e
000000b0: 4464 88be ac08 0abe 081e 1a3e b8bc 343e
000000c0: ebbe b8be cb1e f9bc 70ed f73d dccb 6b3d
000000d0: 1a4e 2a3e 9547 c0bc 9055 f13e 1ced d63e
000000e0: 8af5 d53e c997 193e f10a be3e 59c0 593e
000000f0: 9eec 79be 2c4c 2abd 8ffd 7dbd fb65 b4bc
00000100: b3d9 abbc da12 bc3d 23fb ab3d a7fa 86bd
00000110: f64f 783d 8a14 b8be 0abe 6ebd bcb1 0a3e
00000120: 9405 d5be bc37 4dbc a965 1dbe ff39 91bc
00000130: afc9 023e 4c99 963e 9719 8d3e 393a ea3d
00000140: cbb1 db3c
-0.37370676 -0.58778346 0.31917655 0.09306042 0.17831855 0.21378994 0.16369012 0.14258936
-0.473702 0.01476961 -0.33595824 0.46730968 -0.046069246 -0.092571884 -0.21376751 -0.692282
0.38965932 -0.21720059 0.22080483 -0.22132543 -0.11844596 -0.2388767 0.20446596 -0.079811
0.26143807 -0.014490565 -0.075727575 0.17951687 0.1526159 -0.3950573 0.1927817 0.3770695
-0.42004716 -0.26705876 -0.25119123 0.24289359 0.022599822 0.13629922 -0.42161104 -0.11378348
-0.096474335 0.18776274 0.3087786 0.18760812 -0.26638997 -0.1347987 0.15050519 0.17650115
-0.3608316 -0.030410191 0.121058345 0.057567462 0.16631356 -0.023471633 0.47135592 0.41977775
0.41788894 0.14999308 0.37117723 0.21264781 -0.24406669 -0.04157655 -0.06200939 -0.022021284
-0.02097783 0.09183283 0.0839751 -0.06590777 0.06062313 -0.3595317 -0.058286704 0.13544363
-0.41605818 -0.012525495 -0.15370812 -0.01772785 0.12772249 0.2941383 0.27558586 0.11436886
0.026818177

conv5.bias f4 [3]
00000000: 4902 d33c eac1 e13c 66f6 7d3d
0.025757926 0.027558286 0.062002562

conv6.weight f4 [3, 3, 3, 1, 1]
00000000: 7663 bc3f c19a a83e cde3 0d3f 6647 623f
00000010: ef30 5e3e 3725 153f f324 36bf 2e86 bdbe
00000020: 1afa 223f 8a1c cabc e60a f23d 6e6f 463e
00000030: 74ea 2abe 13a1 aabe 32ff 0dbf b967 3cbf
00000040: d232 ca3c b2ca 193f e50f 4bbf 358e 113f
00000050: ca6d 373f 6175 4dbe 3cbf 973f fa84 31bf
00000060: 4a24 783d 9caa e8be f737 a43c
1.4717853 0.32930568 0.5542572 0.88390195 0.21698354 0.5825991 -0.7115013 -0.37016433
0.63662875 -0.024671812 0.11818485 0.19378445 -0.16691 -0.33326015 -0.5546752 -0.7359577
0.024682436 0.60074914 -0.7932113 0.56857616 0.716519 -0.20064308 1.1855235 -0.6934353
0.060581483 -0.45442665 0.020046217

conv6.bias f4 [3]
00000000: b8a0 963b 88bd 993d f80b 5b3d
0.004596796 0.07506853 0.05347821

conv7.weight f4 [3, 3, 1, 3, 3]
00000000: 2186 e63e c6a1 84bd b722 f43d 7edd 493e
00000010: 000f d83c 1121 12be 6365 67bd 7fad 173e
00000020: 7329 04be b620 933e cf51 b8bd 2950 8dbe
00000030: 01f4 5abe 3a0a abbd d9b3 d03c ce8f 48be
00000040: 009e 30be 047c 50be cf1f 0d3c 24ef b9bc
00000050: 919b 143e 6d31 a33e 3d8e d1be b4df 2d3e
00000060: 48ef 33be bf10 3b3e 77c4 983e 6b11 bbbe
00000070: 8064 51bd 93c1 453c 2ce4 11be 76e3 323e
00000080: e13a 29be fbbc cebe def4 a53d 4578 9c3e
00000090: 9aab b1bc 7e2e 603e 04c7 8b3e bd36 133f
000000a0: 898b 153e a538 a03d b778 03be e395 18be
000000b0: f1da da3e d62e 08bd 41e7 373e 6bc1 173e
000000c0: 9cca 3c3d c701 8ebd f73b 12be ada2 9ebe
000000d0: 9de4 b63c 8271 833e 6a56 393e 33f2 9abe
000000e0: 1ea5 5bbe fe4b 85bd ef44 473e 8a07 17bc
000000f0: 0060 5b3e 2789 b23e e576 ef3d 4734 61be
00000100: 5608 b23e e684 12bb bb47 7e3d 0b94 0c3c
00000110: 3a19 d8be 6a41 313f c6e2 913e a74d 0c3d
00000120: 25d1 1b3e 8207 1d3d ada0 613c 0edd ef3e
00000130: 930e 073e a96a 10be a12d 81bd b85e 31bf
00000140: b9f6 4d3f
0.45024207 -0.06476168 0.11920684 0.19713399 0.02637434 -0.14270426 -0.056493174 0.14812277
-0.12906437 0.28735894 -0.08999979 -0.2760022 -0.21382143 -0.0835156 0.025476383 -0.19586107
-0.17247772 -0.20359808 0.008613541 -0.022697039 0.14512469 0.31873646 -0.40928832 0.16979867
-0.17571747 0.18268107 0.2983739 -0.36536726 -0.051121235 0.0120700775 -0.14247197 0.17469582
-0.16526367 -0.40378556 0.08103345 0.30560508 -0.021688271 0.21892735 0.27300274 0.575054
0.1460401 0.07823304 -0.12839018 -0.14900927 0.42745164 -0.03324779 0.1795931 0.14819877
0.04609166 -0.06933933 -0.14280687 -0.30983487 0.022325808 0.25672537 0.1809937 -0.30262908
-0.21449706 -0.06508635 0.1945989 -0.009218106 0.2142334 0.34870264 0.11692599 -0.21992598
0.34771985 -0.0022357046 0.062080126 0.008580218 -0.42206746 0.6924044 0.28493327 0.034253743
0.15216501 0.038337238 0.013771218 0.4684834 0.13189153 -0.14103188 -0.06307531 -0.69285154
0.80454594

conv7.bias f4 [3]
00000000: 6085 e83c 86ca bd3d 237d bb3d
0.02838391 0.09267144 0.09154727

conv8.weight f4 [3, 3, 3, 1, 1]
00000000: ed48 0e3f 3f5b 033d c1bb 983e 47e2 8f3e
00000010: 5013 6c3f c42d 733f e74a 9bbd 4080 263f
00000020: eafc 8e3d 163a 59bf f0f0 70be 7cbc f83e
00000030: cfa3 1fbf 6823 95bd 0242 d33e fda1 873e
00000040: 53ab c5bd 227d 6ebf ff14 133f 9c0d 23bf
00000050: 4a0a eabe 6ab7 6c3f 337d bb3e d370 ae3d
00000060: 3b2d 3c3f ed95 973e 43eb 893f
0.55580026 0.03206944 0.29830745 0.28102323 0.9221697 0.9499171 -0.07582646 0.65039444
0.06981833 -0.8485426 -0.2352941 0.48581302 -0.6235933 -0.07282144 0.41261297 0.26490775
-0.09651818 -0.9315969 0.5745391 -0.6369264 -0.45710975 0.9246737 0.36618957 0.08517613
0.73506516 0.29606572 1.0774921

conv8.bias f4 [3]
00000000: c48d be3d 34d1 0d3e 1505 b23d
0.093043834 0.13849336 0.086923756
