saved_model/upsample_at_location_3.pt (torch, 7314 bytes, 16 tensors)

conv1.weight f4 [3, 3, 1, 3, 3]
-0.16436073 0.23776609 -0.27892372 0.3707282 -0.09515214 -0.3229698 0.08700191 0.3775285
0.107388675 0.404224 0.1975925 -0.6473343 0.16096507 0.2038133 0.041806377 0.1782791
-0.16491903 0.12114942 -0.1992963 0.27875626 0.13784567 0.5967507 0.25576088 -0.36434647
-0.28463906 -0.023516404 0.3429041 -0.22087924 -0.06197412 0.19605882 0.402007 0.051273827
-0.03945294 -0.49863622 0.44037494 -0.41502824 0.16905537 0.1160576 0.11046984 -0.177276
-0.057304595 0.24599099 -0.15445954 0.13584484 -0.10456746 -0.0049733524 0.3420782 0.123895094
0.29058892 0.3426549 0.024052015 0.1142279 -0.383647 -0.18401387 -0.056676824 -0.22647172
-0.01097527 0.4300475 0.16191335 -0.20897406 0.37250388 0.22027847 0.109611526 0.031717706
0.17217998 -0.14851852 0.20693961 0.15400982 -0.63784146 0.21565053 0.5128571 -0.038432438
0.1626956 -0.36914152 0.28239867 -0.17728081 -0.2525713 0.2383205 0.062439937 0.38666296
-0.23501806
00000000: 2e4e 28be f478 733e 17cf 8ebe 16d0 bd3e
00000010: 20df c2bd 4c5c a5be 0f2e b23d 6a4b c13e
00000020: 98ee db3d 73f6 ce3e b055 4a3e b3b7 25bf
00000030: 07d4 243e 6fb4 503e 2a3d 2b3d cc8e 363e
00000040: 89e0 28be 301d f83d 5414 4cbe 24b9 8e3e
00000050: 6a27 0d3e a7c4 183f 17f3 823e 9f8b babe
00000060: 36bc 91be 79a5 c0bc 2091 af3e 2b2e 62be
00000070: 93d8 7dbd a5c3 483e ddd3 cd3e 8104 523d
00000080: 6899 21bd 3f4d ffbe d378 e13e 957e d4be
00000090: da1c 2d3e 9baf ed3d 033e e23d d787 35be
000000a0: 39b8 6abd 10e5 7b3e a42a 1ebe e91a 0b3e
000000b0: 7727 d6bd 81f7 a2bb e024 af3e b6bc fd3d
000000c0: 12c8 943e 7770 af3e bb08 c53c 51f0 e93d
000000d0: 616d c4be 226e 3cbe f525 68bd 34e8 67be
000000e0: 9ed1 33bc 302f dc3e 9dcc 253e 4cfd 55be
000000f0: d4b8 be3e ae90 613e 027c e03d 6dea 013d
00000100: f34f 303e 3d15 18be fae7 533e c0b4 1d3e
00000110: 9449 23bf 7ed3 5c3e 9a4a 033f 556b 1dbd
00000120: ad99 263e 1e00 bdbe 8f96 903e 1a89 35be
00000130: 0751 81be 4a0a 743e 05c1 7f3d b0f8 c53e
00000140: 93a8 70be

conv1.bias f4 [3]
-0.0527963 0.51469254 0.4733279
00000000: ef40 58bd e4c2 033f 0958 f23e

conv2.weight f4 [3, 3, 3, 1, 1]
0.5118953 0.065146364 -0.3353116 -0.07659762 0.48418295 0.113898374 -0.2654074 0.28064036
0.3058527 0.045902897 0.28767663 0.03961584 0.039942227 -0.3914192 0.09595942 0.08674597
0.06312234 -0.14207037 -0.25833175 -0.32561693 0.08244133 -0.08368378 0.5268166 -0.20458066
0.38398737 1.053143 0.009805047
00000000: 920b 033f 756b 853d f6ad abbe 37df 9cbd
00000010: d4e6 f73e 8d43 e93d 7be3 87be 18b0 8f3e
00000020: ba98 9c3e ad04 3c3d 5a4a 933e 3844 223d
00000030: 769a 233d 1968 c8be 5f86 c43d dfa7 b13d
00000040: 4946 813d e57a 11be 0f44 84be 43b7 a6be
00000050: 00d7 a83d 6762 abbd 74dd 063f 987d 51be
00000060: fe99 c43e 64cd 863f 59a5 203c

conv2.bias f4 [3]
0.29845122 0.8649976 0.5787303
00000000: 99ce 983e 7c70 5d3f ab27 143f

conv3.weight f4 [3, 3, 1, 3, 3]
0.09505482 0.008470939 -0.005741458 0.10989462 0.015831565 -0.15737121 -0.3515635 0.15339912
0.40955958 -0.096941434 -0.20735192 0.28027904 -0.00023762569 0.25039715 -0.04966573 0.119994484
-0.4854026 0.1610477 -0.08986848 -0.0057645324 -0.1520145 0.2671845 0.12546518 -0.19005884
-0.14087328 0.08701254 -0.007246443 -0.18888424 0.10895346 0.062745556 -0.14115751 0.16879444
-0.07049952 -0.12489532 0.4902691 0.072690554 -0.16416363 0.19092186 0.21849912 0.082022324
0.28972343 0.13246064 -0.17172085 -0.28241855 -0.11551252 -0.0017772638 0.054253556 -0.025754314
-0.13145189 0.3582407 0.5347643 -0.06931982 0.04303091 -0.38534227 -0.07644632 -0.14791466
-0.105285265 -0.16772161 0.1882493 0.5949349 0.37507853 0.16102755 -0.22427538 -0.20309094
0.41321298 -0.015014436 0.06936074 -0.07089188 -0.01796942 0.039082956 -0.036562294 0.021150174
-0.024912223 0.26610392 -0.11768386 -0.26416844 -0.18168801 0.23404302 -0.098174594 0.24293682
-0.32685855
00000000: 1aac c23d b1c9 0a3c d722 bcbb 6e10 e13d
00000010: 33b1 813c eb25 21be 2200 b4be a914 1d3e
00000020: cbb1 d13e 3b89 c6bd 1054 54be bc80 8f3e
00000030: 292b 79b9 0e34 803e 4b6e 4bbd abbf f53d
00000040: b186 f8be b0e9 243e f70c b8bd 67e4 bcbb
00000050: b0a9 1bbe 68cc 883e f279 003e c99e 42be
00000060: 1641 10be a133 b23d 9273 edbb df6a 41be
00000070: fe22 df3d be80 803d 988b 10be 73d8 2c3e
00000080: 0d62 90bd 1ec9 ffbd 8d04 fb3e c9de 943d
00000090: 831a 28be 0581 433e 3cbe 5f3e 52fb a73d
000000a0: a156 943e c3a3 073e 97d7 2fbe 2a99 90be
000000b0: d491 ecbd 14f3 e8ba fa38 5e3d b6fa d2bc
000000c0: 539b 06be 536b b73e 50e6 083f 8df7 8dbd
000000d0: 2e41 303d 954b c5be e38f 9cbd f176 17be
000000e0: cd9f d7bd 37bf 2bbe 6dc4 403e a74d 183f
000000f0: 4b0a c03e 68e4 243e 72a8 65be 12f7 4fbe
00000100: a790 d33e 1cff 75bc 010d 8e3d c32f 91bd
00000110: 9b34 93bc 7315 203d 58c2 15bd 2143 ad3c
00000120: b814 ccbc c63e 883e 3c04 f1bd 1641 87be
00000130: 6c0c 3abe f9a8 6f3e c30f c9bd 6ec4 783e
00000140: 015a a7be

conv3.bias f4 [3]
-0.08438547 0.8562689 0.051891338
00000000: 4ad2 acbd 7034 5b3f 038c 543d

conv4.weight f4 [3, 3, 3, 1, 1]
-0.40055966 -0.5570662 -0.27105165 0.3638593 -0.044881683 0.5293152 -0.025721954 0.21780322
-0.24114245 -0.71188164 -0.0064468165 -0.81257725 0.42106467 -0.3990952 0.30239928 -0.11511136
0.02447915 0.4385056 0.098008454 -0.7794407 0.10459812 -0.032103945 0.15929443 0.4521834
0.18170601 0.36776295 0.42513615
00000000: 2816 cdbe e49b 0ebf 48c7 8abe c44b ba3e
00000010: dbd5 37bd 3381 073f d9b6 d2bc cf07 5f3e
00000020: 0cee 76be e03d 36bf d13f d3bb 1005 50bf
00000030: ca95 d73e 3556 ccbe 14d4 9a3e 81bf ebbd
00000040: 8088 c83c ce83 e03e a8b8 c83d 6d89 47bf
00000050: 8a37 d63d 6d7f 03bd 141e 233e 9584 e73e
00000060: 2411 3a3e 6d4b bc3e 72ab d93e

conv4.bias f4 [3]
0.59757096 1.0107754 -0.16754848
00000000: 69fa 183f 1761 813f d491 2bbe

conv5.weight f4 [3, 3, 1, 3, 3]
-0.2050254 -0.06433029 0.076077804 0.085982725 0.15010412 0.111563645 0.13661234 -0.2358225
0.11008318 -0.23916952 0.19972138 0.3714565 -0.035935305 -0.111480966 -0.2493976 0.23048757
0.040659487 -0.23646793 0.13749236 -0.31788778 0.20832802 0.3545008 0.3559742 0.1306319
-0.1404881 0.21324128 -0.045076866 -0.0215334 -0.13245165 -0.0010147037 0.036719996 0.3321196
0.37621036 0.15855925 0.14617014 -0.09698668 0.016380584 -0.047019035 -0.2744014 0.13263705
-0.19326429 0.10252097 0.25259373 -0.48458865 0.53377736 0.03588784 0.10124295 0.24701469
0.15312979 -0.0077765603 -0.26332337 -0.16782485 -0.16969627 0.009228945 -0.21266119 0.03956046
-1.0095866 0.17866516 0.27366394 0.13206507 -0.13178308 0.36076975 0.04174549 -0.34703127
-0.5567062 -0.33916944 0.3426018 0.15639488 -0.053423624 0.114422105 -0.053262915 0.39625096
0.44493595 -0.8072167 -0.14383122 0.33313787 0.27349094 -0.35982275 -0.047242705 -0.16971925
0.27703348
00000000: 2ef2 51be 99bf 83bd aece 9b3d b617 b03d
00000010: e5b4 193e 7b7b e43d 1be4 0b3e 747b 71be
00000020: 4a73 e13d dbe8 74be c383 4c3e 8c2f be3e
00000030: e630 13bd 2250 e4bd 1662 7fbe ef04 6c3e
00000040: 908a 263d a624 72be ccca 0c3e 30c2 a2be
00000050: f153 553e 2181 b53e 4042 b63e 5ec4 053e
00000060: 1ddc 0fbe ec5b 5a3e 85a2 38bd d066 b0bc
00000070: 68a1 07be ceff 84ba b567 163d 950b aa3e
00000080: a59e c03e 5b5d 223e a0ad 153e f4a0 c6bd
00000090: 9330 863c 0897 40bd 577e 8cbe 02d2 073e
000000a0: 13e7 45be 84f6 d13d f753 813e 011c f8be
000000b0: a2a5 083f 21ff 123d 7758 cf3d 6bf1 7c3e
000000c0: 0ece 1c3e 84d2 febb 52d2 86be 47da 2bbe
000000d0: dcc4 2dbe 0035 173c dbc3 59be 260a 223d
000000e0: 223a 81bf 00f4 363e ae1d 8c3e 113c 073e
000000f0: 25f2 06be d0b6 b83e 52fd 2a3d 15ae b1be
00000100: 4c84 0ebf 9ea7 adbe 8169 af3e fb25 203e
00000110: bbd2 5abd 2356 ea3d 372a 5abd 68e1 ca3e
00000120: a5ce e33e c1a5 4ebf 7e48 13be 0c91 aa3e
00000130: 0107 8c3e b03a b8be 9181 41bd e2ca 2dbe
00000140: 55d7 8d3e

conv5.bias f4 [3]
-0.065488294 1.4679557 1.3476583
00000000: ba1e 86bd f9e5 bb3f 1180 ac3f

conv6.weight f4 [3, 3, 3, 1, 1]
0.9365594 -0.19079974 0.066919945 -0.78175694 0.07155208 -0.063562796 -0.04002722 -0.3634098
-0.4166333 -0.24917984 0.57158566 -0.3011215 0.0094799 0.2964296 0.49049625 0.29467037
-0.5508905 -0.37516078 -0.20411135 0.6538222 0.0712761 -0.061312776 0.018371325 -0.27589443
-0.0023044432 -0.39711553 -0.009695946
00000000: 5bc2 6f3f 0261 43be 530d 893d 3921 48bf
00000010: e689 923d 362d 82bd 95f3 23bd d910 babe
00000020: f650 d5be 0029 7fbe 7053 123f 992c 9abe
00000030: 9551 1b3c 9fc5 973e 5322 fb3e 09df 963e
00000040: 2907 0dbf 1315 c0be 9102 51be e460 273f
00000050: 34f9 913d 1b23 7bbd 767f 963c 0942 8dbe
00000060: 2406 17bb ba52 cbbe bfdb 1ebc

conv6.bias f4 [3]
1.1330993 -1.3543385 0.23357077
00000000: 6609 913f f75a adbf 2d2d 6f3e

conv7.weight f4 [3, 3, 1, 3, 3]
-0.44189712 0.61638635 0.15952171 -0.0136644915 -0.24813274 0.13302715 -0.02001872 0.24111068
-0.08163147 0.042864535 -0.01760164 -0.35286632 -0.22276476 -0.12915981 0.05772826 -0.09874461
-0.21962798 0.5054434 0.36863735 0.060549933 -0.20743209 0.20180468 0.36200064 0.6440684
0.05261533 -0.05249304 0.21683605 0.37134302 -0.08051924 0.07802564 0.37771842 0.11365758
0.1915313 0.32594717 0.5027804 0.0014904109 0.11178208 -0.54462385 -0.17406423 0.32249516
0.3055243 -0.17313847 -0.0822281 -0.073176056 -0.20810793 0.53866667 0.10439368 0.17021395
-0.1768536 0.06345153 -0.030996576 0.11172103 0.07672249 -0.387736 0.024240352 -0.23200482
0.2418021 0.3298476 -0.17385888 0.09607619 -0.052133903 0.033100486 0.013160018 0.31262213
0.12715708 0.25039834 -0.07841138 0.14984691 -0.03516347 0.29378322 -0.086970076 0.7211562
0.009964994 0.35969022 -0.25075513 -0.18487796 0.67931646 -0.032843366 0.39738753 0.082542166
0.3130331
00000000: 5740 e2be 7fcb 1d3f a959 233e 08e1 5fbc
00000010: 8216 7ebe 4538 083e 4cfe a3bc b8e5 763e
00000020: 662e a7bd b992 2f3d 5131 90bc e5aa b4be
00000030: 721c 64be 7842 04be 7874 6c3d 9d3a cabd
00000040: 28e6 60be bd64 013f 09be bc3e 3503 783d
00000050: 1469 54be e3a5 4e3e 2658 b93e abe1 243f
00000060: 2c83 573d f102 57bd 450a 5e3e ac20 be3e
00000070: 45e7 a4bd e8cb 9f3d 4f64 c13e 4ec5 e83d
00000080: c820 443e 8ce2 a63e 37b6 003f e459 c33a
00000090: 01ee e43d 786c 0bbf e53d 32be 161e a53e
000000a0: ae6d 9c3e 364b 31be 3567 a8bd 54dd 95bd
000000b0: 3f1a 55be 0fe6 093f 5bcc d53d 914c 2e3e
000000c0: 1c19 35be e0f2 813d 88ec fdbc ffcd e43d
000000d0: ae20 9d3d 5585 c6be b493 c63c ac92 6dbe
000000e0: f89a 773e c9e1 a83e 1008 32be 98c3 c43d
000000f0: 5c8a 55bd 6094 073d 1e9d 573c 0210 a03e
00000100: 7735 023e 3634 803e 2596 a0bd 7871 193e
00000110: 9207 10bd c16a 963e 5e1d b2bd b19d 383f
00000120: 3744 233c 5129 b83e fa62 80be a650 3dbe
00000130: afe7 2d3f c486 06bd 6176 cb3e de0b a93d
00000140: e045 a03e

conv7.bias f4 [3]
0.6321214 1.4464358 -0.9240455
00000000: b5d2 213f cf24 b93f 3f8e 6cbf

conv8.weight f4 [3, 3, 3, 1, 1]
0.23644683 -0.41890118 -0.35484698 -0.35384387 -0.23037133 0.12014823 0.8392174 0.30468693
0.17706601 0.821046 -0.52169853 0.16706286 -0.31460494 -0.18630852 0.35512754 0.5179025
0.2694564 -0.068620816 0.19700997 0.24199982 0.65800124 -0.2925767 0.004743288 0.7400262
0.59474224 -0.23835355 -0.28333676
00000000: 1e1f 723e 377a d6be 81ae b5be 062b b5be
00000010: 76e6 6bbe 4610 f63d f4d6 563f edff 9b3e
00000020: cb50 353e 1230 523f 098e 05bf 8712 2b3e
00000030: e613 a1be a9c7 3ebe 47d3 b53e 4295 043f
00000040: 30f6 893e 1289 8cbd fbbc 493e cdce 773e
00000050: c572 283f 9dcc 95be 956d 9b3b 5b72 3d3f
00000060: 0741 183f f412 74be 8411 91be

conv8.bias f4 [3]
-0.7671105 -0.44313657 0.23261537
00000000: 5b61 44bf cce2 e2be b932 6e3e
