saved_model/upsample_at_location_8.pt (torch, 7314 bytes, 16 tensors)

conv1.weight f4 [3, 3, 1, 3, 3]
-0.089943536 -0.1176565 0.28042778 0.24821742 0.43347004 -0.21357174 0.3406952 0.39050072
-0.24703142 0.3341441 -0.26114354 0.0063430583 -0.1370302 0.035256773 0.020184059 0.2284869
-0.28083366 0.28417817 -0.27963048 -0.2111182 -0.04359717 0.2634911 -0.16739456 -0.08626924
0.0069047986 0.0013776205 -0.054552715 -0.05901374 0.435282 -0.25556314 0.057392824 0.25326928
-0.1736654 -0.120497525 0.22779685 0.17100495 -0.1890161 -0.07720859 0.063916735 0.44398475
0.49234197 0.44315466 -0.12205658 -0.06398727 -0.41682526 -0.0794357 0.37542766 -0.14855507
-0.028132962 0.14274971 0.25584054 0.17494051 0.24441902 -0.2605329 -0.4487615 0.23612362
-0.1370924 -0.12220541 0.57724524 -0.049928922 0.060178235 0.17989185 -0.38642642 -0.39884597
-0.15492849 -0.03918003 -0.1527604 -0.22582191 0.123240344 -0.02542032 -0.21511164 0.39154062
-0.38985315 0.16349271 0.15413277 -0.60811865 -0.033618167 0.31868663 0.3771995 0.09656477
-0.5816675
00000000: 5134 b8bd e4f5 f0bd 3b94 8f3e b52c 7e3e
00000010: c9ef dd3e 8db2 5abe 9a6f ae3e b6ef c73e
00000020: cef5 7cbe ef14 ab3e 9bb4 85be 6ed9 cf3b
00000030: a551 0cbe 6869 103d 0a59 a53c 78f8 693e
00000040: 6ec9 8fbe cd7f 913e ba2b 8fbe 5f2f 58be
00000050: f292 32bd 4ee8 863e 7b69 2bbe edad b0bd
00000060: a641 e23b 4691 b43a ab72 5fbd 64b8 71bd
00000070: 48dd de3e 2cd9 82be bd14 6b3d 83ac 813e
00000080: 58d5 31be 68c7 f6bd 9443 693e ec1b 2f3e
00000090: 708d 41be 8a1f 9ebd c7e6 823d f851 e33e
000000a0: 3f14 fc3e 2be5 e23e cdf8 f9bd c20b 83bd
000000b0: 1f6a d5be 2faf a2bd 0e38 c03e d21e 18be
000000c0: 1977 e6bc fb2c 123e 88fd 823e 9b23 333e
000000d0: fb48 7a3e 9164 85be 11c4 e5be 64ca 713e
000000e0: f361 0cbe d446 fabd 58c6 133f 4582 4cbd
000000f0: 747d 763d 9235 383e afd9 c5be 8a35 ccbe
00000100: 93a5 1ebe 3d7b 20bd 396d 1cbe dc3d 67be
00000110: 6f65 fc3d 463e d0bc 3a46 5cbe 0378 c83e
00000120: d59a c7be a26a 273e fbd4 1d3e aaad 1bbf
00000130: 34b3 09bd e52a a33e 4b20 c13e c0c3 c53d
00000140: 29e8 14bf

conv1.bias f4 [3]
0.21998693 0.3087973 -0.30538937
00000000: 4144 613e ae1a 9e3e ff5b 9cbe

conv2.weight f4 [3, 3, 3, 1, 1]
0.019014286 0.17967038 0.27295524 0.7066444 0.7902044 0.090965606 0.32066602 0.99009746
0.40535045 -0.5203234 -0.118508816 0.045815006 0.1403664 0.14933205 0.6144108 -0.17037767
-0.47420704 -0.31090933 -0.53785497 -0.46041176 -0.0014861616 0.64285946 -0.019931171 0.5728867
0.6826392 0.17642185 0.051015377
00000000: d9c3 9b3c 83fb 373e cac0 8b3e a6e6 343f
00000010: d64a 4a3f 2d4c ba3d 562e a43e 0777 7d3f
00000020: 188a cf3e ea33 05bf c0b4 f2bd 84a8 3b3d
00000030: 36bc 0f3e 80ea 183e 074a 1d3f 7c77 2ebe
00000040: 44cb f2be 822f 9fbe ddb0 09bf 17bb ebbe
00000050: 4fcb c2ba 7092 243f b246 a3bc b4a8 123f
00000060: 71c1 2e3f eea7 343e 80f5 503d

conv2.bias f4 [3]
0.48522848 0.17424889 -0.1849131
00000000: de6f f83e 4d6e 323e dc59 3dbe

conv3.weight f4 [3, 3, 1, 3, 3]
0.16112237 -0.14016518 0.019783951 0.21588477 0.32920825 -0.06981742 0.35611436 -0.3256156
0.22683755 0.10371297 0.50795656 -0.047320485 -0.119607806 0.20733604 0.24614926 0.14474364
-0.06931234 -0.25011483 -0.15183592 -0.105462335 -0.0156278 -0.47283146 -0.2212803 -0.2898391
0.31941366 -0.5098076 0.39559186 -0.114517495 0.4187198 -0.012779607 0.01975617 -0.5527911
0.10720874 -0.5681894 0.26500854 0.19962157 0.00721795 0.30393565 -0.3562214 0.055686127
0.29683 0.021992667 -0.45672378 -0.10334808 -0.0032309343 -0.25018504 -0.051633153 0.3412082
0.09738065 0.36429062 -0.013513665 -0.1918918 -0.0010443087 -0.16323183 -0.32485265 0.21213661
-0.26273024 0.21951994 0.46088278 -0.24983318 0.16139369 -0.23179442 0.017507885 0.30608526
-0.1795329 -0.29636437 -0.039378386 0.2748608 -0.068657756 0.074463926 0.2588243 0.13200171
-0.22160213 0.1227725 0.26340526 -0.060187437 0.29522738 0.08434389 0.15571956 -0.053562813
-0.20031744
00000000: 43fd 243e 7687 0fbe f411 a23c e610 5d3e
00000010: fc8d a83e 6ffc 8ebd 9f54 b63e 17b7 a6be
00000020: 1a48 683e 7767 d43d 7109 023f 20d3 41bd
00000030: f0f4 f4bd e64f 543e 8d0e 7c3e ad37 143e
00000040: a1f3 8dbd 0d0f 80be e07a 1bbe a3fc d7bd
00000050: df05 80bc f716 f2be 4e97 62be ca65 94be
00000060: 308a a33e c082 02bf 048b ca3e 2688 eabd
00000070: 7162 d63e 8f61 51bc b1d7 a13c b883 0dbf
00000080: 4290 db3d dc74 11bf 33af 873e 9969 4c3e
00000090: 8e84 ec3b 749d 9b3e a762 b6be 2317 643d
000000a0: 1afa 973e f729 b43c b3d7 e9be 28a8 d3bd
000000b0: 15be 53bb 4118 80be 497d 53bd d7b2 ae3e
000000c0: 826f c73d 4d84 ba3e 6b68 5dbc 497f 44be
000000d0: 2fe1 88ba 3f26 27be 1653 a6be 573a 593e
000000e0: 9484 86be d6c9 603e d4f8 eb3e 45d4 7fbe
000000f0: 6344 253e 845b 6dbe b26c 8f3c 35b7 9c3e
00000100: 79d7 37be 12bd 97be 3b4b 21bd 8eba 8c3e
00000110: 709c 8cbd 8b80 983d 9e84 843e 752b 073e
00000120: abeb 62be 2670 fb3d 0edd 863e 1a87 76bd
00000130: 0b28 973e 7dbc ac3d f374 1f3e ae64 5bbd
00000140: 0420 4dbe

conv3.bias f4 [3]
0.43515536 2.2350976 0.2371373
00000000: afcc de3e d70b 0f40 1fd4 723e

conv4.weight f4 [3, 3, 3, 1, 1]
-0.18798138 0.73395944 -0.2173128 0.11896263 -0.2560638 -0.07276124 -0.1989979 0.4646046
0.09212709 0.3263314 0.12738097 0.60971296 -0.07603399 -0.02097413 -0.34164974 -0.28700766
-0.7159752 0.19524449 -0.4839051 -0.13784777 -0.086355 -0.80248535 -0.9434114 -0.87019616
0.47362575 0.13870704 -0.13976187
00000000: 317e 40be c4e4 3b3f 3f87 5ebe aea2 f33d
00000010: cb1a 83be d803 95bd 1bc6 4bbe a7e0 ed3e
00000020: 21ad bc3d e914 a73e 2870 023e 2616 1c3f
00000030: b5b7 9bbd f0d1 abbc b7ec aebe abf2 92be
00000040: 274a 37bf 2cee 473e 69c2 f7be f727 0dbe
00000050: e4da b0bd ae6f 4dbf 6983 71bf 2dc5 5ebf
00000060: 137f f23e 3809 0e3e bc1d 0fbe

conv4.bias f4 [3]
0.15767226 0.72361624 1.4209431
00000000: d674 213e ea3e 393f 77e1 b53f

conv5.weight f4 [3, 3, 1, 3, 3]
0.0036471395 -0.45642486 -0.0039191097 -0.09441101 0.23741317 0.62274957 0.3807744 0.29410273
-0.0892128 0.09375768 -0.12020781 0.36612648 -0.29978627 0.12034078 -0.37659207 0.30786836
-0.2109601 0.19358818 -0.213763 -0.34968802 0.03761838 0.34495774 0.65162635 0.41516945
-0.32172292 -0.32843843 0.25183418 -0.2919135 0.12175558 -0.0012268783 0.2730833 -0.013398863
-0.44619825 0.30918285 0.14272633 0.71303713 -0.07785724 -0.03324135 -0.1506543 -0.033386916
0.5882495 0.03541011 -0.029639699 0.23452236 0.037171513 0.13961741 -0.21021993 0.20547463
0.066597566 -0.6547302 -0.82521 0.25029868 0.5088645 -0.40386298 -0.11048954 -0.13208528
0.32385808 0.077532604 -0.46148065 0.140196 0.24301891 0.058193754 -0.1438306 0.09031956
-0.03608891 0.2062075 0.2035055 -0.42949942 0.14023608 0.11564108 0.20360877 0.07511088
0.32284504 0.21393174 0.34912655 -0.17182563 -0.4198407 0.16134435 0.22698896 -0.04254376
0.10482103
00000000: d904 6f3b 85b0 e9be e06b 80bb 8f5a c1bd
00000010: 701c 733e 846c 1f3f ddf4 c23e a294 963e
00000020: 33b5 b6bd 0704 c03d 832f f6bd ee74 bb3e
00000030: 967d 99be 3a75 f63d add0 c0be eca0 9d3e
00000040: ed05 58be fb3b 463e b0e4 5abe 4f0a b3be
00000050: bb15 1a3d 4d9e b03e fcd0 263f 1791 d43e
00000060: deb8 a4be 1529 a8be 69f0 803e b075 95be
00000070: fd5a f93d 34cf a0ba 93d1 8b3e e886 5bbc
00000080: 1974 e4be 374d 9e3e da26 123e 9a89 363f
00000090: 9e73 9fbd 1528 08bd 1f45 1abe b8c0 08bd
000000a0: 8597 163f 310a 113d f4ce f2bc a126 703e
000000b0: 2841 183d def7 0e3e e543 57be f167 523e
000000c0: 4e64 883d 669c 27bf f640 53bf 2627 803e
000000d0: f244 023f 21c7 cebe 5748 e2bd 5d41 07be
000000e0: bad0 a53e 6ac9 9e3d 3147 ecbe 8a8f 0f3e
000000f0: f3d9 783e 935c 6e3d 5448 13be 76f9 b83d
00000100: f7d1 13bd 0f28 533e bf63 503e 59e7 dbbe
00000110: 0c9a 0f3e 3bd5 ec3d d17e 503e bcd3 993d
00000120: f24b a53e ec10 5b3e b7c0 b23e 0ff3 2fbe
00000130: 5cf5 d6be 7437 253e cb6f 683e 5e42 2ebd
00000140: 68ac d63d

conv5.bias f4 [3]
-0.027702771 0.60748756 0.88310796
00000000: ecf0 e2bc 4e84 1b3f 5d13 623f

conv6.weight f4 [3, 3, 3, 1, 1]
0.082171224 0.44314256 0.30578107 0.026027884 0.28916177 -0.029244114 -0.12528737 -0.061450563
-0.61083317 1.0019995 -0.0445979 -0.26458988 0.7183013 -0.2755447 1.027562 0.39999646
0.6041625 -0.07678953 0.4940653 0.37622818 0.6305051 0.069054544 0.30479303 -0.044871856
0.23416346 0.44339028 0.40408954
00000000: 6349 a83d 95e3 e23e 568f 9c3e 6e38 d53c
00000010: 030d 943e 5a91 efbc 554b 00be 96b3 7bbd
00000020: 905f 1cbf 8541 803f 4aac 36bd 5378 87be
00000030: 98e2 373f 3214 8dbe 2787 833f 56cc cc3e
00000040: 65aa 1a3f d443 9dbd 21f6 fc3e fba0 c03e
00000050: c868 213f 786c 8d3d d50d 9c3e 8dcb 37bd
00000060: 8cc8 6f3e 0d04 e33e d3e4 ce3e

conv6.bias f4 [3]
0.112314284 0.08321531 -0.1779814
00000000: 0805 e63d ca6c aa3d c240 36be

conv7.weight f4 [3, 3, 1, 3, 3]
-0.11890103 0.16989253 0.59540963 -0.21475232 0.33402354 -0.03367302 -0.24695385 -0.46720734
0.46020547 -0.09144206 -0.17270449 -0.009745315 0.044890784 0.06277097 0.15087412 -0.14075364
0.2653893 -0.32729256 0.19444999 0.31598988 0.17005023 -0.3989907 -0.36246094 0.31687465
0.4766445 0.008597697 -0.19594328 -0.48347065 -0.39281848 -1.1628414 -0.52999437 -0.46378258
-0.4331941 -0.45733255 -0.67682713 -0.16794734 -0.09216057 -0.10532569 -0.06137553 0.45327225
-0.10037821 0.14763601 -0.017875047 -0.30449224 0.18775868 0.03807 0.16474177 0.09723267
0.25354666 -0.31791392 0.02959425 -0.3702234 0.19509187 -0.11602271 0.63039553 -0.1901179
-0.4126391 -0.06951039 -0.8195132 -0.52983534 -0.17188098 0.178623 -0.27056167 0.01789804
0.18453091 0.47617447 -0.1211334 -0.23633768 -0.0073956004 -0.026331933 -0.09656014 0.07058286
-0.14871038 0.18701294 0.16737789 -0.20038404 -0.019862073 0.1055722 0.26357868 0.3212543
0.024053488
00000000: 6282 f3bd 4ff8 2d3e c46c 183f 08e8 5bbe
00000010: 2205 ab3e b8ec 09bd 78e1 7cbe cd35 efbe
00000020: 0da0 eb3e fa45 bbbd 72d9 30be d0aa 1fbc
00000030: 66df 373d 118e 803d bf7e 1a3e b921 10be
00000040: 1be1 873e e492 a7be e61d 473e 6dc9 a13e
00000050: a621 2e3e 8248 ccbe 7b94 b9be 653d a23e
00000060: bf0a f43e 5bdd 0c3c 5ba5 48be 7789 f7be
00000070: 811f c9be fdd7 94bf b6ad 07bf e974 edbe
00000080: 9ecb ddbe 7e27 eabe 8b44 2dbf 63fa 2bbe
00000090: aebe bcbd ffb4 d7bd e864 7bbd 4d13 e83e
000000a0: 1793 cdbd e52d 173e b16e 92bc 68e6 9bbe
000000b0: d043 403e 4aef 1b3d 11b2 283e ec21 c73d
000000c0: ded0 813e 9dc5 a2be a46f f23c ec8d bdbe
000000d0: 2ac6 473e 519d edbd 9a61 213f 44ae 42be
000000e0: 6f45 d3be 775b 8ebd 9ecb 51bf 4aa3 07bf
000000f0: 9101 30be f3e8 363e 0f87 8abe e99e 923c
00000100: acf5 3c3e 24cd f33e ca14 f8bd 8102 72be
00000110: cb56 f2bb 11b6 d7bc 53c1 c5bd bf8d 903d
00000120: 8947 18be 5280 3f3e 1c65 2b3e 7931 4dbe
00000130: c9b5 a2bc 3d36 d83d c9f3 863e 727b a43e
00000140: d20b c53c

conv7.bias f4 [3]
-0.17732917 3.2774851 0.8209867
00000000: c795 35be 51c2 5140 2f2c 523f

conv8.weight f4 [3, 3, 3, 1, 1]
0.41124016 0.51597166 -0.23723681 -0.006822934 -0.3673366 -0.18664916 0.24974775 -0.38334587
0.39097553 0.68777364 0.5485915 -0.07541959 -0.3605773 -0.066593714 -0.32435337 0.1865182
-0.5771592 0.31842548 1.0984769 0.23442678 0.25566533 -0.32372776 -0.8075288 -0.060462497
0.1631628 -0.88076884 0.33439147
00000000: 128e d23e b816 043f 35ee 72be eb92 dfbb
00000010: 8b13 bcbe f520 3fbe e0bd 7f3e e945 c4be
00000020: f22d c83e ef11 303f 7e70 0c3f 9675 9abd
00000030: 969d b8be 4962 88bd a511 a6be a1fe 3e3e
00000040: b5c0 13bf aa08 a33e e49a 8c3f 930d 703e
00000050: 91e6 823e a5bf a5be 35ba 4ebf 86a7 77bd
00000060: 2614 273e 117a 61bf 5c35 ab3e

conv8.bias f4 [3]
-3.0408208 -0.6214266 2.7452943
00000000: cf9c 42c0 d015 1fbf e7b2 2f40
