saved_model/upsample_at_location_0.pt (torch, 7314 bytes, 16 tensors)

conv1.weight f4 [3, 3, 1, 3, 3]
0	0x3ea20c83	0.3165017
1	0xbf667d5b	-0.9003503
2	0x3eb2b5df	0.34904382
3	0x3d82c623	0.06385448
4	0xbef99497	-0.48746178
5	0xbed05510	-0.40689898
6	0xbdb4b8f4	-0.088243395
7	0x3e59610f	0.21228431
8	0x3ee7aa0e	0.4524693
9	0xbe8e0fc4	-0.27746403
10	0x3d13ab14	0.036051825
11	0xbdbf16e2	-0.093305364
12	0xbeb1b064	-0.34704888
13	0xbe74196e	-0.23837826
14	0x3deacacd	0.114644624
15	0xbe20e391	-0.1571181
16	0x3ea9222e	0.3303389
17	0xbe0eb36d	-0.13935633
18	0xbf0890db	-0.5334603
19	0x3d3e5cf9	0.046475384
20	0xbea2cb42	-0.31795698
21	0xbde0bb02	-0.10973169
22	0xbddd91f9	-0.10818858
23	0xbe15a031	-0.1461189
24	0x3f534401	0.8252564
25	0xbea795ff	-0.32731625
26	0x3cb90699	0.022586154
27	0xbdc42b54	-0.09578577
28	0xbeefee27	-0.46861383
29	0x3f107540	0.5642891
30	0xbe01e7ef	-0.12686132
31	0xbe61dfa2	-0.22057965
32	0x3e7dfc63	0.24803309
33	0xbe8ef1cd	-0.27918854
34	0x3e7f6eb8	0.2494458
35	0x3ed0b790	0.40765047
36	0x3e8ba6db	0.27275738
37	0xbd555b15	-0.052088816
38	0x3e41e330	0.18934321
39	0xbec56dd6	-0.3856036
40	0x3e8a71ee	0.27040046
41	0x3e0b5352	0.13606003
42	0xbd9d84ff	-0.076913826
43	0x3e4ff27f	0.20307349
44	0xbe866d9a	-0.26255494
45	0xbec6c2f4	-0.38820612
46	0x3db0d8e4	0.086351186
47	0x3e1ee4ec	0.15517014
48	0x3e8b0a7b	0.27156433
49	0x3cb6fcfb	0.022337427
50	0x3ddb59d4	0.10710493
51	0xbebe3987	-0.37153265
52	0x3e0c5f42	0.13708213
53	0x3e8c774b	0.27434763
54	0xbead3b11	-0.33834127
55	0x3d6bbf60	0.057555556
56	0x3bca7192	0.0061780894
57	0xbe4788cc	-0.19485778
58	0xbe667658	-0.22506082
59	0x3db3b671	0.08775032
60	0x3ebb0cd9	0.3653324
61	0xbe408573	-0.18800907
62	0xbe6ccf0d	-0.23125859
63	0xbcdc6250	-0.026902348
64	0x3ce51529	0.027964192
65	0x3d2080ff	0.03918552
66	0xbf09d614	-0.5384228
67	0xbe721e70	-0.23644423
68	0xbbb7a102	-0.0056039104
69	0xbe35ab00	-0.17741013
70	0x3f0699f0	0.5257864
71	0xbe1fefb5	-0.15618785
72	0x3ce57f88	0.028014913
73	0xbd42e185	-0.047578353
74	0xbe417768	-0.18893206
75	0xbe4adfa4	-0.19811875
76	0x3db4eadb	0.088338576
77	0xbe0259cc	-0.12729567
78	0x3f05a1bd	0.5219992
79	0x3e50f704	0.20406729
80	0xbf1739ea	-0.59072745

conv1.bias f4 [3]
0	0xbbc5eafc	-0.006039975
1	0x3ecdadab	0.4017156
2	0xbd2f1fd6	-0.04275497

conv2.weight f4 [3, 3, 3, 1, 1]
0	0xbd3ed365	-0.04658832
1	0x3ce88c3f	0.028387187
2	0xbd843369	-0.06455118
3	0x3e49e8f9	0.19717778
4	0x3eb8628a	0.3601268
5	0xbbcee759	-0.0063142
6	0x3f121d12	0.5707561
7	0x3e34351a	0.17598382
8	0xbd2c84f3	-0.042118978
9	0xbe9a1612	-0.30094963
10	0x3f96bf03	1.1777042
11	0x3f154d32	0.58320916
12	0xbd3903a4	-0.045169488
13	0xbc701f98	-0.01465597
14	0xbcbdb9ed	-0.023159945
15	0x3ee6ea09	0.4510043
16	0xbf204dae	-0.6261853
17	0x3e8c1f45	0.27367607
18	0x3f0e19a7	0.5550789
19	0x3e0062c3	0.12537675
20	0xbe19104d	-0.14947625
21	0xbd9a66a0	-0.075391054
22	0x3e04fdcf	0.12987445
23	0x3eaa1593	0.33219585
24	0xbf13c1ca	-0.57717574
25	0xbd70b29b	-0.05876408
26	0x3ded913f	0.11599969

conv2.bias f4 [3]
0	0x3ef6dbc3	0.4821454
1	0x3e958de9	0.2920983
2	0x3deed25d	0.11661217

conv3.weight f4 [3, 3, 1, 3, 3]
0	0x3e97a503	0.2961808
1	0xbe09ae68	-0.13445437
2	0xbf1468f1	-0.5797263
3	0xbe8bd68d	-0.27312127
4	0xbe441798	-0.19149625
5	0xbe5920ca	-0.21203914
6	0x3f0e063d	0.5547827
7	0xbd562cb4	-0.052288726
8	0x3f1f024e	0.6211289
9	0xbf4776b2	-0.7791549
10	0xbf40e9f6	-0.75356996
11	0xbf38f519	-0.7224899
12	0xbfbfc43f	-1.4981765
13	0xbf1004bf	-0.5625724
14	0xbf1e360f	-0.61801237
15	0xbf3353b1	-0.7004958
16	0xbefb58e3	-0.49091253
17	0xbd9774dc	-0.07395336
18	0x3dfeb2a9	0.124364205
19	0xbf05af87	-0.5222096
20	0xbc021bb4	-0.007941175
21	0x3e42d3ed	0.19026156
22	0x3f168eff	0.58811945
23	0xbdd7ed75	-0.10543338
24	0x3e8f56ba	0.27995855
25	0xbe271988	-0.16318333
26	0x3e3dffe3	0.18554644
27	0xbdfb8356	-0.1228091
28	0x3ed5eb10	0.417809
29	0xbd28c1d0	-0.04120046
30	0xbe490b55	-0.19633229
31	0xbe455895	-0.19272073
32	0x3d6d000b	0.05786137
33	0x3c903a84	0.017606027
34	0x3e32cd28	0.17461073
35	0x3e96c7f8	0.2944944
36	0xbf0b0b49	-0.54314095
37	0xbf5c880a	-0.8614508
38	0xbf11f5bd	-0.5701559
39	0xbefe3d27	-0.4965603
40	0xbf23d3bf	-0.63994974
41	0xbe86a5b4	-0.26298296
42	0xbe6ac7ea	-0.22927824
43	0xbed4ab2b	-0.4153684
44	0x3e8f5495	0.27994218
45	0xbede4dbd	-0.43418685
46	0x3bca252f	0.0061689834
47	0xbf0eb3c6	-0.5574306
48	0xbe305e31	-0.17223431
49	0x3eb77e56	0.35838574
50	0xbbf4ed44	-0.0074745733
51	0xbd44182c	-0.047874615
52	0x3f0aea2e	0.5426358
53	0x3d8b0ac6	0.06789164
54	0x3d15e175	0.036591966
55	0xbe061f36	-0.13097844
56	0xbf108365	-0.5645049
57	0x3ec80251	0.39064267
58	0x3dba3334	0.090917975
59	0x3d144665	0.036199946
60	0x3e425e81	0.18981363
61	0x3ee71d66	0.45139617
62	0x3e485704	0.19564444
63	0xbeae962e	-0.34098953
64	0xbe1fbdd3	-0.15599756
65	0xbd0c2f42	-0.034224756
66	0xbe3c3242	-0.18378547
67	0xbf025f86	-0.5092701
68	0x3e71a221	0.23597004
69	0xbe813aa4	-0.25240052
70	0x3e2e33ed	0.17011996
71	0xbda2102b	-0.0791324
72	0xbdd309a8	-0.10304576
73	0xbde0ed39	-0.10982747
74	0xbd5099d1	-0.05092794
75	0x3e329a5f	0.174417
76	0x3e88ae05	0.26695266
77	0x3da84081	0.08215428
78	0x3af228a2	0.0018475244
79	0xbc8cd8ea	-0.017193276
80	0x3e011c55	0.12608464

conv3.bias f4 [3]
0	0x3eb6c7b5	0.3569924
1	0x3ee7a850	0.452456
2	0x3e67be84	0.2263127

conv4.weight f4 [3, 3, 3, 1, 1]
0	0x3e9d7f50	0.30761194
1	0x3f2053a3	0.6262762
2	0xbe57cfb4	-0.21075326
3	0x3ee1ce6a	0.44102794
4	0x3e154d43	0.14580254
5	0xbd0ce4b5	-0.0343978
6	0x3ccb4efc	0.024817936
7	0x3f1e278e	0.61779106
8	0x3e5911d8	0.21198213
9	0xbee59bae	-0.44845337
10	0xbe1690c1	-0.14703657
11	0xbf1f98de	-0.6234263
12	0xbdc069e5	-0.09395198
13	0x3cd7010c	0.026245616
14	0x3f01c3fa	0.5068966
15	0x3eaf54e8	0.34244466
16	0xbf2d1f16	-0.6762556
17	0x3f14eb78	0.58171797
18	0x3e054c14	0.13017303
19	0x3e98be21	0.29832557
20	0xbea7b746	-0.32757014
21	0xbd868ab0	-0.06569421
22	0xbcddd662	-0.027079765
23	0xbc768f8b	-0.015048872
24	0x3ead0c11	0.33798268
25	0xbf13728f	-0.5759668
26	0x3f029094	0.5100186

conv4.bias f4 [3]
0	0x3e028b8c	0.12748545
1	0x3e5aaf9f	0.21356057
2	0x3ed48f36	0.4151551

conv5.weight f4 [3, 3, 1, 3, 3]
0	0x3e1850e7	0.14874612
1	0x3ecac50d	0.39603463
2	0x3e8aa51e	0.270791
3	0x3f0bb913	0.54579276
4	0x3f183d22	0.5946828
5	0xbea98541	-0.33109477
6	0xbda14382	-0.07874204
7	0xbec09269	-0.37611702
8	0x3e3e6c3a	0.18595973
9	0x3dbdb259	0.09262533
10	0x3d83f7e5	0.064437665
11	0x3df15242	0.117832676
12	0x3dd298e1	0.102830656
13	0xbe0322c4	-0.12806231
14	0xbeb42e1a	-0.35191423
15	0x3dae9ad6	0.08525626
16	0xbdb5664b	-0.088574015
17	0x3eb6ab75	0.35677686
18	0x3e7c7f18	0.24657857
19	0x3d7abccb	0.061215203
20	0x3c7c4427	0.015397108
21	0xbe745b65	-0.23862989
22	0x3c2f770e	0.010709537
23	0xbe9d062f	-0.3066878
24	0xbdaf9d93	-0.08574977
25	0x3f7a7df3	0.97848433
26	0xbe058d7a	-0.1304225
27	0xbf2c3549	-0.67268807
28	0x3bf0f960	0.0073539466
29	0xbe842f34	-0.25817263
30	0x3ef5cb94	0.4800688
31	0x3e8458da	0.25849038
32	0x3e0b3654	0.13594943
33	0xbe95b0fa	-0.29236585
34	0x3e90b8a7	0.2826588
35	0x3d08cee3	0.033400428
36	0x3e40a37b	0.18812363
37	0xbebed4d7	-0.3727176
38	0xbe232c98	-0.1593498
39	0x3eefdf0e	0.46849865
40	0x3e81fab5	0.25386587
41	0xbe93aa29	-0.2884076
42	0x3bc77cf3	0.006087893
43	0xbe83a7b9	-0.257139
44	0x3f021a3c	0.5082128
45	0x3ec544fe	0.385292
46	0x3e6f7127	0.23383008
47	0x3ec775a8	0.38956952
48	0x3eb117cc	0.34588468
49	0x3eb8f5f5	0.3612515
50	0xbce25853	-0.027630007
51	0xbcd9bb4f	-0.026578574
52	0x3debd6bc	0.11515567
53	0xbeb06efd	-0.34459677
54	0x3f466c10	0.7750864
55	0xbe77acd3	-0.24187021
56	0xbe6d1d83	-0.23155789
57	0xbe0b0226	-0.13575038
58	0xbe21b89d	-0.1579308
59	0xbf05a010	-0.5219736
60	0xbe0d5cc1	-0.13804914
61	0x3cee93ce	0.029123213
62	0xbe2a244e	-0.16615412
63	0x3e30dd1c	0.17271847
64	0x3f050a2c	0.51968646
65	0x3f16ca12	0.58902085
66	0x3f09de35	0.53854686
67	0xbe2082ab	-0.15674846
68	0xbc94ddd8	-0.01817219
69	0xbf04ad4a	-0.5182692
70	0xbe6f5b5e	-0.23374698
71	0xbeaa6277	-0.33278248
72	0x3ec58e10	0.38584948
73	0x3f08b87c	0.534065
74	0x3ec16f66	0.37780303
75	0x3e127bc0	0.1430502
76	0xbd64b99c	-0.055841073
77	0x3e53ee01	0.2069626
78	0x3e93328c	0.28749502
79	0xbde1f4cf	-0.11033022
80	0x3f03bad9	0.5145698

conv5.bias f4 [3]
0	0x3e30e3d3	0.17274408
1	0x3e933028	0.28747678
2	0x3f999401	1.1998292

conv6.weight f4 [3, 3, 3, 1, 1]
0	0x3f0d3a8f	0.5516748
1	0x3f21de8e	0.63230217
2	0xbe02c45f	-0.12770222
3	0xbf500337	-0.81254905
4	0xbfd40b4f	-1.6565951
5	0x3e91d110	0.28479815
6	0xbf15e96f	-0.58559316
7	0x3d9b4fce	0.07583581
8	0xbe666625	-0.22499903
9	0xbd54cb27	-0.051951554
10	0xbe878a8b	-0.26472887
11	0xbf24c243	-0.6435892
12	0xbf008e89	-0.5021749
13	0x3f3cfd08	0.73823595
14	0xbfa87095	-1.3159357
15	0x3f3e6c88	0.74384356
16	0x3fb877be	1.4411542
17	0x3fd21b7c	1.6414638
18	0x3e8b6de2	0.2723227
19	0x3ec24176	0.37940568
20	0xbd8b5f47	-0.06805282
21	0xbfb51a38	-1.4148626
22	0x3f229dd5	0.6352208
23	0x3e1e5fbe	0.1546621
24	0xbd3f9a5e	-0.046778075
25	0x3f6cc89c	0.92493606
26	0x3f51c27f	0.819374

conv6.bias f4 [3]
0	0x3edfcbba	0.4371012
1	0x3f41fcd7	0.7577643
2	0xbf4a60c5	-0.7905391

conv7.weight f4 [3, 3, 1, 3, 3]
0	0xbe781497	-0.24226604
1	0x3e9ec822	0.31012064
2	0xbe82830b	-0.25490603
3	0xbe8f3190	-0.279675
4	0x3e24b2a0	0.16083765
5	0xbd95bf1a	-0.0731184
6	0x3db0768f	0.08616363
7	0xbe5f482c	-0.21804875
8	0xbe3d8db1	-0.18511082
9	0xbf002147	-0.5005078
10	0xbea95b12	-0.33077294
11	0xbe21c8a6	-0.15799198
12	0xbe457a80	-0.19285011
13	0x3eba50e3	0.36389837
14	0x3dfffdcb	0.12499579
15	0xbf0ea3d6	-0.55718744
16	0xbe9233f2	-0.28555256
17	0x3d017294	0.03160341
18	0x3df6d00c	0.120514005
19	0x3e343f69	0.17602314
20	0x3ef5bf8d	0.47997704
21	0xbd8c40c5	-0.06848291
22	0x3e0664bc	0.13124365
23	0xbe982975	-0.2971913
24	0x3f44e9a2	0.76918995
25	0x3ed889bc	0.42292583
26	0xbebf5dd1	-0.37376264
27	0x3ea0cc34	0.31405795
28	0x3e86fb8d	0.26363793
29	0x3e5b4630	0.21413493
30	0x3c680bc2	0.0141629595
31	0x3e11f429	0.14253296
32	0xbef2651f	-0.47342774
33	0x3e7820b6	0.24231228
34	0x3e40e867	0.18838654
35	0x3d78b940	0.060723543
36	0x3ea1a158	0.31568408
37	0xbdd82252	-0.10553421
38	0xbf26b839	-0.6512485
39	0x3b2a5871	0.0025992657
40	0xbb99bde6	-0.004691827
41	0x3eb689d5	0.35652032
42	0xbf27c75e	-0.65538585
43	0xbe25d9d9	-0.16196384
44	0xbf0f2908	-0.55921984
45	0x3d4367a4	0.04770626
46	0x3e2a25df	0.16616009
47	0xbe33e554	-0.1756795
48	0x3dec31e2	0.11532952
49	0x3e2e1f8e	0.17004225
50	0xbe83240a	-0.25613433
51	0x3dd2ee32	0.102993384
52	0xbea7b5ee	-0.3275599
53	0x3ebb0727	0.36528894
54	0x3eaadc46	0.3337118
55	0x3e5b04ab	0.213885
56	0x3d7788d4	0.060433224
57	0xbdae7d21	-0.0851996
58	0x3f0c2b5b	0.54753655
59	0xbea547cd	-0.32281342
60	0x3e27ba47	0.16379653
61	0x3e378f74	0.17925817
62	0x3e853236	0.2601487
63	0xbe2d4974	-0.16922551
64	0xbcb874ba	-0.022516597
65	0x3daf7981	0.08568097
66	0x3d1cdb74	0.038295224
67	0xbe0996ba	-0.13436404
68	0xbe40a7b5	-0.18813975
69	0xbdbb15d1	-0.091350205
70	0x3e443299	0.19159926
71	0xbd4ee52d	-0.050511528
72	0xbc231af0	-0.009955153
73	0xbaab9137	-0.0013089542
74	0x3c0b1e56	0.008491119
75	0x3e3fdb75	0.1873606
76	0xbe642ec2	-0.22283462
77	0x3e84ead7	0.2596042
78	0xbd0dbd63	-0.03460444
79	0xbe3b6b43	-0.18302636
80	0xbe8f52e8	-0.2799294

conv7.bias f4 [3]
0	0x401a0f31	2.4071772
1	0xbf8db8b9	-1.1071998
2	0x402431f1	2.5655482

conv8.weight f4 [3, 3, 3, 1, 1]
0	0x3f2a344a	0.66486037
1	0xbf6486ef	-0.8926839
2	0x3eb02018	0.34399486
3	0x3d84ea10	0.064899564
4	0x3f06de29	0.5268274
5	0x3f6bca5c	0.9210565
6	0xbe7c6fbe	-0.24652001
7	0x3dabd128	0.08389503
8	0x3e2b9718	0.16756856
9	0x3f05160e	0.5198678
10	0xbf257bf4	-0.6464226
11	0x3e9d82fb	0.30763993
12	0x3e834a63	0.2564269
13	0x3f8dd107	1.1079415
14	0x3eafbeaf	0.34325168
15	0xbf3030fa	-0.6882473
16	0x3dc29636	0.09501307
17	0x3ee1c8d2	0.44098526
18	0x3ea10385	0.31447998
19	0xbf40bce4	-0.75288224
20	0x3f23da23	0.64004725
21	0x3f4b5da9	0.7943979
22	0x3cec6186	0.028855097
23	0x3e940a74	0.28914225
24	0xbf69d38f	-0.9133844
25	0x3f11630d	0.56791764
26	0x3f4ca148	0.79933596

conv8.bias f4 [3]
0	0xc03800e2	-2.875054
1	0x3f0428f6	0.51625
2	0x4003a7ff	2.0571287
