saved_model/upsample_at_location_2.pt (torch, 7314 bytes, 16 tensors)

conv1.weight f4 [3, 3, 1, 3, 3]
000000 02 e7 0d bd 3a f5 48 3e af a4 f5 3e 73 8a b2 be
       -0.034644134 0.19624797 0.47977206 -0.34871253
000010 7b c4 49 3f 42 c5 1b be 12 c7 23 3e 8f a1 a2 3d
       0.7881543 -0.15211967 0.15993908 0.07940971
000020 1d 47 46 bc 57 e3 d4 3d 47 89 9d be 55 bc a0 3e
       -0.012101916 0.10394924 -0.30768797 0.31393686
000030 c1 44 01 3f f7 e4 e4 3e af 73 f6 bd f4 48 08 3e
       0.50495535 0.44705936 -0.12033784 0.1330908
000040 7b 98 fd 3e e2 20 3d 3d 94 9e ca 3d db 55 3f be
       0.49530396 0.046173938 0.098935276 -0.18685095
000050 af 7b 86 3e f3 87 ed 3d 8e de 4e 3e a8 78 27 3c
       0.26266238 0.11598196 0.20202085 0.010221638
000060 b6 70 17 be 8f 30 b3 3e 81 cf 71 be c6 93 2c 3e
       -0.1478909 0.34997985 -0.23614313 0.16853246
000070 ee 9d 5b 3e 6b f8 70 bd c9 14 54 3e 75 79 bf 3e
       0.21446964 -0.05883066 0.20711054 0.37397352
000080 eb b5 42 be b5 2a ee 3e c0 1c 50 be 4c 1a 59 3e
       -0.19014709 0.46516958 -0.20323467 0.21201438
000090 3d 3d 67 3c cf 11 ac 3d 97 ec d0 bd 4f 44 5e be
       0.014113721 0.08401834 -0.10201376 -0.21705745
0000a0 48 0d 09 3e e3 24 e2 3e 90 dc 60 3e 6b ba 86 3e
       0.13383973 0.44168767 0.21959138 0.263141
0000b0 e4 e8 2b 3e 0f f8 31 3f eb dd a0 3e 2f 17 f9 3e
       0.1678806 0.6951913 0.3141931 0.486505
0000c0 93 81 0b 3e df d2 cb bd d7 28 b4 be 99 f6 58 3e
       0.13623647 -0.0995233 -0.35187408 0.2118782
0000d0 fa 96 b9 3d 26 cf 26 3e e5 8e 84 3d 76 42 b8 be
       0.090619996 0.16289958 0.064725675 -0.35988206
0000e0 38 93 02 3f d5 3d d0 bd 9c 05 2b 3c 54 0f 52 be
       0.5100589 -0.101680435 0.010438349 -0.2051366
0000f0 20 94 8c 3d b3 2b 15 bd b6 fe 71 be e5 e1 94 bd
       0.0686419 -0.036418628 -0.23632321 -0.072696485
000100 27 55 28 be 59 66 71 be e3 64 b0 3e 6d 5a 07 3e
       -0.16438733 -0.23574199 0.3445197 0.13218088
000110 25 cd 69 be f1 fc 98 3e 41 c6 16 bc e6 49 92 3e
       -0.22832163 0.2988048 -0.009202541 0.28572005
000120 b4 c1 a7 bd 8b f5 53 3d 70 e5 7e 3e 06 ff 7f bd
       -0.08191243 0.05174784 0.24892211 -0.06249907
000130 ff 96 c4 be 05 5f b9 be c7 a4 1d bf d4 1f 96 be
       -0.3839645 -0.36205307 -0.61579555 -0.29321158
000140 31 73 ff be
       -0.49892572

conv1.bias f4 [3]
000000 3e bb 46 3e a4 b5 44 3e 1a e9 18 bf
       0.19407365 0.19209915 -0.59730685

conv2.weight f4 [3, 3, 3, 1, 1]
000000 5c 37 80 be 76 db 27 bd d5 5d 84 3c f5 14 b0 3d
       -0.25042236 -0.04098078 0.016158024 0.08597747
000010 d2 72 f6 3e df ab a2 3e 2b 38 ad 3e e3 aa 9f be
       0.48134476 0.31771752 0.33831915 -0.31185064
000020 35 f7 9a 3e e4 ac 75 be bd 82 4e 3f e2 ad a0 be
       0.3026673 -0.23991734 0.8066824 -0.31382662
000030 3a 19 3f 3e 82 ad 36 3e 0d d2 11 3d e2 d2 53 3f
       0.18661967 0.17839625 0.03560071 0.82743657
000040 c1 83 11 bf 21 52 a2 3e f2 58 61 3d c7 40 a3 3e
       -0.56841666 0.31703284 0.055016465 0.3188536
000050 85 26 f6 3e 61 29 db 3e 04 a0 92 be a7 ce af 3f
       0.48076263 0.42805007 -0.28637707 1.373494
000060 a1 e0 9a bf 58 de ec 3e 3d fb 1b be
       -1.2099801 0.46263385 -0.15232559

conv2.bias f4 [3]
000000 85 dc 63 3f be 79 94 3e 15 4e f0 3d
       0.8900836 0.28999132 0.11733643

conv3.weight f4 [3, 3, 1, 3, 3]
000000 67 39 fc be ce f7 3d 3e 7c 22 03 bf 0e 8e 02 3e
       -0.49262545 0.18551561 -0.51224494 0.12749502
000010 a5 ca b7 be aa 61 83 bd 91 00 0d be e3 e7 19 bf
       -0.35896793 -0.06415112 -0.13769747 -0.60119456
000020 97 6e ad bc 43 f1 20 bf 72 c9 c4 be b1 65 88 3e
       -0.021170897 -0.62868136 -0.3843494 0.26640084
000030 a3 fa 6a bf 2c 7e 0d bd 3d 59 ad bd 31 61 41 bf
       -0.9178869 -0.034544155 -0.084642865 -0.7553893
000040 5a 33 63 be c6 f2 ae 3c 5b 82 c3 bd df b8 14 3e
       -0.22187558 0.021355998 -0.09546348 0.14523648
000050 5e f5 13 be 16 4b a8 3e e7 cd 9c be 07 83 88 bc
       -0.14449069 0.32869786 -0.3062584 -0.016664041
000060 51 86 28 3d 19 25 b7 be ba e0 77 3e 1a e6 8f be
       0.04114372 -0.3577049 0.2420682 -0.2810524
000070 4a 68 be be dc b5 42 be 74 5f 57 3e da 1b dd 3d
       -0.3718894 -0.19014686 0.21032506 0.10796328
000080 72 10 1a 3f cd f6 74 bd 8c 61 01 3e 67 22 04 bc
       0.60181344 -0.05980568 0.12634867 -0.008064843
000090 96 c6 17 3e fa da fb be 4c e9 b4 be 93 01 72 3e
       0.14821848 -0.49190503 -0.3533424 0.23633413
0000a0 b3 db a1 3e ca 01 4d 3d 15 c7 6f 3e 49 b9 43 3e
       0.3161293 0.050050534 0.23415788 0.1911365
0000b0 85 de 87 3e 6e 6f 83 3d b9 47 86 be 71 bb c3 be
       0.26536956 0.06417738 -0.26226595 -0.38228944
0000c0 a2 fd 8f 3e 1f 78 92 3e c4 de cd 3e 29 aa 7a 3e
       0.28123194 0.2860727 0.4020902 0.24478973
0000d0 e2 f6 b9 3d 6e a5 f0 be 47 18 89 be 31 b9 6d 3e
       0.09080292 -0.47001213 -0.26776335 0.23215176
0000e0 49 0b ee be 01 44 d9 be 3b 39 fd 3d d2 7b 86 3e
       -0.46492985 -0.42434695 0.123644315 0.26266342
0000f0 1b c4 55 be 88 15 10 3e 32 8a 3d 3d ed a0 08 be
       -0.2087559 0.14070714 0.04627437 -0.13342638
000100 22 ce 9f be 10 aa 92 be 52 38 2b be cd 63 3b 3e
       -0.31211954 -0.28645372 -0.16720703 0.1829979
000110 78 a8 bc 3e 3a 53 42 3f 89 d7 07 3e 5d be 08 3f
       0.3684728 0.75908244 0.13265814 0.5341547
000120 e2 dd 84 3e e5 8d 8f be 59 b7 c8 bd 70 92 63 3d
       0.25950533 -0.28037944 -0.09800596 0.055559576
000130 d8 ef 8e bd 9f 9a f2 3d 0e f1 1e 3d 67 64 53 3e
       -0.0697934 0.11845898 0.038804106 0.20643769
000140 b5 8f c8 bd
       -0.09793035

conv3.bias f4 [3]
000000 44 13 4e 3d 73 3e 1d 3e 83 47 8f 3e
       0.050311342 0.15355854 0.27984247

conv4.weight f4 [3, 3, 3, 1, 1]
000000 b3 c4 a1 be f8 b3 a7 bf 6f 5a b7 3e 7b b5 5c be
       -0.31595382 -1.3101797 0.35811183 -0.21553604
000010 df 91 8b 3e 00 7b 03 3e 07 af 18 3e ae e7 2a bd
       0.27259728 0.1283989 0.14910518 -0.041724853
000020 6a 9b 8b 3d ce 8e bb 3b 6b 70 0c bf 5c a0 4d 3f
       0.06816752 0.0057238108 -0.54859036 0.80322814
000030 48 f2 25 bf a2 d5 ab bc 25 fc 91 3d 14 e6 0c 3f
       -0.64822817 -0.020975892 0.07128171 0.5503857
000040 21 ec 54 3d 6e 60 5b 3d 34 a4 57 3f 63 a5 81 be
       0.051983003 0.05355876 0.8423493 -0.25321493
000050 80 ae 00 3f e2 ad 65 3c 2a c5 17 bf 02 c8 86 3e
       0.50266266 0.014018508 -0.59285223 0.2632447
000060 91 f2 92 bd 09 74 12 3f ab cc 73 3e
       -0.07175172 0.57208306 0.23808543

conv4.bias f4 [3]
000000 d0 91 20 3e 4b cf e2 3f 6a c0 10 bf
       0.15680623 1.7719511 -0.565436

conv5.weight f4 [3, 3, 1, 3, 3]
000000 66 bc 0d be 9c 33 36 3e 82 31 cb 3d c0 03 2d 3d
       -0.138414 0.17793125 0.09921552 0.042239904
000010 17 61 64 3f a1 fc 52 be a1 71 13 3f 0b 84 ef 3e
       0.8921065 -0.20604183 0.5759526 0.46780428
000020 98 7c 03 3e ba de 89 3e 75 ea e8 bd 3a bc f6 bc
       0.12840497 0.2692774 -0.11372844 -0.03011905
000030 f4 3d 0e be 3e 25 5e be 89 cc 36 bd 38 7f d8 3e
       -0.1389082 -0.21693894 -0.044628654 0.4228456
000040 86 aa 82 3c af e6 1f 3d e4 d9 96 3c 46 03 87 be
       0.015950453 0.039038356 0.018414445 -0.26369685
000050 50 89 93 3e 57 6a 84 3d 81 63 58 3e 87 b2 d9 be
       0.288157 0.06465595 0.21131708 -0.42519018
000060 29 c4 14 be 0b 18 13 be d0 03 15 3d 70 31 70 3d
       -0.14527954 -0.1436464 0.03638059 0.058640897
000070 9a 31 ca be 29 e4 d3 3d be 7c 04 3e fc b8 6f bd
       -0.39490968 0.103462525 0.1293821 -0.058526024
000080 21 30 58 3e d7 f3 a1 bd 45 a7 2c 3e 70 4a 49 3e
       0.2111211 -0.07907837 0.16860683 0.19657302
000090 ab 9c 51 be 5f 2f 0f 3f a6 0d 9c be 18 41 36 bd
       -0.2046992 0.5593166 -0.30479163 -0.044495672
0000a0 6b df 95 3d 11 3e a4 3d fa 7f da bd c2 b1 bb be
       0.07318004 0.08019651 -0.10668941 -0.36659056
0000b0 9d 95 5b 3e fe c9 d8 3d 58 6d 6c 3e 33 fa 3a 3d
       0.21443792 0.10585402 0.23088586 0.045648765
0000c0 d4 4e a9 bd 94 74 58 be ca 6c 0a be 2f 20 81 3d
       -0.082669884 -0.21138221 -0.13518062 0.06304967
0000d0 45 a4 69 be 38 4f 80 bd 19 43 90 be 47 e5 d0 bd
       -0.2281657 -0.0626511 -0.2817619 -0.10199981
0000e0 be ff f3 3e 32 5c 3c be 3b 0b 46 3d da 4c b0 3c
       0.47656053 -0.18394545 0.048350554 0.02152102
0000f0 f9 9e b8 3d 66 9d 2f be da e2 34 3f 80 32 90 3e
       0.09014697 -0.17149886 0.7065865 0.28163528
000100 7a 11 48 be 13 08 d7 be 37 f5 89 bd ce 19 60 3e
       -0.19537917 -0.41998348 -0.06736224 0.21884844
000110 04 d0 8c 3c a7 40 af 3e bd b3 8e be 04 ac 84 bd
       0.017189033 0.34229013 -0.27871504 -0.06478122
000120 65 5f 79 be bc 00 60 3e d2 1c 9d 3d 7b 90 33 3e
       -0.24352796 0.2187528 0.07671513 0.17535584
000130 d8 e3 64 3e c5 29 b3 3c cf 5b 75 be 17 88 28 3e
       0.2235254 0.021870503 -0.23960803 0.16458164
000140 c7 c2 c3 be
       -0.3823454

conv5.bias f4 [3]
000000 76 95 ea 3d 9c 35 7d 3c c1 6e 96 bc
       0.11454289 0.015454676 -0.018363358

conv6.weight f4 [3, 3, 3, 1, 1]
000000 76 be 6b 3e fc 5b 0e 3f 3d cf 4c bd 31 39 ec 3e
       0.23021874 0.55609107 -0.050002325 0.46137384
000010 84 dc 3d bd 74 f9 a5 3e 17 45 75 3e 12 b8 b7 3c
       -0.04635288 0.3241688 0.23952137 0.022426639
000020 f0 c9 90 bd f4 f1 92 3e 68 ef 22 bf 93 5f c6 3f
       -0.070697665 0.2870022 -0.63646555 1.5497917
000030 0f 4d a9 3e 29 c9 82 bf ff 3e 96 be 19 9d 92 3d
       0.33066604 -1.0217639 -0.29344937 0.0715887
000040 41 c4 1f 3f 13 82 40 be 83 70 6b bd 4e 7a ce 3c
       0.62408835 -0.1879962 -0.057480346 0.025204804
000050 d8 4e dc bd e9 5a f4 3e ff 18 f9 3e f2 28 a4 3d
       -0.10757226 0.4772561 0.48651883 0.08015622
000060 3d 68 09 3e d9 d6 7e 3f 91 66 b2 3f
       0.1341867 0.9954658 1.3937551

conv6.bias f4 [3]
000000 8c 6b 19 3d d1 7b 0f 3e 54 71 74 bd
       0.03745608 0.14012076 -0.05967839

conv7.weight f4 [3, 3, 1, 3, 3]
000000 15 85 64 bd 22 7e af 3d c2 c7 2a 3f e0 1d 9a be
       -0.05579098 0.0856898 0.66711056 -0.30100918
000010 2a 20 89 be f4 c0 73 3e ff d4 26 bd f9 0c 9e be
       -0.26782352 0.23804075 -0.040730473 -0.30869272
000020 d8 7d ca 3d 13 8a bc 3d ef 38 d0 bd bb c0 42 be
       0.09887284 0.09206023 -0.10167109 -0.19018833
000030 2c e7 82 3e 2d 16 9f be b7 ba 1c 3d af 45 17 3a
       0.25566995 -0.31071606 0.038264003 0.00057705765
000040 11 4a 2e 3e 2d 39 59 be ca 63 2a 3f 85 52 dd be
       0.17020442 -0.21213217 0.66558516 -0.4322702
000050 8a fc 4c 3e 6e 73 6b 3e a2 1d 71 3d b4 48 09 3e
       0.20018211 0.22993252 0.05886615 0.1340664
000060 3a 08 11 be 4d 76 5c 3e 74 29 0e be 74 d3 bf 3e
       -0.14163294 0.21529503 -0.13883 0.37466013
000070 4f ea b0 be a4 75 05 3f 4b 00 07 bf 6c ee 5a be
       -0.34553763 0.5213263 -0.5273482 -0.21380013
000080 0c a3 47 3e 04 0f a0 3d 88 5b 20 be 0d 55 3a bd
       0.19495791 0.07815364 -0.15659916 -0.045491267
000090 69 94 61 bc 2f 10 9d be 9d 3d d2 be ce 2a 54 3e
       -0.013768294 -0.3067641 -0.41062632 0.20719454
0000a0 81 81 fc bd 29 43 a4 3d 06 b4 11 3d 54 c8 5d bd
       -0.123293884 0.08020622 0.035572074 -0.054146126
0000b0 ba 91 3b 3e c9 1d ab be 23 39 80 be 6b 91 12 bf
       0.18317309 -0.33421162 -0.25043592 -0.5725314
0000c0 3d 19 22 3e 90 3f 8f be 31 2b 3f bf 0d 11 f9 be
       0.1582994 -0.27978182 -0.7467528 -0.4864582
0000d0 f2 c5 ce be b7 aa 8f be 10 4a 7f 3d f1 0a 2f 3e
       -0.40385395 -0.28059933 0.06232649 0.17094018
0000e0 f1 48 d3 bd 9c 17 3d bc 3b 9b 31 3e 8a 1e 09 be
       -0.10316647 -0.011541273 0.17344372 -0.13390556
0000f0 05 bc 96 be d9 bd 15 bb b8 1f 30 3e 77 eb af 3e
       -0.29440323 -0.0022848754 0.171996 0.34359333
000100 4d 9d f2 bd 74 96 34 be ce 2e ff 3d 50 4a 81 bd
       -0.11846409 -0.17635518 0.12460099 -0.06313002
000110 81 bd 22 bf 12 53 21 3e d3 ac 1b be 35 3d 5c 3e
       -0.6357041 0.15754345 -0.15202646 0.21507724
000120 b2 bb 44 3e 36 75 2e 3e 1b 80 dd 3e e4 60 91 3e
       0.19212225 0.170369 0.432618 0.28394234
000130 d1 6b 08 3c 13 56 79 3e 28 97 11 3e a7 62 41 be
       0.008326487 0.24349241 0.14217818 -0.18885289
000140 3c d9 8d be
       -0.277048

conv7.bias f4 [3]
000000 10 67 43 3d b6 47 5e be 1d c6 72 be
       0.04770571 -0.21707043 -0.23708387

conv8.weight f4 [3, 3, 3, 1, 1]
000000 77 5d 24 3e be 3b 1e 3f db 46 3b bd 92 99 b5 bd
       0.16051279 0.6180991 -0.04572187 -0.08867182
000010 30 49 fe 3e 7a da 08 bf 33 c2 34 3f 1a 91 d2 be
       0.49665213 -0.5345837 0.70608824 -0.4112633
000020 0e fd 40 3d 35 04 57 3e 74 5a 14 3f 33 3e 29 bd
       0.04711633 0.20997699 0.5795052 -0.041319083
000030 66 fc 3d 3f fd a2 ea bc 6b 66 57 bf 69 49 32 3f
       0.74213254 -0.028642172 -0.8414065 0.69643265
000040 87 95 c5 be e2 d5 0b 3d 22 63 51 3f 5c 9d 46 3e
       -0.38590643 0.03413952 0.8179189 0.19395965
000050 82 c0 80 be 54 a3 67 3f 65 49 1e bf cb d3 8f be
       -0.25146872 0.90483594 -0.6183074 -0.28091273
000060 ea 88 fe 3d 13 ec 1f bd 81 19 75 3e
       0.12428458 -0.039043497 0.2393551

conv8.bias f4 [3]
000000 3d a0 3d c0 cf e7 94 be ff ba 42 40
       -2.9629052 -0.29083106 3.0426633
