saved_model/upsample_at_location_4.pt (torch, 7314 bytes, 16 tensors)

conv1.weight f4 [3, 3, 1, 3, 3]
0	0x3e8400da	0.257819
1	0x3e189121	0.14899112
2	0xbe416c42	-0.18888953
3	0xbe289b83	-0.16465573
4	0xbe28fcfe	-0.16502759
5	0xbea19d71	-0.3156543
6	0x3d8d7b98	0.06908339
7	0x3df5dce2	0.12005021
8	0x3e5633d0	0.20918202
9	0xbe0a5d4a	-0.1351215
10	0x3e4cf9f0	0.20017219
11	0xbdc8f819	-0.09812946
12	0x3e6829db	0.22672217
13	0xbebaf32d	-0.36513653
14	0xbf2ec742	-0.68272793
15	0x3e4199da	0.18906346
16	0x3e69a8c6	0.22818288
17	0x3de3ae19	0.11117191
18	0x3e22a18f	0.15881942
19	0x3e04899f	0.12943123
20	0x3de64cf1	0.11245144
21	0xbeb04d88	-0.34434152
22	0xbec9061b	-0.3926247
23	0xbea4a7e9	-0.32159355
24	0x3e12bc5c	0.14329666
25	0x3e635695	0.22200997
26	0x3e1e466c	0.15456551
27	0x3e462694	0.19350654
28	0x3e269c27	0.16270505
29	0x3d1fb75f	0.038993236
30	0xbdcb06b1	-0.09913386
31	0xbef8940a	-0.48550445
32	0xbe652d98	-0.22380674
33	0x3eb76f71	0.3582721
34	0xbe074569	-0.13210072
35	0x3ecf0a0a	0.40437347
36	0xbdcc2e48	-0.09969765
37	0x3ef3fdd1	0.47654584
38	0x3e468530	0.19386744
39	0x3d9f7235	0.07785455
40	0xbee2f707	-0.44329092
41	0xbe1c5f14	-0.15270644
42	0x3ebd3277	0.36952564
43	0xbd9674e5	-0.073465146
44	0xbd8b1f4d	-0.067930795
45	0x3ed2cebb	0.41173348
46	0xbd5beaa6	-0.053690575
47	0xbd87b64b	-0.066265665
48	0xbe718a1c	-0.23587841
49	0x3f0a70ba	0.5407826
50	0xbf042443	-0.5161783
51	0x3caa620f	0.020798711
52	0xbe08b6f1	-0.13351037
53	0x3e863556	0.26212567
54	0x3e5ced7f	0.21574973
55	0xbe87c400	-0.26516724
56	0xbc5b786e	-0.013395412
57	0x3ea6442c	0.32473886
58	0x3ebc7d97	0.36814567
59	0x3eb178cd	0.34662476
60	0xbd154df1	-0.036451284
61	0x3df4e43a	0.11957593
62	0x3e03be54	0.12865573
63	0x3e9ccf3e	0.30626863
64	0xbe2c2493	-0.16810827
65	0xbdbe1313	-0.09280982
66	0x3e6aa1b0	0.22913241
67	0x3ea101e8	0.31446767
68	0x3ee785a6	0.45219153
69	0xbd24eb98	-0.040263742
70	0xbe8dabe3	-0.27670202
71	0x3eefdfab	0.46850333
72	0x3d7a909a	0.06117306
73	0xbe562d21	-0.20915653
74	0x3e9e6f1f	0.30944154
75	0x3dc03be8	0.09386426
76	0x3eb26f28	0.3485043
77	0x3ead44d5	0.33841577
78	0xbe0a0d05	-0.13481529
79	0x3d3cdad5	0.046107132
80	0x3ea955ac	0.33073175

conv1.bias f4 [3]
0	0x3fbcb783	1.4743503
1	0x3f34cb55	0.7062276
2	0x3f12dea7	0.5737099

conv2.weight f4 [3, 3, 3, 1, 1]
0	0x3b6945f8	0.0035594683
1	0xbfa353d4	-1.2759957
2	0xbe0abb61	-0.13548042
3	0x3e99d7a1	0.30047324
4	0x3e1209cd	0.14261551
5	0x3f0d293b	0.5514104
6	0xbdec6680	-0.11542988
7	0x3f446c62	0.7672788
8	0x3e3f6043	0.18689065
9	0x3e7995cd	0.2437355
10	0x3e74a6de	0.2389178
11	0x3f28515a	0.6574913
12	0x3e624c0b	0.2209932
13	0x3df2f301	0.118627556
14	0xbe40d066	-0.18829498
15	0x3f333f10	0.700181
16	0xbdcb6130	-0.099306464
17	0xbd1e49d8	-0.03864464
18	0xbecf18a7	-0.40448496
19	0x3fc5b712	1.5446494
20	0x3d8ff7b2	0.07029666
21	0x3f1b1b87	0.6058888
22	0x3d954629	0.072887726
23	0x3f036ca0	0.51337624
24	0xbdad9ca8	-0.084771454
25	0x3d49f25a	0.04930339
26	0x3e29f929	0.16598953

conv2.bias f4 [3]
0	0x3f02abb9	0.5104328
1	0x3e8adc7a	0.27121335
2	0xbeb10fc8	-0.34582353

conv3.weight f4 [3, 3, 1, 3, 3]
0	0x3e86c9cc	0.26325834
1	0xbf115f6a	-0.56786215
2	0x3eee7810	0.46575975
3	0xbf035119	-0.5129562
4	0xbe885adc	-0.2663182
5	0x3dfc1642	0.12308933
6	0x3ebf45f0	0.37358046
7	0xbddd5a3e	-0.10808228
8	0x3e450e35	0.19243701
9	0x3ee20e32	0.44151455
10	0xbe6d25a5	-0.23158891
11	0x3eb3eb6e	0.35140556
12	0xbdb4ac44	-0.088219196
13	0x3e9b17b6	0.30291528
14	0xbda73a70	-0.08165443
15	0x3c56840d	0.013093007
16	0x3e5f43d0	0.21803212
17	0xbec93206	-0.39295977
18	0xbd0ecedc	-0.034865245
19	0x3efbde32	0.4919296
20	0x3ecabe91	0.39598516
21	0xbe2b367c	-0.16720003
22	0xbedfbb45	-0.43697563
23	0xbe9bb527	-0.30411646
24	0x3e92d065	0.28674617
25	0x3e73fcbc	0.2382688
26	0xbc897beb	-0.016782722
27	0xbdcdf13b	-0.10055777
28	0xbc3ae251	-0.011406497
29	0xbc620403	-0.013794902
30	0xbda808cc	-0.08204803
31	0x3e86e26d	0.26344624
32	0xbd7ec23e	-0.062196963
33	0x3e48ad29	0.19597305
34	0x3e932ce8	0.28745198
35	0x3eab56a7	0.33464548
36	0xbea9d716	-0.3317191
37	0xbd8f725c	-0.07004234
38	0xbc063315	-0.00819089
39	0x3e8aec16	0.27133244
40	0xbecd5c35	-0.4010941
41	0x3eb11b24	0.3459102
42	0xbd859bdf	-0.06523871
43	0x3ea36331	0.31911615
44	0x3e38e5da	0.18056431
45	0x3ea5fc3a	0.32418996
46	0x3e517c89	0.20457663
47	0xbd5e89c6	-0.05433061
48	0xbefe1afc	-0.49629962
49	0xbf191b55	-0.5980733
50	0x3e680259	0.22657146
51	0x3ce1f45e	0.027582344
52	0x3bf9919f	0.0076162363
53	0x3e0ccb10	0.13749337
54	0x3e0507a2	0.12991193
55	0xbd0481f1	-0.032350484
56	0x3cbe431c	0.02322536
57	0x3e00279f	0.12515114
58	0x3f1d7ec6	0.61521566
59	0xbdd96bba	-0.1061625
60	0x3e8be42e	0.27322525
61	0x3d6e4a02	0.058176048
62	0x3e2ce955	0.16885884
63	0xbe12534f	-0.14289592
64	0xbee6d381	-0.4508324
65	0x3f06d3a2	0.52666676
66	0x3f0ff8f8	0.5623927
67	0x3e71670c	0.23574466
68	0xbdbb4540	-0.09144068
69	0xbbdd0e59	-0.006746095
70	0x3d329261	0.04359663
71	0x3e86b476	0.26309556
72	0xbebca891	-0.36847356
73	0x3d87321c	0.066013545
74	0x3e5b0191	0.21387316
75	0x3e3f8743	0.18703942
76	0xbe876caa	-0.26450092
77	0xbd961205	-0.07327656
78	0xbee604f9	-0.4492567
79	0x3eeae0b0	0.45874548
80	0x3d73c712	0.05951602

conv3.bias f4 [3]
0	0xbd7595cf	-0.05995732
1	0x3f908d77	1.1293172
2	0x3e965ea1	0.2936907

conv4.weight f4 [3, 3, 3, 1, 1]
0	0x3ef4d942	0.47822005
1	0x3f8025b7	1.001151
2	0x3bd277c4	0.0064229686
3	0x3f1bb610	0.6082468
4	0x3dc32846	0.09529166
5	0xbeea5ed8	-0.45775485
6	0xbf1d71ce	-0.6150178
7	0xbe402d7d	-0.18767352
8	0x3f03d581	0.51497656
9	0x3cf4df5a	0.029891659
10	0x3ede3295	0.43397966
11	0x3d8aa1e2	0.06769158
12	0xbe20dd53	-0.15709428
13	0x3f3bd327	0.7336907
14	0x3f46d81b	0.776735
15	0xbc7f6c13	-0.015589732
16	0xbd63ab82	-0.055583484
17	0xbebece1b	-0.3726662
18	0xbe61f099	-0.22064437
19	0x3d949211	0.072544225
20	0x3e93f60f	0.28898665
21	0xbf179f36	-0.5922731
22	0x3f4e6ef4	0.8063805
23	0xbe04747d	-0.12935062
24	0xbe36c74b	-0.17849462
25	0x3f83fb00	1.0310974
26	0xbd88f9cd	-0.06688271

conv4.bias f4 [3]
0	0xbe916acf	-0.284018
1	0x3f9a48c7	1.205346
2	0x3ebbb36d	0.36660329

conv5.weight f4 [3, 3, 1, 3, 3]
0	0x3e4d5b53	0.20054369
1	0xbd387c3a	-0.045040347
2	0x3e482758	0.19546258
3	0xbde2c071	-0.110718615
4	0xbe9b1195	-0.30286852
5	0x3ce80cd4	0.02832643
6	0x3eeda1dc	0.4641255
7	0xbec360c5	-0.38159767
8	0xbecd1262	-0.40053087
9	0x3dabab25	0.083822526
10	0x3d966e0b	0.07345208
11	0x3e92c05c	0.28662384
12	0xbccfddee	-0.025374379
13	0x3da470e4	0.08029345
14	0xbdff7538	-0.124735296
15	0x3e40f17e	0.18842122
16	0xbe207e27	-0.15673123
17	0xbe4f0d78	-0.20219982
18	0x3e14e602	0.14540866
19	0x3e29d74a	0.16586033
20	0xbdaf5d80	-0.085627556
21	0xbe926608	-0.2859347
22	0x3bfca2af	0.007709823
23	0x3d4163c5	0.04721429
24	0xbdadeeca	-0.08492811
25	0x3e963d9a	0.29343873
26	0xbd52f176	-0.051499806
27	0x3dba42c3	0.09094765
28	0x3e1dd8e4	0.15414768
29	0xbd17141a	-0.036884405
30	0xbeb269de	-0.34846395
31	0x3d18da81	0.037317757
32	0xbdc178ac	-0.094468445
33	0x3e063923	0.13107733
34	0x3ef4dcc5	0.47824684
35	0x3d836805	0.064163245
36	0xbe9008ef	-0.28131816
37	0x3e7afbc8	0.2451011
38	0x3e52fc4e	0.20604059
39	0xbd34501a	-0.044021703
40	0xbe0864c0	-0.13319683
41	0x3e840e60	0.25792217
42	0xbe962d6a	-0.29331523
43	0xbd841ce1	-0.06450821
44	0x3d79dddc	0.061002597
45	0xbe948616	-0.2900855
46	0x3ed91b46	0.4240362
47	0xbdc1babb	-0.09459444
48	0xbe9036ef	-0.2816691
49	0x3ed919ac	0.424024
50	0xbdb4d4eb	-0.088296734
51	0x3e13db94	0.14439231
52	0x3d54cc03	0.051952373
53	0xbf1abd51	-0.60445124
54	0x3ddef71f	0.10886978
55	0xbdef3ee0	-0.11681914
56	0xbc108a43	-0.008822027
57	0x3d401b14	0.046900824
58	0xbf44303b	-0.76636094
59	0xbd93341c	-0.071876734
60	0xbd91d9b1	-0.071215995
61	0xbdaa1935	-0.08305589
62	0xbdd87cc2	-0.10570671
63	0x3d717ba1	0.058955792
64	0xbe95fecb	-0.29295954
65	0xbf0e26fb	-0.5552823
66	0xbec33906	-0.38129443
67	0xbdc11d81	-0.094294555
68	0x3e878efb	0.26476273
69	0x3e8034b3	0.25040206
70	0x3d5f70f6	0.054551087
71	0xbdb6721f	-0.089084856
72	0xbe0b6af6	-0.13615021
73	0x3dbfb26a	0.09360202
74	0xbc9c0df5	-0.019049624
75	0xbe184e6c	-0.14873666
76	0xbe136b7b	-0.1439647
77	0xbd0f5408	-0.034992248
78	0x3eded71b	0.43523487
79	0xbe762226	-0.24036464
80	0xbdfbc412	-0.12293257

conv5.bias f4 [3]
0	0x3f1b8ca0	0.6076145
1	0x3ff94fb9	1.9477454
2	0x3f996259	1.1983138

conv6.weight f4 [3, 3, 3, 1, 1]
0	0xbbd2be50	-0.0064313784
1	0xbca0f4de	-0.019648012
2	0xbd486c81	-0.048931602
3	0x3d491d65	0.0491003
4	0x3da38a76	0.07985394
5	0x3c9672e5	0.018365333
6	0x3f1787d8	0.59191656
7	0xbe351a39	-0.17685784
8	0x3fc38fa8	1.5278215
9	0x3e3c9f23	0.18420081
10	0x3eef37eb	0.4672235
11	0xbdb61714	-0.088911206
12	0x3d2e9b3e	0.04262852
13	0xbe07a5a7	-0.13246785
14	0xbe2d486f	-0.16922162
15	0x3ec3e615	0.38261476
16	0xbe25858a	-0.16164222
17	0xbf3aa9b1	-0.7291518
18	0x3e8151b5	0.2525765
19	0xbd42b689	-0.04753736
20	0x3e17e50a	0.14833465
21	0x3e772103	0.24133687
22	0x3e9cefd3	0.3065172
23	0x3e25b166	0.16180953
24	0x3dc791f5	0.09744636
25	0xbe753f42	-0.23949912
26	0x3f3351d5	0.7004674

conv6.bias f4 [3]
0	0x407d0b32	3.9538083
1	0xbef773a6	-0.4833042
2	0x401a25c3	2.4085548

conv7.weight f4 [3, 3, 1, 3, 3]
0	0x3db73a17	0.08946627
1	0x3f1e649b	0.6187226
2	0x3e5748b6	0.21023831
3	0x3f557a66	0.8338989
4	0x3e81db77	0.2536275
5	0x3f246264	0.6421263
6	0xbe086228	-0.13318694
7	0x3e9583b3	0.2920204
8	0x3ef610a5	0.48059574
9	0xbe279425	-0.16365106
10	0x3ea7f956	0.32807416
11	0x3e30094d	0.17191048
12	0xbd8a3408	-0.067482054
13	0x3e0e3e7e	0.13891026
14	0x3e851d34	0.25998843
15	0x3df0c20c	0.117557615
16	0xbe3788a2	-0.17923215
17	0x3e149f7c	0.14513963
18	0x3e00a277	0.12561975
19	0xbd16c517	-0.036809053
20	0x3e071a5b	0.13193648
21	0x3e5d650a	0.21620575
22	0x3e911c9c	0.2834214
23	0xbe4bebd2	-0.19914177
24	0x3ebf530c	0.37368047
25	0xbe43b63b	-0.19112484
26	0xbe782b06	-0.24235162
27	0xbf02927a	-0.51004755
28	0x3d8f1888	0.06987101
29	0xbdcfac88	-0.101403296
30	0xbf3b3e0c	-0.7314155
31	0x3f16ffbb	0.58983964
32	0x3e92a09b	0.28638157
33	0xbee5b1f6	-0.44862336
34	0x3d2deb0f	0.042460497
35	0xbec30acc	-0.38094175
36	0xbdfa411d	-0.122194506
37	0x3f0125bf	0.5044822
38	0xbe31154f	-0.17293285
39	0x3e0d2cf3	0.13786678
40	0x3d594b92	0.053050585
41	0x3ebaf1b9	0.36512545
42	0xbe411ed5	-0.18859418
43	0x3f415916	0.7552656
44	0xbede7a88	-0.4345286
45	0xbd5cccbd	-0.05390619
46	0x3f05e6ec	0.52305484
47	0x3ed1c751	0.4097238
48	0x3d97c8fe	0.07411383
49	0xbeeaeae3	-0.4588233
50	0x3c0a234d	0.008431268
51	0xbe859fa1	-0.2609835
52	0x3d6e8e2e	0.058241062
53	0x3e4948ca	0.19656673
54	0x3f0b151a	0.54329073
55	0x3eaf4913	0.3423544
56	0x3efc9cd8	0.49338412
57	0x3e4b0da4	0.19829422
58	0x3d1deaff	0.038554188
59	0x3e5ad498	0.2137016
60	0x3ee57bbd	0.44820967
61	0x3f12716f	0.57204336
62	0x3e3112c7	0.17292319
63	0xbc653068	-0.013988592
64	0xbeea364b	-0.45744547
65	0xbeb456c7	-0.35222456
66	0x3ea41441	0.32046703
67	0xbe284881	-0.16433908
68	0x3e86f405	0.26358047
69	0xbe591952	-0.21201065
70	0x3e256926	0.16153392
71	0xbf3bd00c	-0.7336433
72	0x3ea4a93b	0.32160363
73	0x3e8d34f3	0.2757946
74	0x3c7250a0	0.01478973
75	0x3f0409d2	0.51577485
76	0x3e181dbe	0.14855096
77	0x3f12bfb8	0.5732379
78	0x3dff36f6	0.12461655
79	0x3eb48e94	0.35265028
80	0x3ee1bd54	0.44089758

conv7.bias f4 [3]
0	0xbfffb916	-1.9978359
1	0x3ff00d59	1.8754073
2	0x40222935	2.533765

conv8.weight f4 [3, 3, 3, 1, 1]
0	0x3f300639	0.68759495
1	0x3e37ca5b	0.17948286
2	0x3f33c951	0.7022906
3	0xbe8be10a	-0.2732013
4	0x3e5a322b	0.213082
5	0x3f39ebfc	0.7262571
6	0xbb55a57b	-0.0032599855
7	0xbf65d422	-0.89776814
8	0x3e54a4b8	0.2076596
9	0xbf008f03	-0.5021822
10	0x3f1f5974	0.6224587
11	0x3ecb4591	0.39701512
12	0x3e72e271	0.23719193
13	0x3f23e207	0.64016765
14	0x3efa13b9	0.48843172
15	0x3e3a22ea	0.18177381
16	0xbf201367	-0.62529606
17	0x3e27a894	0.16372901
18	0xbeda8872	-0.42682225
19	0x3e871c43	0.2638875
20	0x3ef45e93	0.47728404
21	0x3ebe7fab	0.37206778
22	0x3f0a07f9	0.53918415
23	0x3f186502	0.59529126
24	0x3e363128	0.17792189
25	0xbf2f198c	-0.68398356
26	0x3e7e9332	0.24860838

conv8.bias f4 [3]
0	0xc004b685	-2.07364
1	0xbf9616ba	-1.1725686
2	0x404e8fe7	3.227533
