saved_model/upsample_at_location_1.pt (torch, 7314 bytes, 16 tensors)

conv1.weight f4 [3, 3, 1, 3, 3]
00000000: f22f 193e 069a 493e 88f4 253e c113 cc3d
00000010: eaf3 24be 119e 723e 1c3b 95bd 1e23 b4bd
00000020: f79b ad3d aa4f 5b3e 29c9 9e3e c659 3abe
00000030: 82ba cd3e e214 5b3e 326e 913e 2fa5 90be
00000040: 43f6 bebe 5cda e0bd cdd1 b7bd 4711 143e
00000050: 0d9a bf3e 65f4 c2bd 7d12 303d dbc4 e7bd
00000060: 460a 013e 651b d23d d391 0fbe c307 a53e
00000070: 9d90 003e 2ded 9dbd 4553 903d 78be 53be
00000080: 0872 9bbe 96a7 0bbf 3815 e9bd 5936 683d
00000090: d2a1 aabe a374 d2bd 9f96 9d3d f8d5 71bd
000000a0: 6e81 86be 9783 793e 03a3 863d 5b31 03bf
000000b0: de95 a73d c19c 8bbc 17c9 2abd 5308 de3d
000000c0: dee6 d53d c7bb 19bc ef10 67bd 4117 4a3f
000000d0: 8426 19be ef21 babe ea20 3cbe 5831 d13d
000000e0: a3ad 3a3e 0d6d b83d 1491 7cbc 0336 2dbf
000000f0: 385b 71be 4f37 cbbe 3d25 3e3f 894e 2b3e
00000100: 4936 8b3d e616 ad3e 2c6a 193f bdeb b7be
00000110: 48a7 83be 08c4 593e 655f adbd a31e c7be
00000120: 53e1 df3d caac 8b3d 2918 5ebc 220c 9cbe
00000130: f01b fd3d c029 363f 47ad 1c3e cecf d83d
00000140: 924e a23c
0.14959696 0.19687662 0.16206563 0.09964705 -0.16108671 0.2369311 -0.07286665 -0.087957606
0.084770136 0.21417108 0.31012848 -0.18198308 0.40181357 0.21394685 0.28404385 -0.28251025
-0.37297258 -0.10979149 -0.08975563 0.14459716 0.3742222 -0.09519271 0.04298638 -0.11316844
0.12601575 0.10259131 -0.14020471 0.32232484 0.12555166 -0.07711253 0.070471324 -0.20678127
-0.30360436 -0.5455259 -0.11381 0.056692455 -0.33326584 -0.10276153 0.07694744 -0.059041947
-0.26270622 0.24366604 0.06574061 -0.51247185 0.08182882 -0.01704252 -0.04169568 0.108414315
0.10444425 -0.0093831485 -0.056412634 0.7894173 -0.14956099 -0.36354014 -0.1837193 0.1021449
0.182303 0.09005175 -0.015415449 -0.6766054 -0.23569953 -0.39690635 0.7427557 0.16729178
0.067974634 0.33806533 0.5992763 -0.35922042 -0.25713563 0.21266186 -0.08465461 -0.3889056
0.10931649 0.06820066 -0.013555565 -0.30478007 0.12358844 0.71157455 0.15300475 0.105865106
0.019812856

conv1.bias f4 [3]
00000000: 0936 7b3f 0f43 853e 1896 383f
0.98129326 0.26027724 0.72104025

conv2.weight f4 [3, 3, 3, 1, 1]
00000000: 6d7c 65be 101c 753f e36f 1a3e 74fc 0bbf
00000010: 1c12 8b3e f263 4ebe c9fb c03d 15d3 233e
00000020: 6550 e43e 8b36 b13e 78c0 b63c 5178 623d
00000030: 13e1 a63e 8015 a0be d847 073e 441a 21bd
00000040: 1645 9d3d 6350 01be 60e3 e23d e768 253e
00000050: ad06 9d3f 9d25 46bf a4cf 32bf ca47 273e
00000060: 1e2e febe 27d0 d3bd 2969 e83d
-0.22410746 0.95745945 0.15081744 -0.5468209 0.27162254 -0.20155314 0.09423024 0.1599849
0.44592586 0.34611925 0.022308573 0.055290524 0.32593593 -0.31266403 0.13211 -0.03933169
0.07679193 -0.12628321 0.110785246 0.16153298 1.2267662 -0.77401143 -0.69848084 0.16335979
-0.4964456 -0.10342436 0.11348183

conv2.bias f4 [3]
00000000: 6a8d 943d 3c34 d83e 83bf 3f3f
0.07253535 0.42227352 0.749016

conv3.weight f4 [3, 3, 1, 3, 3]
00000000: 5d17 03be 6a1b 9e3e 3ddb a23e c8d2 eebe
00000010: e941 d83e 781b 9cbe 58b4 5a3e 33fb 89be
00000020: 2d8f 583d 81af 8cbe dc44 0b3b a4a3 a23e
00000030: 3f9d 3a3f 9fa1 debd 8e01 313e adee 8cbe
00000040: c6d3 6abe 26f2 b3bd f869 013f b048 453e
00000050: f735 dabd 8d9d 03be 8dea 1bbf 9773 1a3f
00000060: 2b4a 79be a8ad 13be 7f02 1f3d 29e8 9e3e
00000070: 14ee 2f3e eb35 c4be 4e17 04bf 9f3d 323e
00000080: 4aec c63e 2f39 943d 1cb8 913d ff49 9a3e
00000090: 88dd 8ebe 6cfc 0c3e 6f80 113f 0b62 783e
000000a0: 3d6f 143d 10ee 6e3e 3c4e 4d3e 140a 73be
000000b0: 059a 933e def9 b83d 8665 7f3e 8f37 2cbe
000000c0: a88b 82be 22c5 b9bc f19e a3bd 6e96 2fbd
000000d0: 1000 a73d ed40 62bd 971d 2cbe 005a 6e3e
000000e0: f211 a93e 79ef 82be 0eb6 2bbe 86ad a43d
000000f0: b521 3a3d fd2e 8abe e3a1 7e3e 1c97 c73e
00000100: 5e98 fdbe 70b5 a53e 6c5a f53c e0ec d5bd
00000110: 1317 663e 20ba e7bd 927f fd3e d9ac 57bd
00000120: 90ca b53e 98b6 3a3e e481 07bf 4ab9 bebe
00000130: 711a 2c3d 690f 0e3f b200 523e 0a3c fb3d
00000140: fc21 9c3e
-0.12801881 0.3088029 0.3180789 -0.46645188 0.42237785 -0.30489707 0.21357858 -0.26949462
0.052870918 -0.2747765 0.002125076 0.31765473 0.7289619 -0.108706705 0.1728575 -0.27525845
-0.22932348 -0.087864205 0.5055232 0.1926601 -0.10654824 -0.1285307 -0.6090477 0.60332626
-0.24344699 -0.14421713 0.03882074 0.310365 0.17180663 -0.38322386 -0.5159806 0.17406319
0.3885215 0.072374694 0.07115194 0.3013458 -0.2790339 0.13768166 0.568366 0.2425615
0.036238898 0.23333001 0.20049375 -0.23734313 0.28828445 0.090320334 0.24941072 -0.16818069
-0.25497174 -0.022677008 -0.079893 -0.04286807 0.08154309 -0.0552377 -0.16808163 0.2327652
0.33021504 -0.25573328 -0.16768667 0.080409095 0.0454423 -0.26988974 0.24866442 0.38982475
-0.4953031 0.32364988 0.029950343 -0.10445571 0.2246974 -0.113147974 0.4951139 -0.052655075
0.35506105 0.18233716 -0.5293257 -0.3725074 0.042017404 0.55492264 0.20508078 0.12267311
0.30494678

conv3.bias f4 [3]
00000000: 5156 343e 07d3 63be 130c 3d3e
0.17611052 -0.2224847 0.18461637

conv4.weight f4 [3, 3, 3, 1, 1]
00000000: fd9f 293f 6a08 43bf 0c36 54bc 6681 963e
00000010: 0159 a23d f900 553f d329 07be 9451 533d
00000020: 5100 0bbd 7fe6 9a3d 1e90 50be e997 533e
00000030: 550b 1e3f 995e af3e f69a 79bf 1228 b93e
00000040: 733f be3e c646 6cbd 299d 643f c3a4 b4be
00000050: 3e17 053e a67c 1dbe e154 88bf 7f6c e13e
00000060: 2837 b13e 0d94 32be 77d4 32bc
0.6625975 -0.76184714 -0.012952339 0.29395598 0.079271324 0.8320461 -0.13199548 0.05159147
-0.03393585 0.07563495 -0.20367476 0.20663418 0.6173604 0.3425186 -0.97502077 0.36163384
0.37157783 -0.057684682 0.8930231 -0.35281953 0.12997147 -0.15379581 -1.0650903 0.44028088
0.34612393 -0.1743929 -0.010914913

conv4.bias f4 [3]
00000000: 87f4 f0bc 1c8e 613e 1d71 90bd
-0.029413475 0.22026867 -0.07052825

conv5.weight f4 [3, 3, 1, 3, 3]
00000000: 7559 f03e 6bd9 55bd 965c a03e c100 80bd
00000010: 5ec1 8dbe 47fc 28be 1cce 933e e6ff c03d
00000020: 8a1c c039 ecda 263e a319 173e e291 25be
00000030: 8fcf 9f3d 9531 68be a054 1abe 91da 6e3e
00000040: 2393 b8be b61f 03bb 1aa8 943d 9d4b 70be
00000050: 2cff f83d ea4f 2a3e b046 543e 9a41 6abe
00000060: bc05 743d da22 b33e 2e83 143f 5244 8bbe
00000070: eecd 87bd 34ab 6f3e 688f 133e 7e25 ae3e
00000080: 141f 753e 0e4b 223e bdfd f03e b98b 00be
00000090: e75f 3dbe bbd3 183e dc19 3dbd a376 43bf
000000a0: 565a cebd 1b26 0fbf 16c6 7d3e 936c d53e
000000b0: 5533 753e 232b 93bc 89a4 023e 2e5e 2cbd
000000c0: 4e7a 6e3e 600a 853d 8135 1fbd 4464 173d
000000d0: 2758 b2be 1657 95bd fe2e 023e f667 aebd
000000e0: 5558 a83e 3ee0 7b3e 4c6e 8b3d 1a15 13be
000000f0: dbf9 02be 6894 6cbe a59b 9a3e 58e5 303e
00000100: 125e d83c b12c 463e 9576 253e 582a 153e
00000110: c5fc 4fbb 9508 ae3e 5bf0 fe3c 4316 93bd
00000120: 0c06 c8bd 8097 9b3d 21b1 b3be 2194 3fbe
00000130: 9b92 ec3d 60e1 bc3e d344 c83e bcd8 383d
00000140: b0eb 353e
0.4694325 -0.0522093 0.31320637 -0.06250144 -0.2768659 -0.16502486 0.28868186 0.09423809
0.00036642357 0.1629445 0.14755873 -0.16168931 0.078032605 -0.22675164 -0.15071344 0.23325564
-0.36049756 -0.0020007915 0.07258625 -0.23466344 0.12158045 0.16632047 0.2073009 -0.22876588
0.05957578 0.34987527 0.58012664 -0.27200562 -0.06631075 0.23405153 0.14410174 0.3401298
0.23937637 0.15848944 0.47068587 -0.125533 -0.18493615 0.14924519 -0.04616724 -0.763529
-0.10075824 -0.5591752 0.24782595 0.41684398 0.23945363 -0.017964905 0.12758078 -0.042082004
0.23288843 0.064961195 -0.038869385 0.036960855 -0.3483288 -0.07292001 0.12713239 -0.08515923
0.32879892 0.2459726 0.06808147 -0.14363518 -0.12790625 -0.23103487 0.30196872 0.17274988
0.026412044 0.19352986 0.16158517 0.14566934 -0.0031736356 0.33990923 0.03112047 -0.071819805
-0.09766778 0.07597256 -0.35096076 -0.1870885 0.115514 0.36890697 0.3911501 0.04512857
0.17765689

conv5.bias f4 [3]
00000000: 8ca9 0a3e 3f46 13bd b252 373e
0.1354124 -0.035955664 0.1790264

conv6.weight f4 [3, 3, 3, 1, 1]
00000000: 7c29 68be 6b26 91bf dc0e 10bf 7536 3f3f
00000010: f5cc 9b3e 4383 813e 8838 2fbe 4eb2 153f
00000020: 7a10 9f3e a6a9 cbbe bea7 283e 8baa 16bf
00000030: b5ac 06bf fc7e 1d3f d595 193f 116b 7c3d
00000040: d80e 8e3e fce0 933e 8ae2 1fbf 3aea 50bf
00000050: 545d 6abf 883e 84bd a82b b5be fd4e 4f3f
00000060: 4da8 45bd 03e1 1b3f eb8d 543f
-0.22672075 -1.1339849 -0.56272674 0.7469247 0.30429807 0.25295457 -0.17111409 0.58475196
0.31067258 -0.3977787 0.16470239 -0.5885398 -0.5260728 0.6152189 0.5999425 0.061625544
0.277457 0.28882587 -0.62455046 -0.816074 -0.9154866 -0.064572394 -0.3538487 0.809799
-0.048256207 0.60890216 0.8302905

conv6.bias f4 [3]
00000000: 0635 65be f7af 933e b446 133a
-0.22383508 0.28845188 0.00056181406

conv7.weight f4 [3, 3, 1, 3, 3]
00000000: a6ff f53d 5bc5 cd3e 0a4d e23e 3070 52be
00000010: 45d1 623e ae1f 48be 304c a73c 323c f03e
00000020: 1893 a2be a414 af3d 283c 183f c629 4dbe
00000030: 7530 2d3e 6ebb be3c 900d c63e 1818 a83d
00000040: eefa a13d 5a0c 943e 69e4 8d3e 6529 31bd
00000050: 51cc dcbe 087f 64be aa14 42bc 61d4 a6be
00000060: 08e4 06be 54df 28be 9418 39be 53c0 c33e
00000070: e169 0f3d 9406 dabe f755 743e 5c55 24be
00000080: 590c 83bd 91a0 7ebe 5f44 16bf 9672 03bb
00000090: af81 e2be 8be5 3e3e 822c 1dbf 31e8 2dbe
000000a0: 8330 74be 1d7f 553d 566a 03bf a63b 383e
000000b0: 869c b33d 10f7 f53e e594 48be 1014 b03e
000000c0: fca0 45be be5b b9be 2547 3cbf a985 be3d
000000d0: c1d4 fa3e 91d6 4fbe 22b1 76be c57b f13e
000000e0: 2b1b 2fbe b738 ef3e 1d57 3ebe 9a50 c7bd
000000f0: f2c8 033f c7ad b6be c3d5 903e 7fb1 4a3d
00000100: 6785 613d 6d7b 25be 3449 8d3e c610 7b3e
00000110: 630f 26bb 2c2e 02bc 2290 1c3e 5e4f 9dbe
00000120: 723c 89b9 5601 fb3d 8aaf 28be 63b5 843d
00000130: bc05 2a3e b54e cebe fd2e cf3d 4895 bb3d
00000140: 0cd1 55bd
0.12011652 0.40189633 0.441994 -0.20550609 0.22150142 -0.19543335 0.020422071 0.46920925
-0.3175285 0.08548859 0.5946679 -0.20035467 0.16913016 0.023282733 0.38682222 0.082077205
0.07909189 0.28915673 0.27713326 -0.043252368 -0.4312463 -0.22314084 -0.011845747 -0.32583907
-0.13172925 -0.16491443 -0.18075782 0.3823267 0.035013083 -0.42583144 0.23860918 -0.16048187
-0.063988395 -0.24865939 -0.58698076 -0.0020057312 -0.44239566 0.18642251 -0.6139604 -0.16983105
-0.23846631 0.052123178 -0.5133413 0.17991504 0.08770089 0.48040056 -0.19588049 0.34390306
-0.19299692 -0.36202806 -0.7354606 0.093028374 0.48990443 -0.20296694 -0.24091008 0.4716474
-0.17100208 0.46722957 -0.18587919 -0.097321704 0.51478493 -0.35679457 0.28288087 0.04948568
0.055058863 -0.16160364 0.27594912 0.24518117 -0.002533876 -0.007945579 0.15289357 -0.30724615
-0.00026175712 0.12256114 -0.16473213 0.06479909 0.1660375 -0.40294424 0.10116384 0.091593325
-0.052201316

conv7.bias f4 [3]
00000000: d47a b13f a39c 07be 9028 b4be
1.3865609 -0.13243346 -0.35187197

conv8.weight f4 [3, 3, 3, 1, 1]
00000000: a3c9 663e 4ea6 28bf 61ac 62be a7a7 c83e
00000010: 4887 9dbe 05f7 a83e c56d 4a3e a0d9 88be
00000020: 8446 ae3f 0093 933e f8c2 8ebe 2b69 a0bd
00000030: 2e7b 923f 793a 053f 42a1 c93d 588e 02be
00000040: 2205 ee3e c8bf f23e ae14 0f3f 05ae e6bc
00000050: 5dbd b9bb a941 bebd a037 3cbe 256a fabd
00000060: ff1d 3cbd 6acc 7d3e 0784 e53d
0.22537856 -0.6587876 -0.2213607 0.3919041 -0.30767274 0.3300096 0.19768436 -0.26728535
1.361527 0.2882309 -0.27883124 -0.07832559 1.1443841 0.5204235 0.098452106 -0.12749612
0.4648829 0.47411942 0.5589093 -0.02815915 -0.005668326 -0.092898674 -0.18380594 -0.12227277
-0.045927044 0.24785009 0.11206823

conv8.bias f4 [3]
00000000: 82da bd3e 3a46 22bf e8c4 73bf
0.3708077 -0.6338841 -0.9522233
