saved_model/upsample_at_location_7.pt (torch, 7314 bytes, 16 tensors)

conv1.weight f4 [3, 3, 1, 3, 3]
0	0x3ebb66de	0.3660192
1	0xbdf249db	-0.11830493
2	0x3e375235	0.17902453
3	0xbe9ca16b	-0.30591902
4	0x3e48da8d	0.1961462
5	0xbf3520c7	-0.7075314
6	0xbca5815a	-0.020203281
7	0x3d8c48d8	0.06849831
8	0x3ea8230b	0.32839236
9	0xbcd7f27e	-0.026360746
10	0xbe70abd5	-0.23503049
11	0x3eca1802	0.39471442
12	0xbe1d7f4c	-0.15380591
13	0xbe4c6b6d	-0.19962855
14	0x3dc8ba75	0.09801189
15	0xbe11d383	-0.14240842
16	0x3d85c854	0.0653235
17	0xbcdc3ee4	-0.026885457
18	0x3ef8c328	0.48586392
19	0x3e44d7af	0.19222902
20	0x3e0af8ef	0.13571523
21	0xbea1010c	-0.3144611
22	0xbf0e7c95	-0.5565885
23	0xbe66a5dd	-0.2252421
24	0xbe9d4dfc	-0.3072356
25	0xbda02ad5	-0.078206696
26	0x3e3a2e98	0.18181837
27	0xbd4182aa	-0.04724375
28	0x3ebb8048	0.36621308
29	0x3e88992e	0.26679367
30	0xbe1116c0	-0.14168835
31	0xbe0175a1	-0.12642528
32	0xbd5f14e4	-0.054463282
33	0x3eaeb8fa	0.341255
34	0xbe3d95a1	-0.1851411
35	0xbe8eeb76	-0.27914017
36	0xbd8cb0b4	-0.06869641
37	0x3c30d4f2	0.010792958
38	0xbc233d5e	-0.009963362
39	0xbcdef1b5	-0.027214864
40	0x3ebd8e89	0.37022808
41	0xbe05b68d	-0.13057919
42	0xbef15c51	-0.47140744
43	0x3f382ce9	0.7194353
44	0xbe5ed8a0	-0.21762323
45	0x3d901fe7	0.07037335
46	0x3e45649e	0.19276664
47	0xbd80f162	-0.0629604
48	0xbcbbd7cf	-0.022930054
49	0x3eac9b5b	0.33712277
50	0x3d2eedf7	0.04270741
51	0xbe3219a5	-0.17392595
52	0xbca23753	-0.019801771
53	0xbe6876f1	-0.22701623
54	0x3dce2c46	0.10067038
55	0x3f3f2228	0.74661493
56	0xbf1ae424	-0.60504365
57	0x3e3f12c8	0.18659508
58	0xbd88eb67	-0.066855244
59	0x3e9df0a4	0.30847657
60	0xbe3a2bb8	-0.1818074
61	0xbd6dd24a	-0.058061875
62	0xbd2427c7	-0.040076997
63	0x3deff5ba	0.117167905
64	0x3e839ea9	0.25706986
65	0x3e1bf6c5	0.15230854
66	0xbe2544fb	-0.16139595
67	0x3dcec30d	0.10095797
68	0xbd57d303	-0.05269147
69	0x3d090fad	0.033462215
70	0xbdeba19c	-0.11505434
71	0x3d7daa9f	0.061930295
72	0x3e76581c	0.24057049
73	0x3d1ebbce	0.038753323
74	0x3d8c6a58	0.06856221
75	0x3d4bced4	0.049757794
76	0x3ececc9b	0.40390477
77	0xbe3295e1	-0.17439987
78	0x3cafa1b9	0.02143942
79	0xbe971cc8	-0.29514146
80	0x3d63fbde	0.05566012

conv1.bias f4 [3]
0	0x3f841ba4	1.0320935
1	0xbf1f1479	-0.62140614
2	0x3f028f1e	0.5099963

conv2.weight f4 [3, 3, 3, 1, 1]
0	0xbf7eca95	-0.99527866
1	0xbebe01fc	-0.3711089
2	0xbe81bcba	-0.253393
3	0x3de34872	0.11097802
4	0x3ba098fa	0.0049010487
5	0x3ebff5b1	0.37492135
6	0x3f5b9106	0.85768163
7	0x3e85fb81	0.26168445
8	0xbe55b547	-0.20869933
9	0xbca99c57	-0.020704431
10	0xbe3acd5a	-0.18242398
11	0xbc8746b4	-0.016513206
12	0xbf0bf29a	-0.54667056
13	0xbea6a8b0	-0.32550573
14	0xbf375bf1	-0.71624666
15	0x3ec1f705	0.37883773
16	0x3e066ac5	0.13126667
17	0x3eaddcbe	0.33957475
18	0xbe99555c	-0.29947937
19	0xbf60f2fc	-0.87870765
20	0xbe0ac1fa	-0.13550559
21	0xbe04ea67	-0.12980042
22	0xbb86e3b6	-0.0041165007
23	0xbd9b426f	-0.075810306
24	0xbe35c277	-0.17749964
25	0x3ef77dc9	0.48338154
26	0x3eef2b1e	0.46712583

conv2.bias f4 [3]
0	0x3ebf1b02	0.37325293
1	0x3ffcadfb	1.9740595
2	0x3e4459e3	0.19174914

conv3.weight f4 [3, 3, 1, 3, 3]
0	0x3e8cd376	0.27505082
1	0xbf07779c	-0.52916884
2	0xbd26aafe	-0.040690415
3	0xbeb54682	-0.35405356
4	0x3e43261e	0.1905751
5	0xbce80ecc	-0.028327368
6	0x3d8df192	0.069308415
7	0x3f241f22	0.64110005
8	0x3ebaf865	0.36517635
9	0x3b0d06c7	0.0021518932
10	0x3dfdb036	0.12387125
11	0x3a7fbc07	0.0009755496
12	0xbf0c3fda	-0.5478493
13	0x3dfa7b21	0.12230516
14	0x3ed1da25	0.40986744
15	0xbea53910	-0.32270098
16	0x3f051d1a	0.5199753
17	0x3e127c1d	0.14305158
18	0x3daf9db0	0.085749984
19	0x3e5114df	0.20418118
20	0xbe29d325	-0.16584451
21	0x3da2718e	0.07931815
22	0xbf043d37	-0.51655906
23	0x3e576a7e	0.21036717
24	0x3d5fb202	0.05461312
25	0x3e56b5ae	0.20967743
26	0xbe9d3aa6	-0.30708808
27	0xbd85447b	-0.06507202
28	0xbd3d9934	-0.046288684
29	0x3e2570cc	0.1615631
30	0xbe1a7182	-0.15082362
31	0xbe2d878e	-0.16946241
32	0xbba3f2eb	-0.0050033233
33	0xbf485f8d	-0.782708
34	0xbe7a4b8c	-0.24442881
35	0x3eea5e05	0.45774856
36	0x3f180359	0.5938011
37	0x3ed0c472	0.40774876
38	0xbf19047d	-0.59772474
39	0x3ef9604e	0.48706287
40	0xbd936f7e	-0.07199
41	0xbc5ff66e	-0.013669593
42	0xbe2feea3	-0.17180876
43	0x3e0a1fd7	0.13488708
44	0x3bca5b38	0.006175425
45	0xbe538de9	-0.20659603
46	0x3df58393	0.119879864
47	0x3e41068d	0.18850155
48	0x3f1cbf7c	0.6122968
49	0xbcd7ac29	-0.02632721
50	0xbcbcd7c4	-0.023052104
51	0xbee22502	-0.4416886
52	0xbe972d45	-0.29526725
53	0x3c960bc4	0.018316157
54	0x3e54a0e7	0.20764504
55	0xbe997a04	-0.29975903
56	0x3d57c594	0.05267866
57	0xbe25a7e7	-0.16177331
58	0x3d86217e	0.06549357
59	0xbe1d1630	-0.15340495
60	0xbe0708b3	-0.13186912
61	0x3eb2370c	0.34807622
62	0x3f267ef0	0.6503744
63	0x3e27c585	0.16383941
64	0x3e212d9d	0.15740056
65	0xbee9abb3	-0.4563881
66	0xbde13294	-0.10995975
67	0xbe225565	-0.15852888
68	0xbedd9483	-0.43277368
69	0x3d3adcab	0.0456206
70	0x3e8cc25e	0.2749204
71	0x3e13c04b	0.14428823
72	0xbdbea87d	-0.0930948
73	0xbddd8817	-0.10816973
74	0xbd56d634	-0.052450374
75	0xbda34b75	-0.07973377
76	0x3ebb15f5	0.3654019
77	0xbda1b8cf	-0.078965776
78	0xbe10c7a8	-0.14138663
79	0x3e830ffb	0.2559813
80	0x3f25a6b4	0.64707494

conv3.bias f4 [3]
0	0x3ee2dd71	0.4430957
1	0x3f8f8e99	1.1215392
2	0x3e18d1d5	0.14923795

conv4.weight f4 [3, 3, 3, 1, 1]
0	0x3e0b48e6	0.13602027
1	0x3e7f542f	0.24934457
2	0x3f3f3b31	0.74699694
3	0x3ead879f	0.33892533
4	0x3ddab6cd	0.10679398
5	0xbf12d7c1	-0.57360464
6	0xbe7bf2dc	-0.24604362
7	0xbf16f37f	-0.58965296
8	0x3f0fdaf4	0.5619347
9	0x3cbb23ee	0.022844281
10	0xbedcb5c4	-0.43107426
11	0x3f6c3e04	0.9228213
12	0xbeda16f1	-0.42595628
13	0xbdbb5b30	-0.09148252
14	0xbf3afe1b	-0.73043984
15	0x3dbd9cd4	0.09258428
16	0x3ed9cd72	0.42539555
17	0x3f42bc43	0.76068515
18	0xbe4ea130	-0.20178676
19	0xbf15cf66	-0.5851959
20	0x3d8c7108	0.068574965
21	0xbeb35584	-0.3502618
22	0x3f8e8681	1.1134797
23	0xbf6a12e4	-0.91435075
24	0xbeea854f	-0.4580483
25	0xbe07eb36	-0.1327332
26	0x3dc056de	0.093915686

conv4.bias f4 [3]
0	0x3fadff52	1.3593543
1	0x3db1822d	0.08667407
2	0xbebf0d97	-0.37315056

conv5.weight f4 [3, 3, 1, 3, 3]
0	0xbd915f6e	-0.0709828
1	0x3e9e7c5d	0.30954257
2	0xbed2305e	-0.41052526
3	0xbe9c2515	-0.3049704
4	0x3c7eed55	0.015559514
5	0x3f24913e	0.6428412
6	0xbaec4c05	-0.0018028027
7	0x3e9ab0e3	0.3021308
8	0xbe38dafd	-0.18052287
9	0x3df772f3	0.12082472
10	0x3dba1aaf	0.09087121
11	0x3e28e0ac	0.16491956
12	0xbe875773	-0.26433906
13	0x3e25334d	0.16132851
14	0x3ef5b6be	0.47990984
15	0xbca34121	-0.019928517
16	0xbd6865aa	-0.05673758
17	0x3c034d7d	0.00801408
18	0xbd75af41	-0.05998159
19	0xbd949d98	-0.07256621
20	0xbeb134d2	-0.3461061
21	0x3d4b2d73	0.04960389
22	0x3d552db3	0.052045535
23	0xbea4e84a	-0.32208472
24	0x3d782fbd	0.0605924
25	0xbe94fbe8	-0.2909844
26	0x3ef6a5e3	0.48173437
27	0x3d85a4d7	0.06525581
28	0x3ece1f22	0.40258127
29	0xbe9e6d4c	-0.30942762
30	0x3de307fa	0.11085506
31	0xbe218c6e	-0.15776226
32	0xbdf659f7	-0.12028878
33	0x3e4fdb3a	0.20298472
34	0x3cd6de69	0.0262291
35	0x3e0c078d	0.13674755
36	0x3d1e0617	0.038580026
37	0xbd011551	-0.03151447
38	0x3db0191f	0.085985415
39	0xbcfa835e	-0.030580219
40	0xbf5a2732	-0.8521606
41	0x3e36072e	0.17776176
42	0x3bf038a5	0.0073309713
43	0x3ebabc9b	0.3647202
44	0xbdb55c8d	-0.08855543
45	0x3e8f5253	0.27992496
46	0xbec19175	-0.37806287
47	0x3e3af514	0.18257552
48	0xbeb89714	-0.36052763
49	0xbdd03393	-0.10166087
50	0x3daa48a5	0.08314637
51	0xbf0d1e9e	-0.55124843
52	0xbe16d5f3	-0.14730053
53	0xbdfac7c6	-0.12245135
54	0xbdddc171	-0.10827912
55	0x3dacab64	0.08431128
56	0xbc4c5474	-0.012471307
57	0x3f18870b	0.5958106
58	0x3c6a5ba7	0.014304078
59	0x3d4728ec	0.04862301
60	0x3c90304d	0.017601157
61	0x3bbaf4c9	0.00570545
62	0xbe0eee95	-0.139582
63	0x3e92b670	0.28654814
64	0x3d9989a6	0.074969575
65	0x3e065ab2	0.13120535
66	0xbdaaae39	-0.083340116
67	0x3de18471	0.11011589
68	0xbe0adf6c	-0.13561791
69	0x3e060a04	0.13089758
70	0xbd8824ea	-0.06647666
71	0xbe6776b3	-0.22603874
72	0xbe4dd8bd	-0.2010221
73	0x3e7b244d	0.24525566
74	0xbbc0ad7c	-0.005880056
75	0x3e57d8f6	0.21078858
76	0x3d6ca07a	0.05777023
77	0xbe4e35d5	-0.20137723
78	0x3cbfb92b	0.023403725
79	0x3e88fbb6	0.2675454
80	0x3ed30e25	0.4122173

conv5.bias f4 [3]
0	0x3d58a5da	0.052892543
1	0xbf7c31fa	-0.9851376
2	0x3f893fa4	1.0722547

conv6.weight f4 [3, 3, 3, 1, 1]
0	0x3f6fef4d	0.9372452
1	0xbeeaedf2	-0.45884663
2	0x3dd0fedb	0.1020486
3	0x3f216c54	0.6305592
4	0xbe0a0944	-0.13480097
5	0x3ebef7f0	0.37298536
6	0x3e62adf3	0.22136669
7	0xbd4b9696	-0.049704157
8	0x3c166350	0.009178951
9	0x3dd74881	0.10511876
10	0x3cedb0e2	0.029015008
11	0x3f40b130	0.75270367
12	0xbfa8ed2a	-1.3197377
13	0x3f19ad67	0.60030216
14	0x3f1f6ba3	0.62273616
15	0xbf0c5add	-0.54826146
16	0xbe27fd17	-0.1640514
17	0x3f037b3e	0.5135993
18	0x3ee2f45d	0.4432706
19	0xbe290376	-0.16505226
20	0x3d8edb5f	0.069754355
21	0x3f8b3956	1.0876873
22	0x3f046e66	0.51730955
23	0xbdcb5ac3	-0.09929421
24	0xbf0df946	-0.55458486
25	0x3e8ea1ba	0.27857763
26	0x3f08aa45	0.5338481

conv6.bias f4 [3]
0	0x3e0f061f	0.13967179
1	0xbe617c2b	-0.22020023
2	0x3ec20759	0.3789623

conv7.weight f4 [3, 3, 1, 3, 3]
0	0xbdac2db6	-0.08407156
1	0xbe30a653	-0.17250948
2	0xbeb9ee4c	-0.3631462
3	0x3e50c345	0.2038699
4	0xbd6f6baf	-0.058452304
5	0xbe47452c	-0.1945998
6	0x3d98bfa6	0.07458429
7	0xbbd93907	-0.0066291126
8	0xbd2f7f43	-0.042845976
9	0xbefbdac3	-0.4919034
10	0x3da65b58	0.08122891
11	0xbea253e2	-0.31704623
12	0x3c9adc30	0.018903822
13	0xbf13691f	-0.5758228
14	0x3d49fb98	0.049312204
15	0x3e107463	0.14106898
16	0xbdb8a72a	-0.09016259
17	0xbb0aa2cd	-0.0021154166
18	0xbeabf96d	-0.33588734
19	0xbe352dbd	-0.17693229
20	0xbf10e4ca	-0.56599104
21	0x3e843ecb	0.25829157
22	0xbe725f58	-0.23669183
23	0x3eb3bf47	0.3510687
24	0xbe8508b9	-0.25983217
25	0x3e214f16	0.15752825
26	0x3eaaa154	0.3332621
27	0xbd3a28ee	-0.04544919
28	0xbed54428	-0.41653562
29	0x3eaffea0	0.3437395
30	0x3c6f043a	0.01458841
31	0x3ee79288	0.45228982
32	0x3a193b5f	0.0005845334
33	0xbeb9c3bb	-0.36282143
34	0x3eb18d29	0.3467801
35	0x3ceb34fc	0.028711788
36	0xbe3a76ce	-0.18209383
37	0x3dea6554	0.11445108
38	0xbedab806	-0.42718524
39	0x3eb93558	0.3617351
40	0x3e26a68a	0.16274467
41	0xbd19721e	-0.037462346
42	0xbe43d019	-0.19122352
43	0xbde89df7	-0.113582544
44	0xbe8f3a2b	-0.27974066
45	0xbdfee1cc	-0.12445411
46	0x3c7a4c10	0.015276924
47	0xbdb7290a	-0.089433745
48	0xbf609963	-0.8773405
49	0xbe0aa4b5	-0.13539393
50	0xbe8cedfb	-0.27525315
51	0x3f4059d7	0.75137085
52	0xbeb5eeed	-0.35533848
53	0xbddb78fd	-0.10716436
54	0xbc068d9f	-0.008212476
55	0x3e7403bf	0.23829554
56	0xbd527673	-0.051382493
57	0x3ea820dd	0.32837573
58	0x3ef15afa	0.47139722
59	0x3e6ab2ca	0.22919765
60	0x3e0f13e8	0.13972437
61	0x3ef645cd	0.4810013
62	0x3e229218	0.15876043
63	0x3e1ae445	0.1512614
64	0x3e7b5d73	0.24547367
65	0x3e6226d2	0.22085121
66	0x3e0383fb	0.12843315
67	0x3ea2f8db	0.31830487
68	0xbe757ba3	-0.23972945
69	0x3eccac92	0.3997541
70	0xbe77b33a	-0.24189463
71	0xbe91607b	-0.2839392
72	0x3d99297c	0.07478616
73	0xbe994d17	-0.29941627
74	0xbf537c23	-0.8261129
75	0x3e445be9	0.19175686
76	0xbe45aa44	-0.19303232
77	0xbf1f170d	-0.6214455
78	0xbe83d379	-0.25747278
79	0x3e605a9d	0.21909566
80	0xbe8d9f2d	-0.27660504

conv7.bias f4 [3]
0	0xbd9e0ec0	-0.07717657
1	0x407b3913	3.9253585
2	0xbc2e1553	-0.010625201

conv8.weight f4 [3, 3, 3, 1, 1]
0	0xbe173dd1	-0.14769675
1	0xbf324925	-0.6964286
2	0x3f217c91	0.630807
3	0xbe3e5583	-0.18587308
4	0xbf0925ee	-0.535735
5	0xbe15e7fe	-0.14639279
6	0xbb9977c9	-0.004683469
7	0x3dfb17ba	0.12260385
8	0x3f1088f7	0.5645899
9	0xbd8a780f	-0.067611806
10	0xbf50a395	-0.81499606
11	0x3e87e6ca	0.26543266
12	0xbe98393b	-0.29731163
13	0xbf088dc5	-0.53341323
14	0xbe458108	-0.19287503
15	0xbc73150a	-0.014836559
16	0x3dffb32d	0.12485347
17	0x3f1666cb	0.587506
18	0xbdbc63f2	-0.091987506
19	0x3ce81a53	0.028332865
20	0xbf8d9141	-1.1059953
21	0xbf103b1e	-0.56340206
22	0xbf0f9db7	-0.5610003
23	0xbe44eac6	-0.19230184
24	0xbbff7e5b	-0.007797045
25	0x3df418e0	0.11918807
26	0x3f148350	0.58012867

conv8.bias f4 [3]
0	0xc04f68af	-3.2407644
1	0xbeef01ce	-0.46681064
2	0x4063a93b	3.557204
