saved_model/upsample_at_location_5.pt (torch, 7314 bytes, 16 tensors)

conv1.weight f4 [3, 3, 1, 3, 3]
-0.13294807 0.32847336 -0.47195277 -0.0007919071 0.24329863 0.32055876 0.52322936 -0.14970307
-0.19305998 -0.48570523 -0.43893066 -0.09488777 0.35127345 -0.3022442 0.33814952 -0.08220931
-0.05194498 0.45570675 0.14708263 0.01852276 0.4315408 0.63356817 -0.06824114 -0.14174272
-0.35589364 0.20236668 0.10226382 0.29845798 -0.2299221 -0.303852 0.41729212 0.46009916
0.25348458 -0.21574755 0.48009413 -0.2627505 0.6636901 -0.1357716 0.19571516 0.37555978
-0.17922461 0.15669249 0.071185626 0.5003911 0.1010879 -0.17270656 0.14954984 -0.12059228
0.16905841 -0.44517633 0.11422299 0.22463197 0.13040295 0.50658715 -0.017690888 -0.4975729
0.6202739 0.21545851 -0.15482016 -0.27525705 0.14701259 -0.06388075 0.46116877 -0.18757063
0.067322545 -0.4298913 0.58518547 0.27417165 0.28393075 0.40683955 -0.1368386 -0.2458513
-0.08739571 -0.085829794 -0.055104762 0.04527094 -0.004980051 0.28676072 0.33466002 -0.25607914
0.075462215
00000000: 8a23 08be a92d a83e cba3 f1be fc97 4fba
00000010: 4723 793e 4720 a43e 5cf2 053f c34b 19be
00000020: 84b1 45be 5bae f8be 85bb e0be 8554 c2bd
00000030: 1dda b33e c0bf 9abe ef21 ad3e 5b5d a8bd
00000040: 42c4 54bd 6552 e93e d49c 163e 0bbd 973c
00000050: eaf2 dc3e 8631 223f 03c2 8bbd 0125 11be
00000060: b137 b6be 3639 4f3e b26f d13d 7ccf 983e
00000070: b370 6bbe 7d92 9bbe 50a7 d53e 1e92 eb3e
00000080: bbc8 813e edec 5cbe e6ce f53e 3c87 86be
00000090: 98e7 293f b607 0bbe 8e69 483e 5f49 c03e
000000a0: a886 37be ff73 203e c5c9 913d a219 003f
000000b0: 2c07 cf3d fdd9 30be 9823 193e 16f9 f6bd
000000c0: a61d 2d3e 27ee e3be beed e93d ec05 663e
000000d0: 5a88 053e b2af 013f 7bec 90bc e0c1 febe
000000e0: 45ca 1e3f 28a1 5c3e 2d89 1ebe 7eee 8cbe
000000f0: 788a 163e e9d3 82bd 501e ec3e 8412 40be
00000100: 67e0 893d b61a dcbe b7ce 153f 3a60 8c3e
00000110: 5f5f 913e 464d d03e 6b1f 0cbe 71c0 7bbe
00000120: 86fc b2bd 88c7 afbd 88b5 61bd 056e 393d
00000130: b22f a3bb 4dd2 923e 8f58 ab3e ce1c 83be
00000140: ef8b 9a3d

conv1.bias f4 [3]
0.12787253 0.2143561 0.089716084
00000000: 04f1 023e 2a80 5b3e 11bd b73d

conv2.weight f4 [3, 3, 3, 1, 1]
0.40662917 0.192218 0.023181144 0.029028201 0.26689702 -0.15182948 0.6132108 -0.39385352
0.33146933 0.5558942 0.57306314 0.07150838 0.34878904 0.29943836 0.092361055 0.67349625
0.18039174 0.5094071 -0.05658179 -0.17043641 0.009943662 0.20426911 -0.17943494 0.35991076
0.09637922 0.3014149 -0.8920858
00000000: b331 d03e ccd4 443e 62e6 bd3c 8dcc ed3c
00000010: baa6 883e 3079 1bbe 62fb 1c3f 2ba7 c9be
00000020: 59b6 a93e 154f 0e3f 44b4 123f fc72 923d
00000030: 7a94 b23e fc4f 993e cb27 bd3d 406a 2c3f
00000040: 9db8 383e 8168 023f 4fc2 67bd e286 2ebe
00000050: beea 223c ec2b 513e cbbd 37be 3946 b83e
00000060: 7862 c53d 0e53 9a3e bc5f 64bf

conv2.bias f4 [3]
0.39604396 0.014487035 2.6132736
00000000: 46c6 ca3e 075b 6d3c e03f 2740

conv3.weight f4 [3, 3, 1, 3, 3]
0.25744662 0.03631942 0.29230094 -0.21227309 -0.13055214 0.12585653 -0.3986861 -3.0200381e-05
-0.06977681 -0.01132334 -0.18147443 0.32924762 -0.037560523 -0.2321705 -0.40626323 0.3918222
0.13677186 -0.17115583 0.1506845 -0.35465333 -0.12825331 -0.09943628 0.6497403 0.2962433
0.28813514 -0.18168284 -0.120365754 0.092099816 0.12448879 0.22668529 -0.30169216 0.6379123
0.30174255 -0.2543467 0.17582108 0.27862835 -0.2596134 0.45491093 -0.06450441 0.15478438
-0.38638592 -0.02779286 -0.17166057 0.21107826 -0.1911922 0.29168248 0.08131509 0.10427978
0.085207805 0.012511187 -0.1858224 -0.20520124 0.24245691 -0.14944965 0.028771395 0.031793322
0.25087246 0.23241599 0.086925805 -0.39838073 0.43971172 0.1232045 -0.2602028 -0.0820815
0.47509807 -0.12175144 0.14127964 0.33093765 -0.13683142 -0.40071404 -0.007480807 0.033790868
0.26044753 0.15902765 -0.10358864 -0.297641 0.2470284 -0.014526915 -0.21070287 0.13983656
-0.052479193
00000000: 0bd0 833e acc3 143d 78a8 953e 1e5e 59be
00000010: 76af 05be 89e0 003e 9620 ccbe d356 fdb7
00000020: 25e7 8ebd 8885 39bc 6fd4 39be 2593 a83e
00000030: 10d9 19bd 1bbe 6dbe bc01 d0be eb9c c83e
00000040: ec0d 0c3e 7943 2fbe 0a4d 1a3e 1f95 b5be
00000050: d654 03be 40a5 cbbd 6155 263f 34ad 973e
00000060: 7386 933e 110b 3abe 5282 f6bd d49e bc3d
00000070: fbf3 fe3d 3020 683e 6577 9abe 384e 233f
00000080: 007e 9a3e bb39 82be 710a 343e 60a8 8e3e
00000090: 0cec 84be 16ea e83e e31a 84bd cc7f 1e3e
000000a0: 60d4 c5be daad e3bc cac7 2fbe e624 583e
000000b0: e3c7 43be 6857 953e 8788 a63d a390 d53d
000000c0: 6e81 ae3d b9fb 4c3c 3a48 3ebe 4620 52be
000000d0: a046 783e 5409 19be fdb1 eb3c b739 023d
000000e0: 5b72 803e 75fe 6d3e 2806 b23d 8ff8 cbbe
000000f0: e521 e13e a452 fc3d 4d39 85be 581a a8bd
00000100: 0e40 f33e d258 f9bd 9cab 103e a970 a93e
00000110: 891d 0cbe 642a cdbe 8f21 f5bb 4b68 0a3d
00000120: 6159 853e 25d8 223e 4826 d4bd 6764 98be
00000130: 03f5 7c3e 4c02 6ebc 7ec2 57be 5131 0f3e
00000140: 6cf4 56bd

conv3.bias f4 [3]
3.5802953 0.34532124 0.33358324
00000000: 8f23 6540 f2cd b03e 6ccb aa3e

conv4.weight f4 [3, 3, 3, 1, 1]
-1.2202643 -0.1472979 -1.054929 0.084305376 0.8559877 0.5221757 -0.33132887 -0.26886547
0.9162126 -0.19064249 -0.62127644 0.01085483 -1.0986959 -0.11209045 -0.20064501 -0.36555576
0.23082219 -0.26674742 -0.18848285 -0.41588628 0.29024553 -0.22461343 -0.13138625 -0.15713617
0.18842062 0.5132967 -0.17244671
00000000: 9f31 9cbf 43d5 16be ea07 87bf 4ca8 ac3d
00000010: 0322 5b3f 4fad 053f f0a3 a9be bca8 89be
00000020: e98c 6a3f c937 43be f90b 1fbf 75d8 313c
00000030: 11a2 8cbf ae8f e5bd e375 4dbe 202a bbbe
00000040: a75c 6c3e 1e93 88be a601 41be 0cef d4be
00000050: 109b 943e 1001 66be 1e8a 06be 4ee8 20be
00000060: 56f1 403e 6a67 033f df95 30be

conv4.bias f4 [3]
0.02220425 -0.18582359 0.30249897
00000000: b0e5 b53c 8a48 3ebe 25e1 9a3e

conv5.weight f4 [3, 3, 1, 3, 3]
-0.22957005 -0.3343835 0.48648462 0.24550487 -0.30255675 -0.019932915 0.20560896 -0.091710135
0.034516238 -0.08133938 -0.155891 0.20077224 0.21977618 -0.069815345 0.0744188 0.10623506
-0.37702626 0.09650893 -0.37987006 0.26625696 0.0749153 -0.3148494 -0.27380252 0.09367706
-0.03564786 -0.4801776 -0.69344413 -0.080814004 -0.008952772 0.10386477 -0.22305186 0.49031582
-0.35018504 0.0047089458 -0.035033673 0.24228665 -0.123606004 0.4555849 0.28694078 0.4696227
-0.16335256 -0.4886917 -0.4304334 0.4898827 -0.2368536 -0.21751884 0.05728023 0.7031546
-0.09505085 -0.2368069 0.72431684 0.074112795 0.41282803 -0.05410361 -0.0147378845 0.28428537
0.12753965 -0.31883672 -0.023850815 -0.25729212 0.59952325 -0.4051802 0.08088026 0.37600282
-0.23610736 -0.30765495 0.5967801 -0.13138108 -0.30240116 0.20042895 0.24605492 -0.13554293
-0.33456805 0.23323838 0.35762292 0.2571552 0.006909534 0.11025937 0.014081684 -0.058857754
0.2863166
00000000: 6914 6bbe 5034 abbe 8314 f93e a165 7b3e
00000010: b8e8 9abe 5a4a a3bc 288b 523e 86d2 bbbd
00000020: e660 0d3d 4395 a6bd e4a1 1fbe 3d97 4d3e
00000030: 020d 613e 59fb 8ebd e268 983d c491 d93d
00000040: 9609 c1be 79a6 c53d 547e c2be d552 883e
00000050: 316d 993d f133 a1be d82f 8cbe c2d9 bf3d
00000060: 7e03 12bd d7d9 f5be 8e85 31bf d081 a5bd
00000070: a6ae 12bc 0db7 d43d b567 64be ad0a fb3e
00000080: 744b b3be 804d 9a3b 787f 0fbd fe19 783e
00000090: 2525 fdbd 6d42 e93e e7e9 923e 6372 f03e
000000a0: e545 27be cc35 fabe c461 dcbe e8d1 fa3e
000000b0: c089 72be 42bd 5ebe ad9e 6a3d f101 343f
000000c0: 05aa c2bd 827d 72be d46c 393f 73c8 973d
000000d0: 325e d33e bf9b 5dbd 2b77 71bc da8d 913e
000000e0: c199 023e 913e a3be c962 c3bc cbbb 83be
000000f0: 5b7a 193f c773 cfbe 8da4 a53d 7183 c03e
00000100: 21c6 71be f384 9dbe 95c6 183f c388 06be
00000110: 53d4 9abe 3f3d 4d3e d2f5 7b3e c4cb 0abe
00000120: 814c abbe 0bd6 6e3e 5a1a b73e d9a9 833e
00000130: 5f69 e23b aacf e13d ddb6 663c d414 71bd
00000140: 1798 923e

conv5.bias f4 [3]
1.8853278 -0.017738918 0.054497167
00000000: 6c52 f13f 3551 91bc 6c38 5f3d

conv6.weight f4 [3, 3, 3, 1, 1]
0.41491088 0.783522 -0.19518518 -0.2452118 0.04185142 -0.76129097 0.39901653 0.4392527
-0.35258174 0.104065575 -0.49572662 0.14241372 0.21958524 0.31328967 -0.12231138 -0.46153384
0.19908266 0.015693432 -0.33661428 -0.1247687 -0.46445113 0.06645139 -0.08044429 -0.01553344
-0.10220807 0.08758479 -0.0004955457
00000000: 336f d43e e694 483f a0de 47be cd18 7bbe
00000010: 656c 2b3d f7e3 42bf e54b cc3e bbe5 e03e
00000020: 9885 b4be 5520 d53d e1cf fdbe e7d4 113e
00000030: f4da 603e 8167 a03e 647e fabd 2a4e ecbe
00000040: 53dc 4b3e 838f 803c b558 acbe bb86 ffbd
00000050: 8acc edbe ab17 883d fabf a4bd f87f 7ebc
00000060: 7752 d1bd a85f b33d 82e7 01ba

conv6.bias f4 [3]
-0.14756797 0.035713557 2.7292721
00000000: 0f1c 17be 6148 123d 65ac 2e40

conv7.weight f4 [3, 3, 1, 3, 3]
-0.058920708 0.3647359 -0.07602124 -0.10527641 -0.032546394 -0.30701512 0.05087226 0.065283686
0.033888835 0.106346324 -0.30477723 0.19153523 -0.046407796 0.44404057 -0.010378244 0.7491605
0.07472048 -0.11818634 0.35089907 -0.04525526 0.49420863 0.39557904 0.4426222 0.43008426
0.2661067 -0.123387866 0.7723713 -0.11654019 -0.21338359 -0.08348245 0.15721945 0.41305327
-0.14541633 -0.36435115 0.136876 -0.25895426 -0.31323364 0.23236266 0.033000696 0.43239477
-0.1353338 0.18221727 0.2820877 0.52076674 -0.2357471 -0.12130509 -0.80331796 -0.32281822
-0.25822338 -0.2742631 0.3263145 -0.3316924 -0.46659467 0.19416074 -0.11412246 -0.080179766
0.030184003 0.2268082 0.15959877 -0.4796241 -0.13182567 -0.19640876 0.6849788 0.2059053
0.36511588 -0.18408693 0.4107918 0.09972935 0.553061 0.2178147 0.40091646 0.022020273
-0.21593544 0.03614261 0.52355725 -0.20013332 0.28969583 -0.2714048 -0.55347884 -0.023645224
-0.17375354
00000000: d756 71bd aabe ba3e 06b1 9bbd 299b d7bd
00000010: 5e4f 05bd 1631 9dbe 6e5f 503d 74b3 853d
00000020: 05cf 0a3d 1acc d93d c30b 9cbe d021 443e
00000030: 1a16 3ebd 4959 e33e 8309 2abc fcc8 3f3f
00000040: 0d07 993d ae0b f2bd 0ba9 b33e 945d 39bd
00000050: ea08 fd3e 5689 ca3e 619f e23e 0134 dc3e
00000060: 233f 883e c7b2 fcbd 20ba 453f a0ac eebd
00000070: 3a81 5abe d9f8 aabd 23fe 203e b87b d33e
00000080: 05e8 14be 3c8c babe 3929 0c3e a795 84be
00000090: 2960 a0be 7af0 6d3e bd2b 073d d962 dd3e
000000a0: f294 0abe 2a97 3a3e cd6d 903e f850 053f
000000b0: b067 71be ce6e f8bd 3fa6 4dbf 6e48 a5be
000000c0: db35 84be 376c 8cbe b212 a73e 96d3 a9be
000000d0: 7fe5 eebe 13d2 463e 09b9 e9bd 4a35 a4bd
000000e0: 7144 f73c 6940 683e dc6d 233e 4a91 f5be
000000f0: 4ffd 06be 611f 49be c55a 2f3f d7d8 523e
00000100: 78f0 ba3e 4981 3cbe 4e53 d23e e73e cc3d
00000110: 6895 0d3f d10a 5f3e ec44 cd3e dc63 b43c
00000120: 2e1e 5dbe 460a 143d d907 063f c0ef 4cbe
00000130: 0353 943e 92f5 8abe cab0 0dbf a1b3 c1bc
00000140: 73ec 31be

conv7.bias f4 [3]
-2.7159696 1.8830713 0.52699953
00000000: 72d2 2dc0 7b08 f13f 71e9 063f

conv8.weight f4 [3, 3, 3, 1, 1]
0.6909554 0.45717916 -0.018076707 0.2137179 0.2683402 0.00700438 -0.39760214 -0.123344935
1.0637836 -0.2558012 0.5932556 0.57224816 0.23938504 0.88910186 0.24493036 0.07126408
-0.47067234 0.6790239 -0.09939879 0.037409242 0.2850672 -0.37364495 0.97955453 0.74690825
0.2861919 -0.23073465 0.56005764
00000000: 74e2 303f 6313 ea3e 9a15 94bc ddd8 5a3e
00000010: e363 893e 0085 e53b 8292 cbbe 459c fcbd
00000020: 102a 883f 60f8 82be 99df 173f db7e 123f
00000030: 5a21 753e 2e9c 633f 06cf 7a3e e7f2 913d
00000040: f7fb f0be 83d4 2d3f 9891 cbbd 6f3a 193d
00000050: 54f4 913e 644e bfbe 16c4 7a3f 6135 3f3f
00000060: bf87 923e b445 6cbe f05f 0f3f

conv8.bias f4 [3]
-2.9036493 -0.44961825 2.6893203
00000000: 64d5 39c0 5d34 e6be d31d 2c40
