saved_model/upsample_at_location_6.pt (torch, 7314 bytes, 16 tensors)

conv1.weight f4 [3, 3, 1, 3, 3]
0	0x3e240356	0.16016898
1	0xbd140438	-0.036136836
2	0xbe25b7b7	-0.16183363
3	0xbed747d7	-0.42046997
4	0xbed8bd9e	-0.42332166
5	0x3ea3c40b	0.31985506
6	0x3efbfc28	0.49215817
7	0xbe1a39d0	-0.15061116
8	0x3cdd3055	0.027000586
9	0x3e909acf	0.2824311
10	0xbe56dbd3	-0.20982294
11	0x3df16208	0.11786276
12	0x3e9993cc	0.29995573
13	0x3db06b01	0.086141594
14	0xbf0a1e4f	-0.539525
15	0x3ebf8961	0.374095
16	0x3e0eb352	0.13935593
17	0xbdfb0416	-0.12256639
18	0x3de54a4b	0.11195811
19	0x3e8c21c8	0.27369523
20	0x3d8b6499	0.06806297
21	0x3edd6497	0.43240806
22	0x3b74c0e2	0.0037346412
23	0xbdee3661	-0.11631466
24	0x3ea85216	0.32875127
25	0xbea6e16f	-0.32593867
26	0x3e9b2b9d	0.30306712
27	0x3d9387fd	0.07203672
28	0x3eb16f8f	0.34655425
29	0xbe1b675b	-0.15176146
30	0xbcef9db6	-0.029250007
31	0xbf2959c2	-0.66152585
32	0x3ee39762	0.44451433
33	0xbb9f9443	-0.004869969
34	0xbd58dbc4	-0.05294396
35	0x3e142d58	0.14470422
36	0x3ebd440a	0.36965972
37	0xbe060a84	-0.13089949
38	0x3ef5d9cf	0.48017737
39	0xbdfc9177	-0.12332433
40	0xbf36b0a0	-0.7136326
41	0xbe84fc91	-0.25973943
42	0x3e6011e1	0.2188182
43	0x3e36ecbf	0.17863749
44	0x3dc590b1	0.09646738
45	0xbe1a7dc3	-0.15087037
46	0xbe0c6a4e	-0.13712427
47	0x3ec07436	0.37588662
48	0xbeea06f8	-0.45708442
49	0xbce0fb38	-0.02746354
50	0xbd4c9a4d	-0.04995184
51	0x3f10ef1f	0.5661487
52	0x3d8246dc	0.063611716
53	0x3d3bbf60	0.045836806
54	0xbe6028a4	-0.21890503
55	0xbcd98835	-0.026554206
56	0xbe783272	-0.24237993
57	0x3e9dd751	0.30828336
58	0xbe51f7ab	-0.20504634
59	0x3f90ac5b	1.1302599
60	0x3e127825	0.14303644
61	0x3e889ee5	0.26683727
62	0xbd87c519	-0.0662939
63	0x3e37f7e9	0.17965664
64	0x3e34f422	0.17671254
65	0xbea0fe08	-0.3144381
66	0x3df5a542	0.11994411
67	0x3e033c94	0.12816077
68	0x3dc28074	0.09497157
69	0x3e92089c	0.28522193
70	0x3e4f2e74	0.20232564
71	0x3d9466d0	0.072461724
72	0xbde333a1	-0.11093832
73	0x3cdbe167	0.026840879
74	0x3e93ceb3	0.28868636
75	0xbf00de08	-0.5033879
76	0x3c4eeb6e	0.012629373
77	0x3e8b115b	0.2716168
78	0x3dc3cb62	0.095602766
79	0x3f27415b	0.653341
80	0x3e39fa95	0.18161996

conv1.bias f4 [3]
0	0xbecf900e	-0.40539593
1	0xbe3468c8	-0.17618096
2	0x3fbd8a5a	1.4807847

conv2.weight f4 [3, 3, 3, 1, 1]
0	0xbf10d7e4	-0.5657942
1	0xbf44bf08	-0.7685399
2	0x3e7403db	0.23829596
3	0xbea5fe30	-0.32420492
4	0x3e0f4876	0.13992485
5	0xbc174a00	-0.009233952
6	0x3f2184a0	0.63092995
7	0x3e474f5e	0.1946387
8	0x3e638791	0.22219683
9	0xbc8fd3cb	-0.017557045
10	0x3e20690c	0.15665072
11	0x3e211d81	0.15733911
12	0x3f5eee6a	0.8708254
13	0x3f7e5993	0.9935543
14	0x3e587de6	0.21141776
15	0xbd731154	-0.059342697
16	0xbe162b51	-0.14664961
17	0xbc39b237	-0.011333994
18	0x3dc017c3	0.09379532
19	0x3f0b499f	0.5440921
20	0x3b9e4f49	0.004831229
21	0xbeeef047	-0.46667692
22	0xbf04533d	-0.5168951
23	0xbec26b53	-0.37972507
24	0x3ebae92f	0.3650603
25	0x3ea56671	0.3230472
26	0x3e34c2ec	0.17652482

conv2.bias f4 [3]
0	0x3f9e6554	1.2374673
1	0xbe83a245	-0.2570974
2	0x3eafcdce	0.34336704

conv3.weight f4 [3, 3, 1, 3, 3]
0	0x3ea822f7	0.32839176
1	0xbc302a05	-0.010752206
2	0x3db82987	0.08992296
3	0xbe0c2330	-0.13685298
4	0xbde24399	-0.110480495
5	0xbe86b41b	-0.26309285
6	0x3d9fddee	0.078060016
7	0x3bf26713	0.0073975413
8	0x3d7595c9	0.0599573
9	0x3e6e763d	0.23287292
10	0xbdf13ce8	-0.11779195
11	0xbcc7b7cf	-0.024379639
12	0x3e0c53f3	0.13703899
13	0x3dccf5bc	0.100078076
14	0xbd061539	-0.032735083
15	0x3e33b5d0	0.17549825
16	0xbb72ef98	-0.0037069079
17	0xbf3340d1	-0.70020777
18	0x3e013e0c	0.12621325
19	0x3e1cd441	0.15315343
20	0x3e3ad498	0.1824516
21	0x3ca5c312	0.020234618
22	0x3ca85110	0.020546466
23	0x3f03c817	0.5147719
24	0x3d7f0203	0.062257778
25	0xbdcc3f67	-0.099730305
26	0xbd9a5201	-0.07535172
27	0x3e36574c	0.17806739
28	0xbdb39040	-0.08767748
29	0x3dcee594	0.10102382
30	0x3eb0a849	0.3450339
31	0xbd6bc1bd	-0.05755781
32	0x3e5b3a42	0.21408942
33	0xbd92510e	-0.07144366
34	0x3e61945e	0.22029254
35	0xbe38c37d	-0.18043323
36	0x3f2e7d97	0.68160385
37	0x3cd09f09	0.025466459
38	0xbe5d8f7c	-0.21636766
39	0xbe38a70b	-0.18032472
40	0x3ea09b8c	0.31368673
41	0xbf82d4fc	-1.0221248
42	0xbd0210b1	-0.0317542
43	0x3ef6c786	0.481991
44	0xbf395372	-0.7239295
45	0x3ea5a524	0.32352555
46	0x3e3bdd3f	0.18346117
47	0x3ee4cdc1	0.44688228
48	0x3ebd8952	0.3701883
49	0x3d804bcc	0.06264457
50	0x3eb34768	0.35015416
51	0x3e61df81	0.22057916
52	0xbe916f76	-0.2840535
53	0xbe73c10f	-0.23804115
54	0x3ebd4e81	0.36973956
55	0x3ca66f79	0.020316826
56	0xbf011c74	-0.5043404
57	0xbdf4761a	-0.119365886
58	0xbeee3abf	-0.46529195
59	0x3ea86e12	0.32896477
60	0xbce9b362	-0.02852792
61	0xbe87010d	-0.2636799
62	0x3d678366	0.056521796
63	0xbd742367	-0.059604075
64	0x3c50ffec	0.012756329
65	0x3c2a3643	0.010388914
66	0xbcdcd67f	-0.026957748
67	0xbd8cde36	-0.06878321
68	0x3dec1f7f	0.11529445
69	0xbea8e142	-0.32984358
70	0x3e2523b2	0.16126898
71	0x3dd6cf7c	0.10488793
72	0x3e6a3465	0.2287155
73	0x3e468ceb	0.19389693
74	0x3e1ec6e1	0.15505554
75	0x3e5f89c1	0.21829893
76	0xbdd30a43	-0.10304692
77	0xbdce7384	-0.100806266
78	0xbd1c2ecf	-0.038130578
79	0xbda71b16	-0.08159463
80	0x3eca7e97	0.39549705

conv3.bias f4 [3]
0	0x3e82cf5c	0.25548828
1	0x3ea1ec4f	0.31625602
2	0xbe62dd53	-0.22154741

conv4.weight f4 [3, 3, 3, 1, 1]
0	0xbd95cdf5	-0.07314674
1	0x3ee5ca71	0.44881013
2	0x3e86ab35	0.26302496
3	0xbe5ffea7	-0.21874486
4	0xbcfb03db	-0.030641487
5	0x3d55189d	0.052025426
6	0x3e61723d	0.22016235
7	0x3da9524e	0.082676515
8	0x3eca1cd3	0.39475116
9	0x3f1083be	0.5645102
10	0x3f61b3df	0.88165087
11	0x3f5c6cd9	0.8610359
12	0xbe406346	-0.1878787
13	0x3e416bef	0.1888883
14	0xbed8cf57	-0.42345688
15	0xbf05937e	-0.5217818
16	0x3dad95a7	0.084758095
17	0xbf18804c	-0.59570765
18	0x3e9b80dd	0.30371752
19	0xbeb9f04b	-0.3631614
20	0x3eb18452	0.34671265
21	0xbea6e322	-0.32595164
22	0x3f8898a7	1.0671586
23	0xbe7b2215	-0.2452472
24	0xbe2e58f3	-0.17026119
25	0xbee35011	-0.44397023
26	0xbeec6c3c	-0.46176326

conv4.bias f4 [3]
0	0xbdb3eff3	-0.08786001
1	0x3e89383f	0.26800725
2	0x3f6033d9	0.87579113

conv5.weight f4 [3, 3, 1, 3, 3]
0	0xbe54aa2c	-0.2076804
1	0x3e01843d	0.12648101
2	0xbe74bf40	-0.23901081
3	0x3e9f2e9a	0.31090242
4	0xbdba4a70	-0.09096229
5	0x3d76ef1b	0.060286622
6	0x3e56d24c	0.2097866
7	0xbee24268	-0.4419129
8	0xbda8c5dc	-0.08240864
9	0x3e11e4e2	0.14247468
10	0xbe0b1a0a	-0.13584152
11	0xbe2d0590	-0.16896653
12	0xbc5e5f80	-0.013572574
13	0x3dd5c157	0.10437267
14	0xbe7711bc	-0.24127859
15	0x3ebaf680	0.3651619
16	0x3dfa7b7a	0.122305825
17	0x3e654b97	0.22392116
18	0x3cbfd937	0.023419006
19	0x3e6d012b	0.23144977
20	0x3ea0ca40	0.31404305
21	0x3e3ac392	0.18238667
22	0x3f16fdab	0.58980817
23	0x3dff11e8	0.12454587
24	0xbe0a11d6	-0.13483366
25	0x3dcc0162	0.09961201
26	0x3e5b137f	0.21394156
27	0x3e8c16a0	0.27361012
28	0xbe527d83	-0.20555691
29	0xbf061910	-0.5238199
30	0x3d904a8c	0.07045469
31	0x3d6a38d5	0.057183105
32	0x3e6e6425	0.2328039
33	0x3e9d9827	0.30780146
34	0xbf1fa82d	-0.6236599
35	0x3ec11e8a	0.37718612
36	0xbdeb4f39	-0.1148972
37	0x3d8f8d8b	0.07009419
38	0x3e954ef3	0.29161796
39	0x3c9e6d43	0.01933921
40	0xbbafc218	-0.005363714
41	0x3dc8904a	0.09793146
42	0x3ef0422d	0.46925488
43	0xbe15f97a	-0.14645949
44	0xbeed37d7	-0.46331665
45	0xbe287207	-0.16449748
46	0xbfab49e0	-1.338192
47	0xbfe6833f	-1.8008803
48	0xbdc3d093	-0.09561267
49	0xbf33d41a	-0.70245516
50	0xbfb5879f	-1.4182013
51	0xbf30c2b3	-0.6904709
52	0xbe9c3512	-0.3050924
53	0xbf2e2d9b	-0.6803834
54	0x3cc71398	0.024301335
55	0xbb4f4de3	-0.0031632117
56	0x3e3f39d4	0.18674403
57	0xbe4c5e8d	-0.19957943
58	0xbc3c9585	-0.011510258
59	0x3e100f72	0.14068392
60	0x3cba6591	0.022753509
61	0xbdac05eb	-0.08399566
62	0x3e93dd71	0.28879884
63	0x3d6aa54e	0.057286553
64	0xbe0e8e3c	-0.13921446
65	0x3e6a257f	0.22865866
66	0x3e803808	0.25042748
67	0x3e85ca8a	0.26131088
68	0x3ed1a798	0.40948176
69	0xbc14d4cb	-0.009083937
70	0x3e80dd33	0.25168762
71	0xbd42e136	-0.04757806
72	0x3ea31591	0.3185239
73	0xbeb723f2	-0.35769612
74	0x3ed3272c	0.41240823
75	0x3ee9237b	0.45534882
76	0xbe9d8e64	-0.30772698
77	0x3e4b162c	0.19832677
78	0xbe49d368	-0.19709551
79	0x3dc54b95	0.09633557
80	0xbd010ceb	-0.03150646

conv5.bias f4 [3]
0	0x3f041d95	0.5160764
1	0x4083724f	4.1077037
2	0xbc92c11d	-0.01791435

conv6.weight f4 [3, 3, 3, 1, 1]
0	0xbe333198	-0.17499387
1	0xbdedb3e9	-0.11606581
2	0xbe163051	-0.14666869
3	0x3e2d5022	0.169251
4	0xbe868cfe	-0.26279444
5	0x3f3bf35a	0.734182
6	0x3e20199b	0.15634768
7	0x3eca1f80	0.39477158
8	0xbc753b16	-0.0149677005
9	0x3dec7276	0.11545269
10	0x3e8e9775	0.27849928
11	0x3e9d408e	0.30713314
12	0x3d7605d6	0.06006416
13	0x3f19f222	0.6013509
14	0xbc2bc9e0	-0.0104851425
15	0xbc8c8473	-0.017153
16	0xbf13d857	-0.57751983
17	0xbe0d835c	-0.13819641
18	0xbd483f9e	-0.048888795
19	0xbe8e2b0b	-0.27767214
20	0x3dfbe820	0.12300134
21	0xbd0f0844	-0.034919992
22	0xbe1a1bf1	-0.15049721
23	0x3e6c5619	0.23079719
24	0x3cd04b79	0.025426613
25	0x3f1ab93c	0.60438895
26	0xbdd247b1	-0.1026758

conv6.bias f4 [3]
0	0x3f24b366	0.6433624
1	0x3e1178ad	0.1420619
2	0xbef148e7	-0.47125933

conv7.weight f4 [3, 3, 1, 3, 3]
0	0xbee50edf	-0.44737908
1	0xbd822810	-0.063552976
2	0x3ed7908e	0.42102474
3	0x3eac901f	0.33703706
4	0xbda59477	-0.08084958
5	0x3ec0632f	0.3757567
6	0xbe8e7f6e	-0.27831596
7	0xbea0b23f	-0.3138599
8	0x3e7145cb	0.2356178
9	0xbe897e22	-0.26854044
10	0xbe5832c2	-0.21113113
11	0xbe7714c7	-0.2412902
12	0x3ed95c32	0.42453152
13	0x3ede4a36	0.43415993
14	0x3d27ae8d	0.04093795
15	0x3ea07825	0.31341663
16	0x3e62f0b1	0.22162129
17	0x3e9a41d2	0.30128342
18	0xbed80fd8	-0.42199588
19	0x3e1d7c5d	0.15379472
20	0xbf0b5990	-0.54433537
21	0xbe2088d3	-0.15677194
22	0x3ddeb3cf	0.108741395
23	0xbdee93e0	-0.11649299
24	0xbcb07ce8	-0.021543935
25	0x3e42a82f	0.1900947
26	0x3eb7c727	0.3589413
27	0xbeaaca66	-0.33357543
28	0xbd8292b7	-0.0637564
29	0xbe2a8204	-0.1665116
30	0x3e1564f8	0.14589298
31	0x3e436669	0.19082035
32	0xbe8dd63b	-0.27702507
33	0x3f27eec0	0.6559868
34	0x3e2a3ab8	0.16623962
35	0x3e8bbcbd	0.27292433
36	0x3e14471f	0.14480256
37	0x3ed64d27	0.41855738
38	0x3f18f43a	0.5974766
39	0xbdbe6c60	-0.09298015
40	0xbee36e22	-0.44419962
41	0xbe16b2dd	-0.14716668
42	0xbf214718	-0.62999105
43	0xbeee041e	-0.46487516
44	0xbf098f29	-0.5373407
45	0x3da7d3a4	0.08194664
46	0xbe9f531b	-0.31118092
47	0x3e27702f	0.16351388
48	0xbdb77cf8	-0.08959383
49	0xbe16b6f6	-0.14718232
50	0x3d363d59	0.0444921
51	0x3e882a3a	0.26594716
52	0x3e831a4b	0.25605997
53	0xbe15537e	-0.14582631
54	0xbe28f96e	-0.165014
55	0xbe6eb061	-0.2330947
56	0xbdbd3a9f	-0.09239697
57	0x3e198211	0.14991023
58	0xbe0cd1d7	-0.13751923
59	0xbe59af0c	-0.21258181
60	0xbe338ad1	-0.17533423
61	0x3dd52120	0.10406709
62	0xbe2c5c93	-0.1683219
63	0x3e596955	0.21231587
64	0x3e3537ae	0.17697021
65	0x3e2c128d	0.16803952
66	0x3e1b9b4c	0.1519596
67	0x3d72bb78	0.059260815
68	0xbeb4a190	-0.35279512
69	0x3e9b1848	0.30291963
70	0xbec8464d	-0.39116135
71	0x3df273b1	0.11838473
72	0xbc98b0b4	-0.018638946
73	0x3c75e230	0.015007541
74	0xbe24b6a2	-0.16085294
75	0x3f3ce402	0.7378541
76	0x3e882f57	0.26598617
77	0x3ebec4eb	0.3725961
78	0xbe6a202b	-0.22863834
79	0x3e581c7b	0.21104614
80	0xbe081c26	-0.13291988

conv7.bias f4 [3]
0	0x3f038211	0.5137034
1	0xbd26a417	-0.040683832
2	0xbe8e3df0	-0.2778163

conv8.weight f4 [3, 3, 3, 1, 1]
0	0xbe061988	-0.13095677
1	0xbeb9daa8	-0.36299634
2	0xbf5b40af	-0.85645574
3	0x3b553d29	0.0032537675
4	0xbf246aa0	-0.64225197
5	0x3f22cd0c	0.63594127
6	0x3f559eb7	0.83445305
7	0x3f64c580	0.8936386
8	0xbebf15c4	-0.37321293
9	0xbdbb34a9	-0.091409035
10	0xbeaa6d2e	-0.33286422
11	0xbf2fc13b	-0.6865422
12	0x3b628c16	0.003456836
13	0x3f162c2d	0.58661157
14	0x3e0cdfaf	0.13757204
15	0xbe135481	-0.14387704
16	0x3f5fc154	0.8740437
17	0xbe5be250	-0.2147305
18	0xbc81c322	-0.015840117
19	0xbe4bad07	-0.19890223
20	0xbf054c00	-0.5206909
21	0x3c577ccd	0.013152313
22	0x3f3bf6e1	0.7342358
23	0x3f2ddf94	0.6791928
24	0xbe87b530	-0.26505423
25	0x3eb0d99c	0.34541023
26	0xbecd67b5	-0.40118185

conv8.bias f4 [3]
0	0xbf909244	-1.1294637
1	0xbea80987	-0.3281977
2	0x3f1bf915	0.60926944
