saved_model_2016/video_upsample-1_9-3-5-epoch_20_size_200_patches_100.pt (torch, 149130 bytes, 6 tensors)

conv1.weight f4 [64, 3, 9, 9]
0.12312164 -0.10202216 0.079801045 0.18075603 -0.07501411 -0.05596724 0.08713116 -0.020188956
-0.09972758 -0.06108957 -0.09430151 -0.10367428 -0.14513168 -0.028456904 -0.105426185 -0.11681224
0.063894376 -0.2323721 0.024714243 0.2009869 0.009361979 -0.10320013 -0.069949046 -0.11047141
-0.011635449 0.080550365 0.15050766 -0.12455491 -0.0049239495 0.009310579 -0.018088294 -0.015638351
-0.0012035627 -0.041494973 0.028757969 0.08796297 -0.20719133 -0.009561214 -0.019620286 0.007502923
0.11392537 -0.05350014 -0.0011297823 -0.116435535 -0.09671656 0.122548155 -0.14861828 0.055424083
-0.018277252 0.025724543 -0.07340318 -0.03623425 -0.15391158 -0.09174083 -0.07571425 -0.07556638
-0.0018412658 0.017443858 0.10338323 0.00095556024 0.103196904 0.18709747 -0.063110046 -0.17286511
-0.095622756 -0.06193991 0.119840205 -0.08335791 -0.013214365 -1.2860952e-05 0.042022657 0.09477383
0.10029413 0.19432914 0.2659495 0.14231442 -0.07100684 0.07618035 -0.08758371 0.03257798
0.0407979 -0.0404736 -0.12178572 -0.01972505 0.04161646 -0.16209473 -0.2152664 -0.07742031
-0.023165656 -0.13286266 -0.042297885 -0.04896673 -0.036977075 -0.033051115 0.0031553868 -0.040335268
-0.020684378 -0.02566793 0.04540816 -0.006826489 -0.0030242654 0.00011910216 0.028776038 -0.038209386
-0.08847968 -0.08787669 0.10202087 0.00724956 0.01967103 -0.029411778 0.04284825 -0.048149683
0.15182284 -0.09907778 -0.05899834 -0.1239483 -0.15813136 -0.093561016 -0.0002307007 -0.0606533
-0.13400292 0.05220526 0.015699701 -0.067916095 0.13159098 0.041359447 0.0020790806 0.038372334
-0.052996144 -0.12475871 -0.030664684 -0.01083583 -0.1604905 0.05317715 -0.052943878 0.086999185
-0.029119082 0.02818995 0.0009534308 0.07426588 0.024571449 0.08211628 0.032741047 -0.10460558
-0.07874434 0.17010288 -0.017629877 0.04761758 -0.1721141 -0.15310146 0.011715862 -0.0030738132
-0.057799652 -0.027935885 0.0013510383 0.036074143 0.10588262 -0.04400918 -0.06178852 0.14334863
-0.03132984 0.002702536 0.22372378 0.13377912 0.12997365 -0.04629693 0.042057138 -0.0700279
0.15617637 -0.012748697 -0.015996603 0.1634109 0.09417346 -0.1414826 -0.21913363 -0.110945165
-0.024090122 -0.2593141 0.050354075 0.03188258 0.018228589 0.10366396 0.11122276 -0.123879425
-0.09045993 -0.09154878 -0.07791681 -0.078481235 -0.13375835 0.084745936 -0.14356627 -0.010614159
0.055485543 -0.10971077 -0.10925892 -0.04181777 -0.16514656 0.056502152 -0.0017787379 0.08007299
0.08817045 -0.07306811 -0.09553692 0.073546246 -0.09822056 0.06023404 -0.044850126 0.12557372
-0.06445028 -0.18627872 0.1354785 -0.013769534 -0.080839135 -0.022733036 0.011975082 -0.08264984
-0.044848707 0.078683615 -0.19122913 0.0038113915 -0.031193865 -0.06711244 -0.012923147 -0.053690784
0.011779442 -0.18843576 -0.120701924 0.0666208 -0.14458802 -0.025696049 -0.03292496 0.024444308
0.034613855 -0.07754617 -0.092942744 -0.042258527 -0.08475457 0.08688632 -0.12344693 -0.04114219
0.06435218 -0.12252267 0.05445655 -0.026977036 0.031721167 -0.041403234 0.01463423 0.01618547
0.03116758 -0.003973841 0.075171426 -0.08199853 -0.09921928 0.07163792 -0.18941848 0.17466599
00000000: 3327 fc3d fff0 d0bd bb6e a33d 1c18 393e
00000010: ffa0 99bd e83d 65bd d271 b23d 4f63 a5bc
00000020: f93d ccbd 0f39 7abd 2621 c1bd 2e53 d4bd
00000030: 669d 14be 741e e9bc afe9 d7bd 413b efbd
00000040: 0edb 823d f4f2 6dbe 8675 ca3c 83cf 4d3e
00000050: fc62 193c 975a d3bd 7241 8fbd d63e e2bd
00000060: 9ca2 3ebc 97f7 a43d ae1e 1a3e a516 ffbd
00000070: 1559 a1bb 668b 183c e72d 94bc 001c 80bc
00000080: ddc0 9dba a2f6 29bd d595 eb3c ee25 b43d
00000090: f729 54be a3a6 1cbc b9ba a0bc 14db f53b
000000a0: b451 e93d f622 5bbd 3415 94ba c175 eebd
000000b0: 5513 c6bd 87fa fa3d 642f 18be 5d04 633d
000000c0: 2dba 95bc 47bc d23c 6854 96bd 5d6a 14bd
000000d0: ff9a 1dbe 9ee2 bbbd 1310 9bbd 8cc2 9abd
000000e0: a156 f1ba 6ce6 8e3c 96ba d33d 907e 7a3a
000000f0: e658 d33d 7b96 3f3e d73f 81bd 8d03 31be
00000100: ddd5 c3bd b4b4 7dbd c86e f53d 8db7 aabd
00000110: 1081 58bc 5ec5 57b7 f31f 2c3d c818 c23d
00000120: 0267 cd3d 38fe 463e 882a 883e dfba 113e
00000130: 096c 91bd 7104 9c3d 175f b3bd 7d70 053d
00000140: b31b 273d a5c7 25bd cb6a f9bd 6e96 a1bc
00000150: 0576 2a3d 29fc 25be cc6e 5cbe 8a8e 9ebd
00000160: e7c5 bdbc 260d 08be 8c40 2dbd 5691 48bd
00000170: 4675 17bd 9b60 07bd 9bca 4e3b 9836 25bd
00000180: 4972 a9bc 8d45 d2bc e8fd 393d beb0 dfbb
00000190: c132 46bb 7cc6 f938 babb eb3c 7281 1cbd
000001a0: d634 b5bd b2f8 b3bd 51f0 d03d b88d ed3b
000001b0: 2425 a13c f8f0 f0bc a681 2f3d 9a38 45bd
000001c0: 7277 1b3e 4be9 cabd 3ea8 71bd 9bd8 fdbd
000001d0: 30ed 21be eb9c bfbd 3fe8 71b9 986f 78bd
000001e0: 1038 09be 2fd5 553d a99c 803c 9817 8bbd
000001f0: c9bf 063e 8668 293d 2f41 083b 4f2c 1d3d
00000200: 7c12 59bd 7f81 ffbd 8134 fbbc c488 31bc
00000210: 9f57 24be 49d0 593d aedb 58bd a12c b23d
00000220: 248b eebc 9cee e63c a8ef 793a b618 983d
00000230: 104a c93c 952c a83d 7a1b 063d 733b d6bd
00000240: b644 a1bd 732f 2e3e 886c 90bc a70a 433d
00000250: ae3e 30be a1c6 1cbe e3f3 3f3c 0772 49bb
00000260: 54bf 6cbd ccd9 e4bc 5315 b13a 7bc2 133d
00000270: fdd8 d83d f842 34bd f615 7dbd fcc9 123e
00000280: b853 00bd 081d 313b d917 653e 65fd 083e
00000290: d017 053e daa1 3dbd 1b44 2c3d ca6a 8fbd
000002a0: b3ec 1f3e e9df 50bc 4f0b 83bc 3055 273e
000002b0: 04de c03d d1e0 10be 9164 60be 3837 e3bd
000002c0: a658 c5bc d1c4 84be 1340 4e3d 4f97 023d
000002d0: 1f54 953c c54d d43d c2c8 e33d 7fb4 fdbd
000002e0: 0e43 b9bd ed7d bbbd d992 9fbd c5ba a0bd
000002f0: f3f7 08be 478f ad3d 0903 13be 02e7 2dbc
00000300: cf44 633d 0ab0 e0bd 24c3 dfbd 1c49 2bbd
00000310: 2e1c 29be cd6e 673d 8a24 e9ba 4ffd a33d
00000320: b592 b43d bca4 95bd dca8 c3bd 6a9f 963d
00000330: dc27 c9bd f8b7 763d c4b4 37bd 6696 003e
00000340: 82fe 83bd d9bf 3ebe e0ba 0a3e 9d99 61bc
00000350: fd8e a5bd a23a babc 2233 443c 5244 a9bd
00000360: 47b3 37bd e024 a13d 92d1 43be 8ac8 793b
00000370: 478a ffbc 3f72 89bd 9bbb 53bc deea 5bbd
00000380: 90fe 403c 4ef5 40be 9232 f7bd 7c70 883d
00000390: e20e 14be 8580 d2bc 53dc 06bd 6e3f c83c
000003a0: 42c7 0d3d 87d0 9ebd c458 bebd 4717 2dbd
000003b0: ce93 adbd 74f1 b13d bed1 fcbd b784 28bd
000003c0: 13cb 833d 2aed fabd d50d 5f3d f2fe dcbc
000003d0: 0eee 013d 7096 29bd 69c4 6f3c 6497 843c
000003e0: 2753 ff3c ff36 82bb 7af3 993d d8ee a7bd
000003f0: 7a33 cbbd e7b6 923d ebf6 41be a4db 323e

conv1.bias f4 [64]
0.022815213 0.031679858 0.20341374 1.0673438 0.3990568 0.96439475 0.09729413 -0.03996507
-0.1082578 -0.3463808 0.14883204 -0.21896727 0.022639968 0.12108612 -0.12491486 -0.22872753
-0.0072314925 0.32750073 -0.1279644 0.6711687 0.40141675 -0.026151968 -0.24179675 2.09076
0.14871103 0.7410096 0.12157156 -0.08516464 0.026565563 -0.10668877 0.7023294 0.1755614
0.007865778 0.0037755528 -0.021014197 0.45820308 -0.0020444351 0.039748903 0.40980276 -0.23799217
0.03438768 -0.018664485 -0.013243985 0.1526861 -0.17568767 -0.12835185 -0.031015862 -0.59396476
0.20195429 0.01350145 -0.15253974 0.33551726 0.10996737 -0.38577965 0.093699835 0.17138357
0.45866582 0.18730623 1.2724322 0.114790656 0.8894996 -0.08250708 0.06587381 0.28542644
00000000: f8e6 ba3c bdc2 013d b14b 503e b99e 883f
00000010: 2c51 cc3e 93e2 763f 2542 c73d 6ab2 23bd
00000020: 44b6 ddbd d358 b1be 6d67 183e f538 60be
00000030: 7477 b93c 00fc f73d 5dd3 ffbd 8d37 6abe
00000040: 28f6 ecbb 2dae a73e 1a09 03be b6d1 2b3f
00000050: 7f86 cd3e a73c d6bc 9199 77be 03cf 0540
00000060: b447 183e ceb2 3d3f 83fa f83d cc6a aebd
00000070: 06a0 d93c a47f dabd dccb 333f 5ec6 333e
00000080: 77df 003c 446f 773b f725 acbc 9899 ea3e
00000090: eefb 05bb bfcf 223d abd1 d13e 38b4 73be
000000a0: 19da 0c3d 43e6 98bc 4dfd 58bc bf59 1c3e
000000b0: 78e7 33be ab6e 03be fa14 febc 130e 18bf
000000c0: 1bcd 4e3e 3035 5d3c 6133 1cbe ebc8 ab3e
000000d0: 9336 e13d e984 c5be b3e5 bf3d 2d7f 2f3e
000000e0: 3fd6 ea3e 34cd 3f3e 0fdf a23f 5d17 eb3d
000000f0: 3fb6 633f 79f9 a8bd d9e8 863d 6a23 923e

conv2.weight f4 [32, 64, 3, 3]
0.003083608 0.08537637 0.06545102 0.027513703 0.09171644 -0.016650828 -0.05853478 -0.046661455
-0.0076312493 -0.087662004 0.030755464 0.0368498 -0.055054404 -0.008663023 0.08113421 0.062059406
-0.028320417 -0.0450094 0.016423956 0.04814744 -0.08382565 -0.034903646 0.03631595 0.0022181147
-0.17026152 -0.064584 -0.02083553 0.32265425 0.21985637 0.119323194 0.3428213 0.005786769
-0.19853267 0.051957913 -0.18481962 -0.3397556 -0.008576244 -0.1468417 -0.17877185 0.1106106
0.16073541 0.0037682864 -0.07144334 0.09912953 0.0069397753 0.03415491 0.048517477 0.061168823
-0.16054705 -0.1507415 -0.23574178 -0.07964203 -0.05295431 -0.24542728 0.1080851 0.023519652
-0.016968038 -0.028507167 -0.026981968 0.0059934417 -0.0014517271 0.051414646 -0.10795854 0.094970435
0.1560814 -0.05158809 0.025922792 0.063500606 -0.04600342 0.05437011 -0.022416735 0.02279524
0.011052298 0.03762912 0.049541526 0.0009813363 -0.04418902 -0.017805237 -0.01845683 -0.08438802
-0.01869565 0.048533283 -0.009788918 0.008745703 0.025808815 -0.053563174 0.0446237 0.012486918
-0.04501013 0.018238677 0.10994598 0.09758582 0.10452489 -0.009337752 -0.0052014864 -0.07385638
-0.15911306 0.0055968207 0.07311313 -0.0592528 -0.055458706 -0.049981914 0.037322015 0.080896914
-0.055589996 0.12539278 -0.052525878 -0.11094253 0.049221657 -0.027363334 -0.05247447 -0.04991919
0.038624913 0.022629496 0.04321898 0.0325009 -0.022942789 0.046067018 0.057447348 0.08856041
-0.06927042 0.006691449 0.04399373 -0.014691811 -0.059513833 0.049039148 0.002171789 -0.08909742
0.06202259 -0.051494747 0.006122707 -0.076973215 0.03349116 0.017183471 0.04674418 -0.015457
-0.009810822 -0.08681501 -0.003571757 0.09692611 0.12321443 0.04327673 -0.110589944 -0.050707057
-0.061659664 -0.08651396 -0.026873523 0.0454611 0.045871496 0.075505994 0.086731836 0.023487868
0.10840055 -0.12998931 -0.03577132 -0.09915309 0.046314675 0.10710817 0.02956745 -0.123018086
-0.21850553 -0.16238597 0.066846974 -0.03732862 0.037295084 0.051354047 -0.06630329 0.013450117
-0.07273608 -0.025625978 0.025391458 0.17788866 0.1494737 0.030580454 -0.092963435 -0.026918514
-0.12792589 -0.08650727 0.0073056435 0.12255037 -0.09549975 -0.23186272 -0.14496726 -0.10048181
-0.0968512 0.0562926 0.08112173 -0.023127541 0.058427423 0.016322402 0.0194716 -0.12018896
0.060073033 0.040378097 0.003523294 0.090602614 0.009959164 0.07275675 0.059328314 0.048689853
0.24321945 -0.03496824 -0.028083364 0.01464997 -0.15651898 -0.16900851 -0.017252756 -0.35150328
-0.2295971 -0.14546873 0.1823525 0.196098 0.26447147 0.031783197 -0.14143889 -0.07168212
0.053005353 -0.025632925 0.03895695 -0.043668054 0.05594577 0.017504899 0.009076883 -0.09294595
0.05194713 0.08257676 -0.048193898 -0.16800946 0.043885678 -0.1055045 0.039620247 -0.021563152
-0.043531284 0.11621219 -0.06382674 -0.08295026 0.06828513 0.025463173 -0.027712014 0.16525006
-0.16187242 -0.21274444 -0.11380907 0.08201813 -0.05712704 -0.10474638 -0.0139035825 -0.010758076
0.05147974 0.017731106 -0.03248524 0.02251659 -0.04189657 -0.035294857 -0.041148275 -0.023978258
00000000: 5c16 4a3b ced9 ae3d 2f0b 863d 6b64 e13c
00000010: d4d5 bb3d 5167 88bc 2ac2 6fbd 1520 3fbd
00000020: 8f0f fabb 2388 b3bd e2f2 fb3c d1ef 163d
00000030: ba80 61bd 5aef 0dbc b129 a63d 0132 7e3d
00000040: 3800 e8bc c75b 38bd 888b 863c 4036 453d
00000050: c8ac abbd 20f7 0ebd 09c0 143d ca5d 113b
00000060: 0959 2ebe 9e44 84bd 46af aabc f032 a53e
00000070: 0722 613e b85f f43d 4686 af3e f09e bd3b
00000080: 264c 4bbe d2d1 543d 5b41 3dbe 72f4 adbe
00000090: 6083 0cbc ac5d 16be f80f 37be cf87 e23d
000000a0: d397 243e 5bf5 763b e350 92bd 6c04 cb3d
000000b0: 0e67 e33b 05e6 0b3d 43ba 463d 298c 7a3d
000000c0: 7266 24be fb5b 1abe 4b66 71be 5c1b a3bd
000000d0: 9ee6 58bd 4a51 7bbe b95b dd3d 49ac c03c
000000e0: 8e00 8bbc dd87 e9bc 4a09 ddbc a264 c43b
000000f0: e147 beba 2a98 523d 5e19 ddbd dc7f c23d
00000100: cdd3 1f3e 084e 53bd 095c d43c 9b0c 823d
00000110: 156e 3cbd 31b3 5e3d 4da3 b7bc 15bd ba3c
00000120: b314 353c fe20 1a3d 0eec 4a3d 2fa0 803a
00000130: 8cff 34bd 4adc 91bc c732 97bc a0d3 acbd
00000140: 9f27 99bc d6ca 463d b361 20bc 234a 0f3c
00000150: 026d d33c 0f65 5bbd 57c7 363d ee95 4c3c
00000160: 8b5c 38bd 4769 953c 5c2b e13d 13db c73d
00000170: 2511 d63d 5ffd 18bc 3b71 aabb 0442 97bd
00000180: 89ee 22be 8965 b73b 56bc 953d 10b3 72bd
00000190: ab28 63bd d6b9 4cbd f8de 183d 48ad a53d
000001a0: 56b2 63bd f766 003e 6025 57bd d635 e3bd
000001b0: a69c 493d 1229 e0bc 78ef 56bd 1178 4cbd
000001c0: 2835 1e3d 7e61 b93c 6306 313d aa1f 053d
000001d0: 84f2 bbbc c5b0 3c3d e94d 6b3d 295f b53d
000001e0: a6dd 8dbd f143 db3b c532 343d ecb5 70bc
000001f0: c7c4 73bd 46dd 483d 9354 0e3b b578 b6bd
00000200: 660b 7e3d 28ec 52bd fda0 c83b 22a4 9dbd
00000210: 072e 093d 5ac4 8c3c d376 3f3d 5b3f 7dbc
00000220: 92bd 20bc 11cc b1bd 2414 6abb 3281 c63d
00000230: d957 fc3d f142 313d fb7c e2bd 34b2 4fbd
00000240: d88e 7cbd 3b2e b1bd dd25 dcbc 6b35 3a3d
00000250: c0e3 3b3d e3a2 9a3d 76a0 b13d a169 c03c
00000260: 1c01 de3d eb1b 05be f384 12bd c610 cbbd
00000270: 75b4 3d3d 875b db3d 7037 f23c e8f0 fbbd
00000280: eabf 5fbe 8248 26be 11e7 883d e5e5 18bd
00000290: bbc2 183d 9f58 523d 05ca 87bd e15d 5c3c
000002a0: a7f6 94bd 92ed d1bc bf01 d03c 7228 363e
000002b0: a20f 193e dc83 fa3c 9d63 bebd 3784 dcbc
000002c0: 01ff 02be b92a b1bd 2e64 ef3b b0fb fa3d
000002d0: 5f95 c3bd 6c6d 6dbe 4c72 14be 68c9 cdbd
000002e0: ec59 c6bd 1293 663d 2623 a63d f875 bdbc
000002f0: 9851 6f3d 8fb6 853c e882 9f3c a125 f6bd
00000300: 240f 763d 8163 253d 11e7 663b dd8d b93d
00000310: c32b 233c 7e01 953d 3f02 733d 036f 473d
00000320: 850e 793e db3a 0fbd 150f e6bc 6e06 703c
00000330: 8346 20be 9110 2dbe a755 8dbc 3df8 b3be
00000340: 811b 6bbe c1f5 14be 9dba 3a3e eacd 483e
00000350: ce68 873e 192f 023d 5bd5 10be 13ce 92bd
00000360: 241c 593d 24fc d1bc 5391 1f3d 46dd 32bd
00000370: 6427 653d 6f66 8f3c 35b7 143c 725a bebd
00000380: 84c6 543d 011e a93d f766 45bd ac0a 2cbe
00000390: 78c1 333d be12 d8bd d748 223d 35a5 b0bc
000003a0: dc4d 32bd a800 ee3d 98b7 82bd d3e1 a9bd
000003b0: 13d9 8b3d 2598 d03c 4e04 e3bc 5037 293e
000003c0: e2c1 25be aed9 59be bb14 e9bd 1ff9 a73d
000003d0: 0bfe 69bd 4585 d6bd dacb 63bc a442 30bc
000003e0: 6bdc 523d d340 913c 3e0f 05bd b674 b83c
000003f0: bd9b 2bbd 5791 10bd 188b 28bd 0d6e c4bc

conv2.bias f4 [32]
0.7427898 0.34615895 -0.08089475 0.6624011 -0.02028869 -0.026052097 0.092732355 -0.012346428
0.012640298 0.60405374 -0.0047583627 -0.4218675 0.0021192962 -0.030470125 -0.016629377 -0.024325384
0.031252485 -0.036300123 0.006285798 -0.012176537 0.16986363 0.074159004 0.05241861 -0.007094172
0.049145278 0.15360983 -0.015055536 0.1326045 0.01858134 -0.0040372056 -0.008884648 0.019373802
00000000: 7927 3e3f bf3b b13e 26ac a5bd 1e93 293f
00000010: 7834 a6bc 356b d5bc 76ea bd3d ac48 4abc
00000020: 4119 4f3c 44a3 1a3f 0aec 9bbb 04ff d7be
00000030: e4e3 0a3b 7c9c f9bc 553a 88bc 0746 c7bc
00000040: 9b02 003d 70af 14bd 18f9 cd3b 1980 47bc
00000050: bbf0 2d3e ade0 973d e5b4 563d 3a76 e8bb
00000060: 8f4c 493d e54b 1d3e 7fab 76bc 79c9 073e
00000070: e537 983c 894a 84bb ea90 11bc cfb5 9e3c

conv3.weight f4 [3, 32, 5, 5]
-0.00097647565 -0.01702533 0.07752933 0.13030213 0.09768796 0.045641925 -0.0783917 -0.077038094
0.049206574 0.0421752 0.05337095 0.019760719 -0.03359322 -0.085736446 -0.07265769 0.15240842
-0.017467938 -0.037166428 -0.07694841 -0.059005287 0.09638929 -0.011672975 -0.07265866 -0.12800068
-0.013168325 0.05796593 -0.02989459 -0.05784347 0.035282325 0.047635157 0.025913734 -0.04840897
0.0376745 -0.022851331 0.026235702 -0.031490427 0.022918893 -0.0057815416 -0.017070627 0.017799364
-0.022277283 0.025939103 -0.06393619 0.044863317 -0.06652665 0.053078707 -0.030312479 0.0026063055
0.04049403 0.012511977 0.0039947857 0.11397134 0.07199602 -0.07316933 0.006071774 -0.021602461
-0.101734266 -0.06367564 0.06486548 -0.08035912 -0.029166477 -0.0044790795 0.009579852 -0.0025679604
0.041995022 0.020712687 -0.021614775 0.03323672 -0.021841994 0.0060650287 0.018139124 0.015333901
0.022546817 0.004079744 -0.014629058 -0.0026461834 -0.04701873 -0.05085122 0.012741954 0.13583277
0.03464443 0.058086712 -0.0318406 0.044958267 0.10725162 0.043266103 -0.06516143 -0.053808358
-0.03831898 -0.0052964124 0.060608897 -0.07009824 -0.09262405 -0.0152555 0.037689403 0.046413563
0.036944754 -0.09421621 0.020092921 0.020115813 -0.06599849 -0.058053628 -0.1225363 0.030770304
-0.054084588 -0.076507814 0.021640718 0.10112512 -0.056907054 0.12713327 0.026499756 0.0059551327
-0.027169112 0.030760515 -0.030586746 0.001029535 0.042478245 -0.005216685 0.00727239 -0.033289675
-0.03509694 0.039741173 -0.03646646 0.026534485 0.022870392 -0.04522869 0.021809928 -0.031391025
0.00021699599 -0.01657421 0.005888867 -0.04440142 -0.0049677556 0.04033996 0.017551813 0.025473094
-0.010581907 0.027874561 0.08906786 -0.0009275353 0.0331086 -0.00083334994 -0.06977096 0.056098342
0.018802967 0.028338745 -0.06720044 -0.030418266 -0.040491145 0.023491982 0.050178614 0.01696246
0.025932772 0.02320278 -0.0077259415 -0.022081507 0.15047017 0.036452524 -0.00057095446 -0.019570358
-0.011248162 0.113600954 -0.07935069 0.013994969 -0.059364665 0.039036285 -0.08480809 -0.0121693835
-0.010420294 -0.018797964 -0.050678454 -0.012041912 0.017586745 0.066515476 -0.008933562 -0.021607712
0.0653655 -0.014597581 0.0067738905 0.024012035 -0.06649798 -0.026602484 0.0164231 0.03961057
0.046966273 0.09489371 -0.0846705 0.004298835 -0.024774693 0.048108593 -0.023698267 -0.006299518
-0.0050674323 -0.016456783 0.047429528 0.08022802 -0.017325236 -0.07007414 -0.008909219 0.16541372
0.039690726 -0.010615467 -0.011435939 0.0012285279 -0.022477323 -0.11437748 -0.022279669 -0.04297702
-0.044676222 0.0017877402 0.04853811 0.05061272 -0.08388121 -0.0069776154 -0.005910111 0.05955972
-0.002191044 0.009386855 -0.034333054 -0.025484415 0.06203041 -0.09441612 0.10460515 -0.009865394
0.049847197 -0.053660247 0.04529726 0.011165961 -0.085880704 0.029455153 -0.031731527 0.010336415
0.025543697 -0.006203684 0.022800386 -0.06547243 0.034183763 0.06304497 0.04694369 -0.007375408
-0.007914467 0.060823463 0.043124605 -0.010179256 -0.029602548 -0.10617754 -0.014763946 0.02645223
0.008470397 -0.026445262 -0.064903125 -0.048798103 0.07332679 0.063123845 0.016417928 0.03943254
00000000: 2cfa 7fba b478 8bbc b3c7 9e3d ec6d 053e
00000010: a010 c83d 07f3 3a3d d48b a0bd 26c6 9dbd
00000020: d58c 493d e7bf 2c3d 7f9b 5a3d 3be1 a13c
00000030: 0b99 09bd 9796 afbd 8ecd 94bd f410 1c3e
00000040: ec18 8fbc d33b 18bd 2197 9dbd 87af 71bd
00000050: c067 c53d 0140 3fbc 10ce 94bd 9c12 03be
00000060: f5bf 57bc af6d 6d3d 80e5 f4bc 46ed 6cbd
00000070: 3384 103d 151d 433d 0a49 d43c 7c48 46bd
00000080: 9450 1a3d b732 bbbc 41ec d63c 1bfc 00bd
00000090: 67c0 bb3c 1673 bdbb b3d7 8bbc f9cf 913c
000000a0: d97e b6bc 3e7e d43c faf0 82bd 99c2 373d
000000b0: 203f 88bd 0f69 593d e051 f8bc 8dce 2a3b
000000c0: 11dd 253d 09ff 4c3c b1e6 823b ce69 e93d
000000d0: a672 933d cdd9 95bd bbf5 c63b a5f7 b0bc
000000e0: 0e5a d0bd 6068 82bd 31d8 843d 5393 a4bd
000000f0: 89ee eebc 3ec5 92bb d0f4 1c3c 3a4b 28bb
00000100: f902 2c3d a7ad a93c 7811 b1bc 3a23 083d
00000110: fbed b2bc 26bd c63b 8098 943c 0b3b 7b3c
00000120: 1ab4 b83c 60af 853b b7ae 6fbc 976b 2dbb
00000130: b696 40bd 5e49 50bd a1c3 503c bf17 0b3e
00000140: 51e7 0d3d 55ec 6d3d 4a6b 02bd 2926 383d
00000150: bda6 db3d cc37 313d 5b73 85bd 2766 5cbd
00000160: 5df4 1cbd 878d adbb 0941 783d ab8f 8fbd
00000170: aeb1 bdbd 34f2 79bc 3460 1a3d 261c 3e3d
00000180: 6253 173d 6ef4 c0bd e999 a43c ebc9 a43c
00000190: 372a 87bd a4c9 6dbd 50f4 fabd 0112 fc3c
000001a0: cd87 5dbd 21b0 9cbd e047 b13c b01a cf3d
000001b0: 5f17 69bd 392f 023e 0416 d93c 4623 c33b
000001c0: c291 debc 7afd fb3c 0e91 fabc 76f1 863a
000001d0: abfd 2d3d baf0 aabb 3b4d ee3b c15a 08bd
000001e0: cfc1 0fbd a4c7 223d db5d 15bd d95e d93c
000001f0: b05a bb3c b841 39bd bcaa b23c e093 00bd
00000200: 6b89 6339 a3c6 87bc 66f7 c03b 43de 35bd
00000210: 8ec8 a2bb 843b 253d d2c8 8f3c f3ac d03c
00000220: bc5f 2dbc 3159 e43c 3669 b63d d725 73ba
00000230: e29c 073d 2b75 5aba 14e4 8ebd 60c7 653d
00000240: ae08 9a3c a826 e83c 62a0 89bd ba2f f9bc
00000250: 0bda 25bd 4272 c03c 1788 4d3d dbf4 8a3c
00000260: f770 d43c c213 be3c e529 fdbb 47e4 b4bc
00000270: da14 1a3e 3e4f 153d 1bac 15ba 0452 a0bc
00000280: 364a 38bc 9ea7 e83d 9d82 a2bd 284b 653c
00000290: 5d28 73bd 83e4 1f3d ddaf adbd 1862 47bc
000002a0: e1b9 2abc 30fe 99bc 3694 4fbd 714b 45bc
000002b0: 1412 903c 4439 883d 135e 12bc a802 b1bc
000002c0: 59de 853d b12a 6fbc 83f7 dd3b e3b4 c43c
000002d0: 1830 88bd 74ed d9bc bd89 863c b13e 223d
000002e0: b55f 403d a257 c23d ba67 adbd 3edd 8c3b
000002f0: 4cf4 cabc 840d 453d de22 c2bc 306c cebb
00000300: b40c a6bb 60d0 86bc 7745 423d 974e a43d
00000310: a7ed 8dbc 0883 8fbd f9f7 11bc 3762 293e
00000320: be92 223d 7fec 2dbc ce5d 3bbc 8e06 a13a
00000330: 5d22 b8bc bd3e eabd da83 b6bc ac08 30bd
00000340: 6afe 36bd 9b52 ea3a e6cf 463d 494f 4f3d
00000350: e9c9 abbd 7ba4 e4bb 9ba9 c1bb e5f4 733d
00000360: 9e97 0fbb 53cb 193c d1a0 0cbd b1c4 d0bc
00000370: 9913 7e3d 3d5d c1bd 3a3b d63d 76a2 21bc
00000380: 932c 4c3d d9ca 5bbd 9f89 393d 6ff1 363c
00000390: 39e2 afbd ef4b f13c ebf8 01bd 115a 293c
000003a0: 0441 d13c 4648 cbbb e0c7 ba3c 6916 86bd
000003b0: 4604 0c3d b91d 813d 0748 403d 68ad f1bb
000003c0: aeab 01bc 0622 793d 6da3 303d e5c6 26bc
000003d0: 0b81 f2bc 9c73 d9bd 7ae4 71bc 59b2 d83c
000003e0: 6cc7 0a3c bca3 d8bc eeeb 84bd 85e0 47bd
000003f0: 5b2c 963d 1347 813d e47e 863c 0484 213d

conv3.bias f4 [3]
-0.11387218 -0.10052097 -0.09191155
00000000: d135 e9bd f0dd cdbd 1f3c bcbd
