saved_model_2/upsample_at_location_1.pt (torch, 7314 bytes, 16 tensors)

conv1.weight f4 [3, 3, 1, 3, 3]
000000 3c 91 d4 3d c2 fd 20 3e bb 04 33 be d8 d2 b2 be
       0.10379264 0.15721801 -0.17482273 -0.34926486
000010 c6 97 be 3e 1a 82 4d bd d3 43 a8 3e 9e 29 d6 3e
       0.3722517 -0.050172903 0.32864246 0.41828626
000020 62 6a ea 3e 5c 2b 48 be ce d5 51 bd db d9 30 3e
       0.4578429 -0.1954779 -0.05122929 0.17270605
000030 15 6d 8f 3e 2a b1 ca 3d 9e aa 96 be 5e b8 e4 3e
       0.2801291 0.098970726 -0.29427046 0.4467191
000040 dc cb 57 be 8a 6e 26 3e ac 41 c4 3d bc 0d 0e bf
       -0.2107386 0.16253105 0.095828384 -0.55489707
000050 8e 3d 3a be dd 9e fa bd ac b0 14 3e 19 87 91 3d
       -0.18187544 -0.12237332 0.1452052 0.07105846
000060 87 dc ef 3c d9 5c 71 3e 75 32 60 bd 95 59 a5 be
       0.02927996 0.23570575 -0.05473562 -0.32294908
000070 29 5c 82 bd 79 f3 80 3e 55 c3 1d be b1 ee 24 3e
       -0.063652344 0.25185755 -0.15406545 0.16106679
000080 29 1b 9c 3e 40 11 2a 3e f1 f4 1a 3f 35 53 9b 3c
       0.30489472 0.16608143 0.6053 0.018960575
000090 ab ac 30 be e7 1c c9 3e 41 24 ca bd 4a 71 0f 3e
       -0.17253368 0.39279863 -0.09870196 0.1400806
0000a0 4b 80 92 3e c0 e6 65 3d 99 ff e1 be 74 6b 51 3e
       0.28613505 0.056128263 -0.44140318 0.20451146
0000b0 7e 7e 30 3f 22 21 41 3e d5 24 83 be d2 ab 57 3c
       0.6894301 0.18860295 -0.25614038 0.013163524
0000c0 12 a1 2a bf f6 bc 2a 3f c6 b4 f6 3e c0 4a 4a be
       -0.66652024 0.6669458 0.48184794 -0.19755077
0000d0 e2 0b 0f 3f de 6e d5 3e a5 35 66 be 1a 5c 0d 3f
       0.55877507 0.41686147 -0.22481401 0.5521866
0000e0 4c 97 c4 3e 3b ba 9a be f5 ba 35 3e e9 6b a3 be
       0.3839668 -0.30220208 0.177471 -0.31918266
0000f0 e8 c0 6e 3e 2b e0 01 3e fb ca b1 3e 07 89 11 3e
       0.23315775 0.1268317 0.34725174 0.14212428
000100 b7 9b 6d 3e 08 5d 07 3e c1 b0 25 be 53 52 06 bf
       0.23203932 0.13219082 -0.16180708 -0.52469367
000110 ee c5 e9 3d fc c4 dd 3e cd 15 b8 be 12 89 c6 3e
       0.11414705 0.4331435 -0.35954133 0.3877645
000120 57 e9 9d bd 4d 1d c8 bd 57 59 6f 3d cd 6d 34 3e
       -0.07710522 -0.09771214 0.05843481 0.1762001
000130 d4 29 ed be ad 28 64 3e 37 e6 1c 3e 37 c8 68 be
       -0.46320975 0.22281142 0.15322195 -0.22732626
000140 f8 07 7f bb
       -0.0038914662

conv1.bias f4 [3]
000000 7a b0 13 3f 5f 89 b4 3e 16 9b af 3f
       0.57691157 0.35261056 1.3719203

conv2.weight f4 [3, 3, 3, 1, 1]
000000 74 43 28 be a6 95 84 3d 44 0d e0 be 72 01 40 bd
       -0.16431981 0.06473856 -0.4376012 -0.04687638
000010 5f 9c e8 3e 6f 49 9c 3e 93 f2 18 3f c6 40 e9 bd
       0.45431802 0.30524775 0.5974514 -0.11389308
000020 1e 53 b9 3e 13 eb c3 bc 20 0e d4 be 72 fe 15 bf
       0.36196226 -0.023915803 -0.41417027 -0.5859138
000030 30 6b 63 bc 71 d6 a4 bc e7 92 3b 3f ba a1 63 3f
       -0.013880536 -0.020121785 0.7327103 0.8891865
000040 b6 8a 09 3e bf ef d1 be 3f ab 6f 3e ca 29 71 bb
       0.1343182 -0.41003224 0.23405169 -0.003679859
000050 9f 75 91 be 8e 15 48 3e 45 8a 9f be dd e5 cb 3d
       -0.2841005 0.19539472 -0.3116018 0.09955952
000060 08 82 3d 3e 3e f1 ff 3e 07 24 db 3f
       0.18506634 0.4998874 1.712037

conv2.bias f4 [3]
000000 d6 08 b8 3e ff 26 cc 3e 8a 9e 16 3f
       0.3594424 0.39873502 0.5883566

conv3.weight f4 [3, 3, 1, 3, 3]
000000 cf a2 55 3d d0 22 86 be 43 07 e3 3e 2f b6 f7 3e
       0.05215722 -0.26198435 0.44341478 0.48381183
000010 8d d6 8c 3d e1 58 0b bd 99 43 b4 be 57 60 19 bf
       0.0687686 -0.03402031 -0.35207823 -0.5991263
000020 a8 6b 19 3f f1 75 73 3c 63 73 78 be 9e 2d 87 be
       0.59929895 0.014859662 -0.24262767 -0.2640199
000030 f9 03 3c 3e 84 f9 ff bd 21 e0 d5 be b6 38 a3 3d
       0.1836089 -0.12498763 -0.4177256 0.07969801
000040 b5 63 7a be 34 1e 25 3f fc a6 3d 3c a7 11 d6 3e
       -0.24452098 0.6449921 0.011575457 0.41810343
000050 4e 7c b0 3c 40 9a 2d bf 78 19 4d be fa d5 2c 3e
       0.021543648 -0.6781349 -0.20029247 0.168785
000060 fe 4b ec 3e 9e a7 96 3e 66 86 62 be e8 c4 a2 bd
       0.46151727 0.29424757 -0.22121581 -0.07947713
000070 34 fb 9d be 2d 36 c2 3c 23 bb 01 3f b5 63 f1 3e
       -0.30855715 0.023707474 0.5067617 0.47146383
000080 f1 04 47 3f 7a bd c7 3e bd 62 1e bd ea 94 dd 3e
       0.77741915 0.39011747 -0.038668383 0.43277675
000090 4d 31 45 3d b1 6e 81 bb 47 02 8b be 2c a2 7c be
       0.04814272 -0.003949963 -0.27150175 -0.24671239
0000a0 e2 cc c2 be d2 04 86 be a6 04 0c 3f e0 08 df 3d
       -0.38046938 -0.26175553 0.5469459 0.10890365
0000b0 c8 72 a3 bd 95 06 b1 be f3 1d 31 3e d5 92 86 be
       -0.07980877 -0.34575334 0.17296581 -0.262839
0000c0 08 0e 65 3c 5e e7 34 3e 99 9d 46 be df e0 6c bd
       0.013980396 0.17666385 -0.19396056 -0.05783164
0000d0 d5 cf 3f be b6 a8 b8 3e ae 2f 89 3e 59 e9 c9 3d
       -0.18731625 0.36066216 0.2679419 0.09858961
0000e0 1f bd d3 3d b2 c4 23 be ad 72 3b 3e d0 74 9d be
       0.10338806 -0.15993002 0.18305464 -0.30753183
0000f0 5e 92 be 3e 92 84 94 3c 2c 2d 86 be d3 27 b4 be
       0.37221044 0.01812962 -0.26206338 -0.35186633
000100 ba 44 05 3c d9 f5 6c 3e b6 41 ab 3e c3 7e dc be
       0.0081340615 0.23140658 0.3344857 -0.43065462
000110 7f 09 2f bd a0 de c7 3e 13 7d 09 be cf 29 a6 3e
       -0.042733666 0.39037037 -0.13426618 0.32453772
000120 f1 44 b4 3e fa 25 b8 3e 84 62 cc bd 94 4c 8b 3e
       0.35208848 0.35966474 -0.09979728 0.27206862
000130 8c e5 57 be 76 64 03 bf 5c 66 19 3c 14 57 13 be
       -0.21083659 -0.51325166 0.009362783 -0.14388686
000140 c6 44 b7 be
       -0.35794657

conv3.bias f4 [3]
000000 f9 fe 7b 3d e0 6b b4 3e 51 a9 2c 3f
       0.061522458 0.35238552 0.67445856

conv4.weight f4 [3, 3, 3, 1, 1]
000000 e6 1c f2 3d 76 33 b7 bd 9d e7 a5 3e ee f5 57 3d
       0.11821918 -0.08945362 0.3240327 0.05272477
000010 27 9b f9 3e a2 31 c7 bd 42 8f c9 bd fa 7a 82 bd
       0.48751184 -0.097262636 -0.098417774 -0.06371112
000020 3a 2e 0c 3e be a1 4e be 78 d9 ee be e3 f1 de 3e
       0.13689509 -0.20178887 -0.4665029 0.4354392
000030 0b 33 5f 3d 75 36 a5 3d b6 66 66 bd 48 96 c3 3e
       0.054492038 0.080670275 -0.056250297 0.38200593
000040 d3 12 8c bd 97 3b 0c 3e bc d9 30 bf 47 fe a1 3d
       -0.06839528 0.13694607 -0.69082236 0.07909828
000050 5c 32 71 be 2b 7d 1a 3e 20 d1 f2 3e c9 df d4 bb
       -0.23554367 0.1508681 0.47425175 -0.006496404
000060 ea 66 90 bc 71 34 15 3e 31 ca 29 be
       -0.017627198 0.14570786 -0.16581036

conv4.bias f4 [3]
000000 00 f6 23 3e 96 42 55 40 05 b9 02 3d
       0.1601181 3.332189 0.03191473

conv5.weight f4 [3, 3, 1, 3, 3]
000000 9e 3f 86 3e cc 32 8a 3d 1f a3 5e 3e b1 bf 48 be
       0.2622041 0.0674797 0.21741913 -0.19604374
000010 9b dd ce bc 1b 5d 01 be 85 02 e0 3c 40 01 b7 3c
       -0.025252154 -0.12633173 0.027344951 0.022339463
000020 7c cf 84 be db 13 29 be 1f bf e7 be 38 16 78 3f
       -0.25939548 -0.1651148 -0.45263 0.96908903
000030 f8 df 6a 3b e6 ea ac bd 62 6c e1 3e 16 3a 2c be
       0.0035839062 -0.08443241 0.44028002 -0.16819033
000040 9a 5b 16 bc 3c c1 79 be 4a ec 6a 3f a6 2b e6 3c
       -0.009177113 -0.2439012 0.917668 0.028096985
000050 2f c8 64 bd cb c4 3d be 24 11 48 3d 84 88 48 3d
       -0.055854972 -0.18532102 0.04884447 0.048958316
000060 cc 44 a0 bd 39 97 25 be 7b 72 62 3e 50 d2 d5 bd
       -0.07825622 -0.16170968 0.22113983 -0.104405046
000070 45 2e d5 3c ff 82 40 be e5 53 fa be d5 d2 0d 3e
       0.02602304 -0.18799971 -0.4889213 0.13849957
000080 d3 b0 99 3e 9b d5 35 bd 96 c6 02 bd f1 a3 fb bd
       0.3001772 -0.044393163 -0.031927668 -0.12287129
000090 e4 ed 1a 3f 48 27 ee 3e f2 80 42 3d f5 43 a8 bd
       0.6051924 0.46514344 0.047486253 -0.08216087
0000a0 2e 79 0c 3d 9d 72 96 bd bb eb ec 3e 9e c2 b4 be
       0.034295253 -0.073460795 0.46273598 -0.3530473
0000b0 af 9e 45 3e eb 1f 8d 3e ff 10 e2 3e dd 82 82 bd
       0.19298814 0.27563414 0.44153592 -0.063726164
0000c0 5b 45 0f 3e 01 ea 06 be 42 8d 8c 3e 02 73 84 bd
       0.13991301 -0.13175203 0.2745152 -0.064672485
0000d0 21 eb b5 bd 7d 86 9d 3e 58 1f 89 3e 49 38 89 3e
       -0.08882738 0.3076667 0.26781726 0.26800755
0000e0 69 9d 08 bf 3a 22 81 3e d9 16 b6 3e 82 e3 a6 bd
       -0.5336519 0.25221425 0.35564306 -0.081488624
0000f0 54 0f 47 3d 2a ef 0e be 88 61 c9 bd 6b 56 20 be
       0.048598602 -0.13958421 -0.09833056 -0.15657966
000100 07 a8 88 3e e2 bb 43 3d 50 f6 f8 bc 1b bb 2c bf
       0.26690695 0.0477866 -0.030390888 -0.67473
000110 f4 bb b1 3e 0e 2e 8f bd 65 22 a3 be 04 05 d8 3e
       0.3471371 -0.06991206 -0.31862178 0.42191327
000120 2f 20 a8 3e 55 75 1e 3e b7 07 ef 3c 05 b4 3b 3e
       0.32837054 0.15474446 0.029178483 0.18330391
000130 3e 8e a6 be 02 f1 d0 3e 6d 57 c7 be e7 60 de be
       -0.32530397 0.40808874 -0.38933888 -0.43433306
000140 b1 44 4c 3d
       0.049870197

conv5.bias f4 [3]
000000 4d 6c d8 3e 15 4a 0e 3d c3 a1 92 3e
       0.42270127 0.03473862 0.2863904

conv6.weight f4 [3, 3, 3, 1, 1]
000000 0e 47 15 3e 22 92 3b be 4d 1a 78 3e 15 2f 9b 3c
       0.14577886 -0.18317464 0.24228783 0.018943349
000010 98 6f 0c 3f 40 2a 84 bd af e8 a6 bd ff 96 b5 be
       0.5485778 -0.06453371 -0.081498496 -0.35466763
000020 d4 08 87 bd b8 cc a7 be 89 e5 d6 3e 7c 07 36 bd
       -0.06593481 -0.32773376 0.41971996 -0.04444073
000030 ba 14 0f 3e c1 8d 5e bd db 0a 45 bd 97 8d ad 3e
       0.1397275 -0.054334406 -0.048106056 0.33897087
000040 e1 9b 98 3e de 99 c4 3d 50 8a b2 3d 46 60 c7 bd
       0.29806426 0.0959966 0.08717787 -0.097351596
000050 8d 06 a5 be 22 b2 cf bd 53 ef 5a be 36 d2 8a 3e
       -0.3223156 -0.10141398 -0.21380357 0.27113503
000060 aa 89 3f be 70 05 d8 3e 0f 27 50 3e
       -0.18704858 0.42191648 0.203274

conv6.bias f4 [3]
000000 d9 8d de 3f eb b7 17 3e 2c 5b 7e be
       1.7387038 0.14816253 -0.24839467

conv7.weight f4 [3, 3, 1, 3, 3]
000000 92 63 0b 3f 8d e0 51 be 8b fe 21 3e ab 0f 4c 3e
       0.5444881 -0.20495816 0.15819757 0.19927852
000010 46 4e 24 bf 93 df 1b bf 04 d7 b4 3e 3d 1b 03 3f
       -0.64181936 -0.6088802 0.35320294 0.5121344
000020 bb b2 3b 3f b3 db c7 be de 08 84 bd 6a 42 9d 3e
       0.73319596 -0.39034805 -0.06447004 0.30714732
000030 91 35 22 3e 29 b5 09 3f cf 7d 04 3e 81 54 fa 3e
       0.15840746 0.53792053 0.12938617 0.48892596
000040 81 ec c2 3e a9 84 5a 3f 47 99 af 3e 34 74 84 3e
       0.38071063 0.85358673 0.3429663 0.25869906
000050 b7 8a 10 be 5d 06 55 bd a0 3c c6 bd ad 80 07 3e
       -0.14115416 -0.05200802 -0.09679532 0.1323268
000060 3a 8a f0 3d bf c1 a2 3e 81 cc 93 3e 56 ac 32 be
       0.117451146 0.31788442 0.28866962 -0.17448553
000070 e5 f1 e7 3a 65 83 66 3e fa 80 b4 3d 69 4b 56 3d
       0.0017695992 0.2251106 0.08813663 0.05231801
000080 04 85 6f be ec da 38 be 1b 5d 2f 3e 10 69 00 3d
       -0.23390585 -0.18052262 0.1712536 0.031350195
000090 40 aa 7c be 53 73 4e 3e e5 9c 78 3e 9a 23 82 3e
       -0.2467432 0.2016118 0.242786 0.25417787
0000a0 b4 1b 8e be 86 86 ab be 17 9b 59 bd 0f 91 c8 bc
       -0.2775551 -0.3350107 -0.05312642 -0.024483232
0000b0 b0 6a 8f 3e 32 eb 39 3e 89 50 f2 3c 7f e3 38 3e
       0.28011084 0.18156126 0.029579418 0.18055533
0000c0 f1 ec 3a 3d c6 68 02 3f 86 d7 91 3c d2 47 8b 3e
       0.04563612 0.5094112 0.017802965 0.27203232
0000d0 b4 fc 99 be 1b eb dd 3e 2a 9c bf 3e 79 7b 54 3e
       -0.3007561 0.43343434 0.3742383 0.20750226
0000e0 02 54 25 3f fe 10 8e 3d 69 8b f9 be f2 40 81 bd
       0.6458131 0.06936835 -0.48739174 -0.063112155
0000f0 a5 a6 a3 bc 12 15 cf bd 8f 86 19 3f 63 c9 58 be
       -0.019976923 -0.10111441 0.59970945 -0.21170573
000100 76 ea c0 3e 47 36 70 3e c7 df 11 bd f6 13 28 be
       0.3767888 0.23458205 -0.0356138 -0.16413864
000110 bb ed 2b 3e 44 65 cc be de d1 8c be 61 fa a3 3e
       0.16789906 -0.3992101 -0.27503866 0.3202696
000120 ea 17 c4 3d 66 ff 40 bd f4 00 00 bf a4 1a bb 3e
       0.09574874 -0.047118567 -0.50001454 0.36543763
000130 05 50 e3 3e 3b cf 3f be 02 24 e9 3e ed c2 69 3e
       0.44396988 -0.18731396 0.45535284 0.22828265
000140 5d 15 e0 3c
       0.027353937

conv7.bias f4 [3]
000000 c2 8e 95 3a 7f 87 40 40 ef dc bc be
       0.0011410343 3.00827 -0.3688731

conv8.weight f4 [3, 3, 3, 1, 1]
000000 14 1f 1d 3e d4 da 1b 3f 47 03 3b 3d de de 99 3d
       0.15343887 0.6088078 0.045657422 0.07513212
000010 d5 54 85 3f ac 97 4f 3f 73 ea 44 be 3c 04 6b bf
       1.0416514 0.8109081 -0.1923006 -0.91803336
000020 b1 c9 8d bc 86 88 dc 3d 3e 85 24 3f ec fc 16 3c
       -0.017308088 0.10768227 0.6426581 0.009215575
000030 66 9e b6 be b2 50 e5 3d e6 fa cf be 85 86 14 bd
       -0.35667723 0.11197032 -0.40621108 -0.0362611
000040 d5 ce 31 bf 3b 6d ab 3d d0 d1 38 3d 0a 30 1d 3f
       -0.69456226 0.083704434 0.045121968 0.61401427
000050 fd 55 27 bd 4c d3 e2 be e0 55 58 bf a2 2c 7b bf
       -0.04085349 -0.44301832 -0.84506035 -0.9811498
000060 d4 9d 33 3e ad f6 fc be 5c 78 91 3e
       0.17540675 -0.4940695 0.2841214

conv8.bias f4 [3]
000000 cf d4 9b c0 95 8b 30 be 7b 40 8f 40
       -4.8697276 -0.17240746 4.476621
