saved_model_2/upsample_at_location_7.pt (torch, 7314 bytes, 16 tensors)

conv1.weight f4 [3, 3, 1, 3, 3]
0.16838166 0.4320422 0.09269088 -0.1048454 -0.40674466 -0.413429 0.3082826 -0.2282862
0.38998884 0.106740996 0.27876458 -0.05651311 -0.17490694 -0.2267228 -0.55752534 0.23778623
0.4219817 0.27240324 0.1229697 0.42472538 0.018842356 -0.23585626 -0.2492649 -0.37532294
0.15808125 0.0121378405 0.41512242 0.25109968 -0.056660227 0.08724563 -0.05770586 -0.00016883737
0.1713463 0.28971165 0.080875866 0.2951511 0.2450255 -0.2813666 -0.09303525 -0.0027138095
0.507027 0.04248312 0.0022275439 0.4690369 0.25736856 0.0088848565 0.47399995 -0.1437464
-0.40338948 0.2215154 0.001361273 0.102692075 0.562478 0.29387048 -0.29272187 0.33863977
-0.22263846 -0.34560388 0.2367152 -0.7351183 0.16812544 0.1160815 0.6115075 0.5002744
0.3907753 0.15877505 -0.40048274 -0.55147666 -0.30113852 -0.18106212 -0.22630593 -0.08114937
0.1135356 -0.09758407 -0.17404838 0.066410065 -0.1604371 -0.6407577 0.07206421 -0.03160764
-0.07858293
00000000: 3e6c 2c3e a334 dd3e b7d4 bd3d 2fb9 d6bd
00000010: d640 d0be f7ac d3be 38d7 9d3e dcc3 69be
00000020: 9eac c73e 069b da3d 3bba 8e3e 4a7a 67bd
00000030: ce1a 33be 062a 68be fbb9 0ebf 3c7e 733e
00000040: fc0d d83e 7078 8b3e 8ad7 fb3d 9b75 d93e
00000050: 495b 9a3c 4e84 71be 4c3f 7fbe 542a c0be
00000060: 0de0 213e cbdd 463c ed8a d43e 2390 803e
00000070: 8e14 68bd d6ad b23d fb5c 6cbd f009 31b9
00000080: 6875 2f3e 1655 943e 3fa2 a53d 0c1e 973e
00000090: f7e7 7a3e 480f 90be 4489 bebd 2bda 31bb
000000a0: 85cc 013f c802 2e3d fcfb 113b 9b25 f03e
000000b0: d0c5 833e ca91 113c 1fb0 f23e 4232 13be
000000c0: 1189 cebe efd4 623e be6c b23a 3950 d23d
000000d0: 8ffe 0f3f 3176 963e a4df 95be 3162 ad3e
000000e0: 56fb 63be fef2 b0be 7865 723e b730 3cbf
000000f0: 1329 2c3e 23bc ed3d c18b 1c3f fc11 003f
00000100: b313 c83e ed95 223e 130c cdbe 932d 0dbf
00000110: d42e 9abe 5968 39be bebc 67be a431 a6bd
00000120: 5a85 e83d 28da c7bd bd39 32be 0002 883d
00000130: a049 24be b208 24bf 6796 933d 0377 01bd
00000140: 16f0 a0bd

conv1.bias f4 [3]
0.1407381 0.44965804 0.23484294
00000000: a61d 103e 9439 e63e ab7a 703e

conv2.weight f4 [3, 3, 3, 1, 1]
0.5561002 0.6689481 0.24155821 0.14410527 -0.285715 0.60808206 -0.13715433 -0.31723306
0.19505902 -0.6642987 0.23580457 -0.8372179 0.3788246 1.1096201 1.3091724 0.8535066
-0.106246635 0.86756194 0.019975286 0.18249996 1.1694264 -0.11360811 -0.03834454 0.7994476
0.020357627 0.061540455 0.27307034
00000000: 955c 0e3f 2f40 2b3f 095b 773e 5590 133e
00000010: 3d49 92be 44ab 1b3f 2f72 0cbe 5f6c a2be
00000020: 8dbd 473e 7b0f 2abf c176 713e ea53 56bf
00000030: 4cf5 c13e 0808 8e3f f692 a73f 697f 5a3f
00000040: d697 d9bd 8a18 5e3f 36a3 a33c 45e1 3a3e
00000050: c4af 953f 5eab e8bd 2a0f 1dbd 99a8 4c3f
00000060: 0ac5 a63c d811 7c3d e0cf 8b3e

conv2.bias f4 [3]
1.6088004 0.42259827 -0.3965772
00000000: 2ced cd3f cd5e d83e 2b0c cbbe

conv3.weight f4 [3, 3, 1, 3, 3]
-0.166949 -0.08204845 -0.122194484 0.28610367 0.08784399 0.048844684 -0.090615146 0.35857794
0.18080896 0.09483609 0.2616311 0.35865965 0.068101816 -0.6297134 -0.39560208 -0.11216882
-0.1975985 0.24827921 -0.10101159 -0.027941935 -0.029746102 0.08319639 -0.17486697 -0.02641575
0.10738443 0.37686014 -0.22112274 0.3578498 0.5658182 0.4932394 0.59783804 0.32677358
0.5466151 0.49001437 0.43547755 0.53165877 -0.22368254 0.25968388 -0.06297352 0.1594749
0.16344148 0.2279094 -0.35852295 -0.10665483 -0.18933316 -0.44581148 -0.099932835 -0.2999504
0.026807839 -0.37834805 -0.27385676 0.007360992 -0.36418244 0.044578273 -0.16729978 0.037946507
-0.25136635 0.36384484 0.3446374 0.0032367448 -0.16017959 -0.6425634 0.07727279 0.16294214
0.2689464 0.1314968 0.10081663 0.4529831 -0.12755364 0.18747883 -0.05573607 -0.030108001
-0.27684915 -0.41049024 -0.16252728 0.050899938 0.31249377 0.3972363 -0.22684908 -0.21371326
-0.12099737
00000000: aef4 2abe 0509 a8bd 1a41 fabd 2e7c 923e
00000010: 8de7 b33d 5d11 483d 6f94 b9bd 8797 b73e
00000020: fc25 393e 6d39 c23d 83f4 853e 3da2 b73e
00000030: f778 8b3d e634 21bf 5b8c cabe c4b8 e5bd
00000040: 4357 4abe e83c 7e3e 2adf cebd 7ce6 e4bc
00000050: 19ae f3bc de62 aa3d 5410 33be d865 d8bc
00000060: 5eec db3d d0f3 c03e 006e 62be 1738 b73e
00000070: 76d9 103f e089 fc3e ea0b 193f de4e a73e
00000080: f8ee 0b3f 2ae3 fa3e eaf6 de3e ca1a 083f
00000090: 090d 65be 49f5 843e 43f8 80bd 634d 233e
000000a0: 345d 273e 1561 693e 5290 b7be d96d dabd
000000b0: 8de0 41be 6741 e4be 96a9 ccbd 1993 99be
000000c0: 1d9c db3c d6b6 c1be f436 8cbe 7a34 f13b
000000d0: 1f76 babe b597 363d a250 2bbe cc6d 1b3d
000000e0: 17b3 80be df49 ba3e 5074 b03e 911f 543b
000000f0: 1e06 24be 097f 24bf 3241 9e3d 4eda 263e
00000100: 58b3 893e 19a7 063e f378 ce3d 67ed e73e
00000110: 6c9d 02be 73fa 3f3e 814b 64bd 0ea5 f6bc
00000120: 2cbf 8dbe c72b d2be 8d6d 26be 747c 503d
00000130: 2fff 9f3e 8e62 cb3e 204b 68be a6d7 5abe
00000140: 78cd f7bd

conv3.bias f4 [3]
2.5047789 1.8744322 0.52293783
00000000: 4c4e 2040 65ed ef3f 41df 053f

conv4.weight f4 [3, 3, 3, 1, 1]
0.6353858 1.1268578 0.4340654 0.23363033 0.7413716 0.4537732 -0.4200425 0.58035904
0.15237024 0.7777876 0.58953524 0.62737274 -0.000100493555 -0.019564059 -0.51413673 -0.3898856
0.3574434 -0.7120787 -0.10754856 -0.44559053 0.20037955 -0.017467733 -0.53398514 0.088621266
0.6987321 0.82234806 0.13433085
00000000: a5a8 223f e03c 903f d23d de3e ca3c 6f3e
00000010: 87ca 3d3f f654 e83e d00f d7be 6992 143f
00000020: f206 1c3e 171d 473f c8eb 163f 809b 203f
00000030: 11c0 d2b8 ce44 a0bc 779e 03bf 169f c7be
00000040: d202 b73e ca4a 36bf 6b42 dcbd 7124 e4be
00000050: 4c30 4d3e 7e18 8fbc 40b3 08bf 117f b53d
00000060: 1be0 323f 6785 523f 078e 093e

conv4.bias f4 [3]
-0.5393402 3.6967654 0.38491315
00000000: 3312 0abf ce97 6c40 5613 c53e

conv5.weight f4 [3, 3, 1, 3, 3]
0.061252546 0.057130635 0.04588337 -0.11960426 -0.23570485 -0.10541047 0.24225402 -0.051558733
0.24584317 -1.4429725 -2.085031 -1.4888335 -0.0057137334 0.17610842 -0.10596768 0.44770986
0.2432475 0.15380703 -0.39030182 0.49978456 0.4004461 -0.038838997 -0.11832173 0.45232886
0.0559004 -0.11048652 -0.29860353 -0.15479591 -0.2230764 0.3234652 -0.01843515 -0.12474572
-0.07813756 0.24493818 0.2783241 -0.3063957 -0.05471677 -0.07926114 0.13068117 0.09180615
-0.24380578 -0.5065901 0.6181427 0.34209046 1.0823404 0.5230432 -0.45797628 -0.7892764
0.05633708 -0.3773401 -0.14785527 -0.070229016 0.09943799 -0.4192607 -0.25001946 0.28302023
-0.01776901 0.22146314 0.11128178 -0.07502882 -0.20641495 -0.29058564 0.077776186 0.6264668
0.47606426 0.18176119 0.42939168 0.2144176 0.19341066 -0.37010828 0.34620205 0.086935535
0.17942451 -0.59675246 0.27379182 0.12951782 -0.52697575 0.5319861 0.37852982 -0.3274687
-0.020850891
00000000: f3e3 7a3d d001 6a3d 33f0 3b3d 14f3 f4bd
00000010: 9d5c 71be 72e1 d7bd 7011 783e 402f 53bd
00000020: 50be 7b3e 53b3 b8bf 2671 05c0 1992 bebf
00000030: 453a bbbb c455 343e 9505 d9bd 3a3a e53e
00000040: df15 793e 977f 1d3e a4d5 c7be c3e3 ff3e
00000050: 4507 cd3e a415 1fbd aa52 f2bd a697 e73e
00000060: d1f7 643d c246 e2bd 90e2 98be d282 1ebe
00000070: 246e 64be 3b9d a53e 5005 97bc af7a ffbd
00000080: 9606 a0bd 13d1 7a3e 7f80 8e3e e6df 9cbe
00000090: b11e 60bd aa53 a2bd 49d1 053e dd04 bc3d
000000a0: 39a8 79be e4af 01bf 9a3e 1e3f 7b26 af3e
000000b0: 218a 8a3f 29e6 053f de7b eabe 050e 4abf
000000c0: b6c1 663d b932 c1be 5f67 17be 3bd4 8fbd
000000d0: 25a6 cb3d 57a9 d6be 8d02 80be 07e8 903e
000000e0: 5190 91bc 3cc7 623e b4e7 e33d b6a8 99bd
000000f0: 715e 53be a4c7 94be 1f49 9f3d 2160 203f
00000100: b2be f33e 9b1f 3a3e 3ad9 db3e 4a90 5b3e
00000110: 720d 463e d57e bdbe 6541 b13e 420b b23d
00000120: 0fbb 373e c5c4 18bf 712e 8c3e 52a0 043e
00000130: e2e7 06bf 3e30 083f a9ce c13e faa9 a7be
00000140: 7dcf aabc

conv5.bias f4 [3]
0.44464254 0.7683532 0.9560551
00000000: 30a8 e33e ccb2 443f 07c0 743f

conv6.weight f4 [3, 3, 3, 1, 1]
0.09731827 -0.47584957 0.13477129 0.59942544 -0.043144915 -0.09388812 0.32521343 0.23181267
0.44982815 -0.14964907 0.60574687 -0.17249699 -0.61982644 -1.4506826 -0.789439 0.06911517
-0.50640744 0.2949983 -1.8938088 -2.429138 -1.9152871 -0.4584979 0.75799525 -0.09384322
0.059084162 0.2609013 0.01210196
00000000: cd4e c73d 8ea2 f3be 7c01 0a3e f273 193f
00000010: b9b8 30bd 6a48 c0bd 6082 a63e 4d60 6d3e
00000020: e04f e63e 9b3d 19be 3a12 1b3f 0da3 30be
00000030: f2ac 1ebf f8af b9bf ad18 4abf 418c 8d3d
00000040: eba3 01bf 040a 973e 5468 f2bf ff76 1bc0
00000050: 2128 f5bf 3dc0 eabe fa0b 423f e030 c0bd
00000060: 3c02 723d db94 853e 4d47 463c

conv6.bias f4 [3]
5.1823835 0.3501955 2.4908614
00000000: 16d6 a540 d34c b33e 466a 1f40

conv7.weight f4 [3, 3, 1, 3, 3]
-0.28455815 -0.038101636 0.035811406 -0.18017964 0.5057693 -0.0718522 0.56048733 -1.2270985
-0.7806836 -0.08714605 0.11039559 -0.08212029 0.22337668 -0.070772395 -0.37601367 0.37846738
0.82491076 -0.110527605 -2.3571756 -2.2424734 -0.9323556 0.90282613 1.3488867 -0.5217124
-0.23047233 -1.5573272 -0.24618436 0.07242157 -0.04379883 -0.29025933 0.29518348 -0.33790985
0.19172809 1.0641606 0.44420013 0.12841858 0.14532323 -0.08244227 -0.22271991 -0.07827402
0.66724837 -0.33734956 -0.16230386 -0.31153506 0.45061126 3.086863 3.0190299 1.9489181
0.7329851 -0.006065775 1.6862688 -1.4850829 0.12224804 0.07254706 -0.27052504 0.23987131
0.053770907 -0.16790703 0.04210133 -0.117227554 -0.07386929 0.32319304 -0.106389664 -0.21696942
-0.09050181 -0.17025065 0.61772466 -0.07706431 0.09161546 0.21191546 0.8615319 -0.4656087
-2.3502789 -2.5465112 -0.3435265 0.008607663 0.64373666 0.028104847 0.3838961 -0.45006296
0.30110916
00000000: 9bb1 91be 7610 1cbd fbae 123d 0381 38be
00000010: 197a 013f 3f27 93bd 197c 0f3f 9011 9dbf
00000020: e1da 47bf a179 b2bd 1517 e23d af2e a8bd
00000030: dbbc 643e 1ef1 90bd dd84 c0be 7ac6 c13e
00000040: 5a2d 533f 4c5c e2bd f7db 16c0 af84 0fc0
00000050: dbae 6ebf 9d1f 673f 52a8 ac3f f28e 05bf
00000060: f000 6cbe 7f56 c7bf c117 7cbe c351 943d
00000070: 6766 33bd df9c 94be 4a22 973e 8502 adbe
00000080: 5e54 443e 6a36 883f 336e e33e 2980 033e
00000090: 9dcf 143e 7ed7 a8bd b010 64be 214e a0bd
000000a0: cad0 2a3f 15b9 acbe fc32 26be 8681 9fbe
000000b0: 85b6 e63e 2a8f 4540 c937 4140 2676 f93f
000000c0: e9a4 3b3f 69c3 c6bb a8d7 d73f 3217 bebf
000000d0: 2e5d fa3d 8e93 943d 4282 8abe d3a0 753e
000000e0: e23e 5c3d d2ef 2bbe 7272 2c3d 0015 f0bd
000000f0: c848 97bd 8f79 a53e d3e2 d9bd 3b2d 5ebe
00000100: 0359 b9bd 3056 2ebe 3423 1e3f e5d3 9dbd
00000110: e3a0 bb3d 5e00 593e 5b8d 5c3f 4364 eebe
00000120: f86a 16c0 0afa 22c0 b5e2 afbe 2807 0d3c
00000130: edcb 243f 233c e63c 088e c43e a76e e6be
00000140: fb2a 9a3e

conv7.bias f4 [3]
-0.33300263 0.6868643 1.0360534
00000000: 527f aabe 57d6 2f3f 669d 843f

conv8.weight f4 [3, 3, 3, 1, 1]
0.4012257 0.0043878793 0.3211019 -0.043050125 -0.5250769 -0.12852903 -0.39312232 0.7983288
-0.09462318 0.19116792 0.09820512 0.42631367 -0.00792245 -0.5566973 -0.18914813 -0.18486013
0.73548025 -0.20841362 0.21673307 0.52486116 -0.028960763 0.07299572 -0.47733822 -0.31379703
-0.21940853 0.2727203 0.26638222
00000000: 746d cd3e 33c8 8f3b 7867 a43e 5455 30bd
00000010: 716b 06bf 1d9d 03be 5447 c9be 475f 4c3f
00000020: ccc9 c1bd 86c1 433e c41f c93d c945 da3e
00000030: 2acd 01bc b783 0ebf 0cb0 41be f94b 3dbe
00000040: 6f48 3c3f 616a 55be 46ef 5d3e 4d5d 063f
00000050: 1f3f edbc c87e 953d ad65 f4be 01aa a0be
00000060: a1ac 60be ffa1 8b3e 4063 883e

conv8.bias f4 [3]
-4.423379 -0.20535047 4.7715454
00000000: 528c 8dc0 6547 52be 80b0 9840
