saved_model_2/upsample_at_location_5.pt (torch, 7314 bytes, 16 tensors)

conv1.weight f4 [3, 3, 1, 3, 3]
000000 30 1d 89 3e 75 4c ee 3e f2 20 1b bf 74 15 24 be
       0.2678008 0.46542707 -0.60597146 -0.16023809
000010 27 cb 59 bd 14 fa c6 3e d2 f9 bc bd 6c 3f d6 be
       -0.053172257 0.3886267 -0.09227337 -0.41845262
000020 e1 2d f2 3a 92 f6 56 be c1 25 58 be 56 e5 b2 bc
       0.0018476808 -0.20992497 -0.21108152 -0.021837872
000030 69 51 96 be cf 69 4c be 74 4d 22 bb 2b b7 c3 be
       -0.29358986 -0.19962238 -0.0024765404 -0.38225684
000040 9e a9 0c bd 10 2b 12 be 12 b8 42 bf 20 ea 1d 3e
       -0.034341447 -0.1427424 -0.7606212 0.15421343
000050 1c 6f 02 3f 35 5e 76 3d da 1a 4c bd 70 51 f4 be
       0.5095079 0.060148437 -0.049830295 -0.47718382
000060 53 2b 8c be ba 9a e6 be d7 db 3e 3d 8a 9c 1b 3e
       -0.27376804 -0.45039922 0.046596374 0.15196434
000070 4c 10 8d be 6f d2 a4 3d 9c 01 34 be b3 be 1e 3e
       -0.27551496 0.080479495 -0.17578739 0.15502433
000080 62 b6 91 3d 09 b8 8b 3e ad b7 e3 bc 1b be e8 be
       0.07114865 0.27288845 -0.027797544 -0.4545754
000090 3a cc 5d be 5a a4 c4 bd eb 77 4b 3e bc e4 0c bd
       -0.21659938 -0.0960166 0.19869964 -0.034397826
0000a0 9a 13 d9 be 34 c5 56 bd 98 9e d1 3e a7 2a 11 3e
       -0.42397767 -0.05243416 0.4094131 0.14176427
0000b0 cf 62 ba bd cc 95 23 3d 3f 4a 42 bd 17 b0 38 3e
       -0.091008775 0.03993778 -0.047434088 0.18035923
0000c0 34 89 e2 3d f6 df b2 3d 9e 80 8f be 23 1b 10 be
       0.11061326 0.087341234 -0.28027815 -0.14072852
0000d0 75 ab a5 be ae 3a 3f 3e b3 0e 95 bd 11 fd a9 be
       -0.32357374 0.18674728 -0.07278194 -0.33200887
0000e0 11 98 68 3e fc ee 97 bd 22 91 de 3e 20 a1 f1 bc
       0.22714259 -0.074186295 0.43470103 -0.029495776
0000f0 2b 79 25 3f 48 86 1e bf a0 61 8f bc fc 61 31 3e
       0.6463801 -0.61923647 -0.017502606 0.17322534
000100 4b 03 54 be 06 1b 4f be 42 42 ef 3e 65 21 f2 3c
       -0.20704381 -0.20225152 0.46730238 0.02955694
000110 f6 2e 63 3e 32 29 ab be 73 fe 5a 3c 5c e8 35 bb
       0.22185883 -0.33429867 0.0133663295 -0.0027756905
000120 51 f2 16 3d 00 75 09 bd 81 84 80 be 87 72 45 be
       0.036852185 -0.033558846 -0.25101092 -0.1928197
000130 af 65 fc 3e 4b 00 41 3e 56 ef 33 3e 0a 3f 7d bd
       0.49296328 0.18847768 0.17571768 -0.061827697
000140 ab 7c 47 be
       -0.19481151

conv1.bias f4 [3]
000000 15 7f 03 bf b0 80 b6 3f 28 ad 3d bf
       -0.51365787 1.4258022 -0.7409234

conv2.weight f4 [3, 3, 3, 1, 1]
000000 fe 77 d8 bd f8 e9 e0 be 3e 1f 5c 3e 02 ef 11 bb
       -0.10569762 -0.43928504 0.21496293 -0.0022267704
000010 f2 c6 86 3c b0 f2 01 bb e2 04 67 3b db 87 42 c0
       0.016452286 -0.001982849 0.0035250713 -3.039542
000020 ea 0b b7 bf 50 e3 60 3e c6 b0 1f bf 67 71 cb 3e
       -1.4300511 0.21961713 -0.6237911 0.39734957
000030 d1 05 04 3d c5 ef 14 be 04 d5 28 3d 2c 6b 97 bc
       0.03223211 -0.1454459 0.041218773 -0.01848372
000040 8c d4 23 3e c6 64 a5 bc 75 91 08 bd 28 81 a9 3b
       0.15999049 -0.020189654 -0.033341844 0.0051728673
000050 61 3e cd bc d3 ee 1f 3c a8 e5 b3 3c 84 0e 5d 3c
       -0.025054159 0.00976153 0.021960095 0.01349223
000060 89 0f 02 3c f3 ad eb bc cc 3d 14 3b
       0.007938274 -0.028769469 0.0022619842

conv2.bias f4 [3]
000000 85 71 e3 3e 33 b9 6e bf 0f 45 1e 3f
       0.44422546 -0.9325134 0.61824125

conv3.weight f4 [3, 3, 1, 3, 3]
000000 aa af 23 3d 28 5c a2 3d 8c b1 7f be 00 46 fd bd
       0.03996245 0.07927734 -0.24970073 -0.12366867
000010 fb d8 db 3e 5e 9e ae 3e a0 78 05 3e b0 80 48 bd
       0.4293898 0.341052 0.13034296 -0.04895085
000020 ac 33 13 be 2f 19 20 be 22 4d a4 3e e3 26 af bd
       -0.1437518 -0.15634607 0.32090098 -0.08552339
000030 ec e3 c6 3d f4 52 f7 bd 68 76 0f be e8 6a 85 bd
       0.097114414 -0.12076369 -0.14010012 -0.065145314
000040 a0 f6 11 3e 38 e5 01 bd 18 18 b1 be 80 f0 56 3e
       0.14254236 -0.03171274 -0.34588695 0.20990181
000050 3e 3a 82 3d a3 fb d0 3d 2f 52 28 3d 7d ad 36 3f
       0.06358765 0.10204246 0.041094 0.7135847
000060 71 55 da bd 5e 6d 01 be 08 34 32 3d bc fd bb bd
       -0.10660828 -0.12639377 0.043506652 -0.09179255
000070 5b 29 e7 be c8 b3 f8 3e d0 3d 87 3e 07 cc 24 bd
       -0.4514874 0.48574662 0.26414347 -0.04023364
000080 d3 9b 34 3f 56 70 10 be ef c8 d0 be f4 df 54 3f
       0.7055027 -0.14105353 -0.407783 0.83154225
000090 8f 9a f6 bc a8 e3 05 3e 4c 11 41 bd ab 15 83 bc
       -0.030102996 0.13075125 -0.047135636 -0.016001543
0000a0 b9 e5 c4 bc 9e 95 fb bd 21 02 ec bc f9 14 07 3e
       -0.024035322 -0.122843966 -0.028809609 0.13191594
0000b0 7c 3a 56 bd d8 92 0a bd b8 63 5e 3b bf 57 cc bd
       -0.05230187 -0.033831447 0.0033933949 -0.09977674
0000c0 59 3d b0 3d 8d d1 87 bb 61 f7 7d 3e a3 14 35 bd
       0.08605451 -0.0041448534 0.24801399 -0.044209134
0000d0 8f 2d 34 be e7 6b be 3d 32 95 77 3e 66 c2 69 3f
       -0.17595504 0.092979245 0.24178007 0.91312253
0000e0 84 8f 32 3e ad 95 18 bf 1b 83 11 3f d4 1d 30 bf
       0.1743756 -0.5960339 0.56840676 -0.68795514
0000f0 0b c2 46 3d b2 61 78 3f 86 17 0f 3e b0 75 09 3e
       0.048524898 0.9702407 0.13973817 0.134238
000100 b0 be e7 be f5 38 f6 3d e2 96 71 3e 9c 3c d2 3d
       -0.4526267 0.120225824 0.23592713 0.102654666
000110 d0 6c 7f be 0b a0 f0 bd d7 39 d9 bd c4 8a 79 3e
       -0.24943852 -0.11749276 -0.10606735 0.24369341
000120 0c cd 52 be 3a 5b 16 3f 6f 52 5b bd 92 3c 61 3d
       -0.20586032 0.5873295 -0.05354541 0.054989405
000130 70 14 15 3e 18 44 8d bf 1b 3f a9 bd 98 85 63 3e
       0.14558578 -1.1036406 -0.082639895 0.2221893
000140 b9 f8 07 bf
       -0.53113896

conv3.bias f4 [3]
000000 9f 96 75 be bb 7a 6e 3f 71 3b 90 3e
       -0.23983239 0.9315602 0.2817035

conv4.weight f4 [3, 3, 3, 1, 1]
000000 95 cf c6 3c 89 75 13 bf 4b 64 24 3d 22 6b 28 3e
       0.024268905 -0.5760122 0.04013471 0.16447118
000010 32 d6 23 bf 2a 00 fc bd c0 3f 62 3d 3f 61 2c bd
       -0.6399871 -0.12304719 0.055236578 -0.04208493
000020 81 53 bd bc c4 41 c0 3e 4d bd 8f be 4e b5 95 3e
       -0.023111107 0.37550175 -0.28074113 0.29239887
000030 8c 0d 88 be 62 96 b2 be 13 f9 dc bc dd 4f 64 3d
       -0.26572835 -0.34880358 -0.026974237 0.055740226
000040 38 b4 48 3f 43 5b 49 3d fa e2 9d 3d a5 c1 0f bf
       0.7839999 0.0491593 0.07709308 -0.56154853
000050 14 7b 9f 3d 2c cc 8c be b7 25 3c be 80 38 b7 3d
       0.07787147 -0.2749952 -0.18373762 0.089463234
000060 03 02 af bd b5 f6 10 3e 23 1f 3d bd
       -0.085453056 0.14156611 -0.046172272

conv4.bias f4 [3]
000000 df 8d 0f 3f db 3e bd 3e c6 19 11 3f
       0.56075853 0.36962017 0.5667995

conv5.weight f4 [3, 3, 1, 3, 3]
000000 cb cb b3 3f 53 b1 f8 3e 86 bc 35 3f 92 b2 0c 3f
       1.4046568 0.48572788 0.7099079 0.54959977
000010 f6 52 a3 be a5 a1 e3 bd 44 d6 8d 3f b6 17 d9 3e
       -0.31899232 -0.111148156 1.1081014 0.42400903
000020 11 ea 05 3f e1 20 00 3f 1e 6c 01 3e 73 e1 33 3f
       0.5231028 0.5005017 0.126389 0.70265883
000030 89 cb 80 3e 11 2d 74 bf e8 6c c7 be be 5f c2 3d
       0.25155285 -0.95381266 -0.38950276 0.094909176
000040 19 76 ef 3c 6d 85 fc bd 69 04 88 3f a4 1d 9c 3e
       0.029231118 -0.123301364 1.0626346 0.30491364
000050 00 ac 2c 3f 61 35 3d 3f cf 88 f7 bd 68 ae f6 bd
       0.6744995 0.73909575 -0.12086641 -0.12044984
000060 85 f8 8b 3f 66 e8 dd 3e d0 6c 67 3f 3b 68 3a 3f
       1.0935217 0.43341368 0.9040041 0.72815293
000070 f7 4a be 3b 3f 09 a3 3d f5 ab fc 3e 96 44 8e bd
       0.0058072763 0.07960748 0.49349943 -0.069466755
000080 dc af 95 bd c3 3c 9d 3e da e0 ab be 22 0e ad be
       -0.07308933 0.3071042 -0.33569986 -0.33799845
000090 36 8f 8a bd 20 48 3b be 67 08 3f 3e 0c 92 52 be
       -0.067655966 -0.18289232 0.18655549 -0.20563525
0000a0 15 91 66 bf a6 6f b1 bd d8 eb 98 3d 1c 34 97 bf
       -0.9006513 -0.086638734 0.074668586 -1.1812778
0000b0 d5 81 88 bd 03 9a 56 3f 93 4f 9e bb 31 08 34 3f
       -0.066653885 0.83828753 -0.0048312633 0.70325
0000c0 a9 b9 d7 3e 87 1a 44 3e 34 d6 b4 3e 8b 1f 3b 3f
       0.42133835 0.19150744 0.35319674 0.73095006
0000d0 49 3a 10 3f ae d9 c7 3d b2 60 bc 3f ec 57 ab 3e
       0.56338936 0.09758316 1.4717009 0.33465517
0000e0 b1 93 f6 3e 21 8c f7 3e a9 f6 02 bf 59 2f 16 3d
       0.48159555 0.48349097 -0.51157624 0.036666248
0000f0 4c 81 6d 3f 45 61 ab 3d 1e 76 27 3e 55 8b 6b be
       0.92775416 0.08368162 0.16353652 -0.2300237
000100 97 91 16 be 77 09 ba 3e a5 7e ee be 8d cb 24 bf
       -0.14703976 0.36335346 -0.46580997 -0.64373094
000110 f8 5a db be f4 cf cf be f2 99 90 be fa ca ba be
       -0.4284284 -0.40588343 -0.2824245 -0.36482984
000120 4a ec 89 3f d5 38 e8 3e e6 df 32 3f 02 41 4d 3f
       1.0775235 0.4535586 0.6987289 0.8017732
000130 db 59 ea 3e a9 02 91 3e ed 24 63 3f 39 6e 04 3f
       0.4577168 0.28322342 0.8872822 0.51730686
000140 32 8c 3d 3f
       0.74042046

conv5.bias f4 [3]
000000 bf 94 29 be 36 ce db 3e cf 5f cb 3e
       -0.16560648 0.42930764 0.39721534

conv6.weight f4 [3, 3, 3, 1, 1]
000000 80 8b c6 3d 9d f9 c0 be 92 ab 0d bf 09 96 8a 3e
       0.09694576 -0.3769044 -0.5533992 0.27067593
000010 ee a9 09 3f 59 0f 96 3e bb 65 93 3e 4d 41 2c bf
       0.5377492 0.29308584 0.28788552 -0.6728714
000020 47 dd 6a 3f 0f 9c ae bd 77 94 a5 3f 89 34 05 3f
       0.9174389 -0.085258596 1.2935933 0.5203329
000030 74 6e 1f 3f 04 63 6e 3e 35 51 5f 3f 1d fe 0a bd
       0.62277913 0.23279959 0.8723329 -0.033933748
000040 0f c1 eb 3e 57 3b 9e 3f 72 c1 3b 3f 97 63 b4 3f
       0.4604573 1.2361859 0.7334205 1.4092892
000050 1d f5 08 bf 52 e6 67 3f b1 92 3c 3f 53 2b 08 3f
       -0.53499013 0.90585816 0.73661333 0.5319111
000060 90 05 c3 be 00 a5 a9 be 29 56 8f 3d
       -0.3809018 -0.33133698 0.069988556

conv6.bias f4 [3]
000000 92 49 bd 3f f4 4f fc bd d3 a1 c1 be
       1.4788077 -0.12319937 -0.37818775

conv7.weight f4 [3, 3, 1, 3, 3]
000000 e3 40 a3 bf b4 30 12 bf 62 b1 9c bf 3a 6f 4a bf
       -1.2754177 -0.57105565 -1.2241633 -0.7907597
000010 51 58 1a bf 42 cb ec bf bd 84 df bf 20 40 b5 bf
       -0.6029101 -1.8499529 -1.7462384 -1.4160194
000020 ff ed eb bf 12 12 10 3f 41 b5 04 3f 83 14 2d 3f
       -1.8432006 0.56277573 0.5183907 0.67609423
000030 f1 1a 5b 3f 10 15 c2 3e 15 2d 19 3f d3 5d 3e 3f
       0.85587984 0.37906694 0.59834415 0.74361914
000040 d5 3b 86 3e 5e 5b 21 3f 9d 8f 6a 3f 1f 25 30 3f
       0.26217523 0.6303004 0.91625386 0.6880664
000050 d6 ac e0 3e b6 15 7a 3f f5 e6 3c 3f 15 69 90 be
       0.43881863 0.9768938 0.7378991 -0.2820517
000060 65 18 5e 3f e9 11 d3 3e 8a fb 89 bd a2 0b e9 3e
       0.86755973 0.41224602 -0.067374304 0.45516688
000070 03 50 c0 3e 7f cc a2 3e c6 be c1 3e 1e 3a 3c 3f
       0.37561044 0.31796643 0.3784086 0.7352618
000080 8a 14 50 bd 48 b6 83 be 91 27 79 3e 35 76 ab 3e
       -0.050800838 -0.25725007 0.243315 0.33488622
000090 3f 03 8b bf c0 49 06 bf bf 80 11 bf 13 6f e9 bc
       -1.0860366 -0.52456284 -0.56837076 -0.028495347
0000a0 ab 3e 95 3e 02 68 94 be 87 ae f9 3d 29 35 52 3e
       0.29149374 -0.28985602 0.121914916 0.20528091
0000b0 a1 98 f9 3d 46 af 3f 3f 43 1a 30 be 92 bd b8 be
       0.12187315 0.7487682 -0.17197518 -0.3608213
0000c0 4a 9e 03 be 5f bd 67 bd 3e 93 ea 3d c9 95 6b 3d
       -0.12853351 -0.056577083 0.114538655 0.057515893
0000d0 0f 2e 2a 3c a4 e0 45 3f 8f 76 dd bf 4d e5 c3 bf
       0.010386958 0.772959 -1.7301806 -1.5304352
0000e0 d9 7c a2 bf b1 98 13 c0 e2 31 f1 bf 40 8c c0 bf
       -1.269435 -2.3061945 -1.8843348 -1.5042801
0000f0 6c 8e de bf 58 fd 01 c0 e5 87 01 c0 8e d1 17 3f
       -1.7387214 -2.0310879 -2.0239193 0.5930413
000100 29 6f 02 3f de 56 2d 3e c6 24 54 3f 7f fe c8 3e
       0.50950867 0.16927668 0.8286861 0.39256665
000110 7d e4 f4 be a8 93 6d 3e 45 c9 a1 3e 96 6c 06 3f
       -0.47830573 0.23200858 0.3159887 0.5250944
000120 08 c7 0d 3f e3 60 35 3f c3 d5 30 3e 4d ff 45 3f
       0.5538182 0.7085096 0.17269044 0.77342683
000130 59 e6 5b 3e 94 49 de 3e 3b 27 6a 3f 00 c7 77 bd
       0.2147459 0.4341551 0.9146611 -0.060492516
000140 5c 3d a4 3e
       0.32078063

conv7.bias f4 [3]
000000 65 77 29 3c 13 d2 65 3e 05 89 d3 be
       0.010343407 0.22443418 -0.41315475

conv8.weight f4 [3, 3, 3, 1, 1]
000000 0e a8 0e 3f 56 52 50 3f 88 35 4d 3e b6 c6 9f be
       0.5572518 0.81375635 0.20039952 -0.31206292
000010 9b 82 0e c0 af 4f 51 bf 6e e9 f9 be a6 d0 e3 3f
       -2.2267215 -0.8176221 -0.48810905 1.779805
000020 2d 8b 56 be 7c 74 8b 3e f7 7f c1 3f 15 2a 04 3e
       -0.20951529 0.27237308 1.5117177 0.12906678
000030 11 eb e2 be 28 1f c6 be b8 23 88 bf be f3 59 be
       -0.44319966 -0.38695645 -1.06359 -0.21284387
000040 1f c6 7c 3f fc c2 81 be 72 3f cd 3e 5e 8c b1 3f
       0.9873981 -0.25344074 0.40087467 1.3870962
000050 54 da bc 3e 5a 86 67 bf e5 15 62 bf f3 11 75 3e
       0.3688532 -0.9043938 -0.8831466 0.23932628
000060 b7 5e da be 0f 76 80 3f 42 0a 0f bf
       -0.42650387 1.0036029 -0.5587503

conv8.bias f4 [3]
000000 d1 c1 c3 3f a2 b3 45 be 1d 4b 36 bf
       1.5293523 -0.19306806 -0.71208364
