saved_model_2/upsample_at_location_0.pt (torch, 7314 bytes, 16 tensors)

conv1.weight f4 [3, 3, 1, 3, 3]
-0.2854911 0.2999269 -0.18106806 0.3710647 -0.017772818 -0.015058049 0.15466005 -0.11743926
0.4973284 -0.23192243 0.51998854 -0.031362697 -0.3696964 0.2287819 0.28672755 0.1880887
-0.38476598 0.49741724 0.30524784 -0.28396907 0.09473126 0.07935324 -0.5594116 0.21516305
-0.06073603 0.113216296 0.6269352 -0.16565105 -0.24596009 -0.022629915 -0.027502315 0.087400824
-0.03696752 -0.31463593 0.16837794 0.39868098 -0.25937068 0.06557775 0.2050282 -0.0004561878
-0.007747521 0.107958324 0.23174538 0.330452 0.0985857 -0.107829586 0.06965394 0.49706072
-0.44728032 1.0556486 -0.14760125 0.40584078 0.5928399 -0.37899554 0.21946254 -0.2818928
0.090036914 -0.28030112 0.22443458 0.11799237 0.24358231 -0.36556396 0.188629 -0.03235552
0.16045965 -0.05889816 0.10382323 0.4428717 -0.13647598 0.101437226 -0.08542445 -0.13702701
-0.09184868 0.32157582 -0.12664658 0.23707797 -0.0906874 0.09443269 -0.0352557 0.055110894
-0.20365968
00000000: e42b 92be 0590 993e e869 39be 31fc bd3e
00000010: 4d98 91bc 09b6 76bc 345f 1e3e ff83 f0bd
00000020: d4a1 fe3e 137d 6dbe f81d 053f 2c76 00bd
00000030: d948 bdbe cd45 6a3e f4cd 923e 539a 403e
00000040: 0c00 c5be 79ad fe3e 7249 9c3e 6564 91be
00000050: 7602 c23d f483 a23d 9935 0fbf b453 5c3e
00000060: 58c6 78bd f2dd e73d d37e 203f 6ea0 29be
00000070: f6dc 7bbe 5f62 b9bc 894c e1bc 34ff b23d
00000080: 416b 17bd f617 a1be 446b 2c3e ea1f cc3e
00000090: 3ccc 84be a14d 863d eaf2 513e 7d2c efb9
000000a0: ebde fdbb 4119 dd3d a94e 6d3e 0131 a93e
000000b0: 4de7 c93d c2d5 dcbd baa6 8e3d be7e fe3e
000000c0: ed01 e5be 7e1f 873f c824 17be 5dca cf3e
000000d0: 5bc4 173f b40b c2be caba 603e 4154 90be
000000e0: 4665 b83d a183 8fbe 2ed2 653e fca5 f13d
000000f0: a46d 793e 332b bbbe f627 413e 3987 04bd
00000100: 894f 243e 323f 71bd 46a1 d43d 14c0 e23e
00000110: 5cc0 0bbe 52be cf3d 04f3 aebd cf50 0cbe
00000120: 291b bcbd 96a5 a43e a4af 01be 91c4 723e
00000130: 51ba b9bd ed65 c13d 4868 10bd f6bb 613d
00000140: 2a8c 50be

conv1.bias f4 [3]
0.34171352 0.3445827 0.06410696
00000000: 13f5 ae3e 256d b03e 834a 833d

conv2.weight f4 [3, 3, 3, 1, 1]
-0.13492401 0.774017 0.4800035 0.05024372 0.26745316 -0.2868136 -0.092346944 0.06295092
0.39788765 0.25489196 -0.10183982 -0.04157475 0.18111612 0.2822799 0.040691696 -0.44491827
-0.55118823 0.34346718 -0.14014556 -0.12014027 0.1994677 0.12548654 0.20464085 -0.16226013
-0.13040712 0.07565261 0.3363398
00000000: 8529 0abe fa25 463f 05c3 f53e 5ccc 4d3d
00000010: 9fef 883e 3bd9 92be 6520 bdbd 69ec 803d
00000020: eeb7 cb3e 3381 823e 6591 d0bd 494a 2abd
00000030: 8176 393e fe86 903e 56ac 263d 54cc e3be
00000040: ac1a 0dbf eeda af3e 5182 0fbe 1a0c f6bd
00000050: 4341 4c3e 8b7f 003e 5f8d 513e 8527 26be
00000060: 7289 05be c1ef 9a3d bb34 ac3e

conv2.bias f4 [3]
0.31407112 0.23876786 0.44748104
00000000: eecd a03e 907f 743e 3c1c e53e

conv3.weight f4 [3, 3, 1, 3, 3]
0.08529663 0.078625575 -0.14492744 0.018056104 0.08918019 0.37827414 -0.103031255 0.3050894
0.20093547 -0.036325727 -0.14891297 -0.250527 0.09423751 0.045536313 0.5435969 0.31145114
-0.0672792 -0.20287837 0.26740462 -0.06350809 -0.19143562 -0.4043558 -0.46787465 -0.3283872
-0.18888742 0.08063882 -0.32166317 -0.17266186 -0.16256446 -0.017320234 0.15753418 0.32737973
0.33189252 -0.51502323 -0.07660665 0.122078374 -0.13589913 0.7625334 0.00052007474 -0.35221967
0.0707428 -0.032281775 -0.08529425 0.094027065 0.37714922 -0.077041686 0.3398206 -0.739848
-0.1787796 -0.22147404 0.24554998 0.42985225 0.480903 0.18064569 0.25823665 -0.14354226
0.031614188 0.052353058 0.19254749 -0.44314277 -0.22379132 0.10967815 -0.10875505 -0.017929588
0.8563833 0.012151954 0.3007115 -0.14507799 -0.5343639 -0.20197204 -0.3651251 -0.17101073
-0.16856916 0.35758233 0.101086974 -0.075406164 0.23287158 0.30043197 0.08768513 0.11363494
0.022737248
00000000: 00b0 ae3d 7206 a13d dc67 14be 65ea 933c
00000010: 1aa4 b63d 26ad c13e 0d02 d3bd ae34 9c3e
00000020: 07c2 4d3e 49ca 14bd a47c 18be 1345 80be
00000030: 98ff c03d 4984 3a3d 2b29 0b3f 8676 9f3e
00000040: adc9 89bd 59bf 4fbe 42e9 883e 8810 82bd
00000050: b307 44be b907 cfbe 448d efbe 5e22 a8be
00000060: b46b 41be f725 a53d 09b1 a4be 45ce 30be
00000070: 4c77 26be 2ae3 8dbc a450 213e 519e a73e
00000080: d1ed a93e 90d8 03bf f3e3 9cbd 3a04 fa3d
00000090: 2429 0bbe 6435 433f a055 083a 2356 b4be
000000a0: 9ae1 903d e539 04bd c0ae aebd 4391 c03d
000000b0: b419 c13e 08c8 9dbd f7fc ad3e ae66 3dbf
000000c0: 0012 37be 17ca 62be 7471 7b3e 9815 dc3e
000000d0: eb38 f63e 2ffb 383e 9837 843e befc 12be
000000e0: e17d 013d 2970 563d 2b2b 453e 9ce3 e2be
000000f0: 8d29 65be f09e e03d f8ba debd 12e1 92bc
00000100: f03b 5b3f fd18 473c dcf6 993e 538f 14be
00000110: 13cc 08bf c2d1 4ebe adf1 babe 701d 2fbe
00000120: 659d 2cbe 0815 b73e b006 cf3d 8c6e 9abd
00000130: e375 6e3e 38d2 993e 4394 b33d 6fb9 e83d
00000140: 7743 ba3c

conv3.bias f4 [3]
0.26770735 0.26209274 0.7894993
00000000: f010 893e 0531 863e a01c 4a3f

conv4.weight f4 [3, 3, 3, 1, 1]
0.41530746 0.975652 0.5183792 0.4107903 -0.47475752 -0.940714 0.1826331 -1.2816659
-0.15056078 0.027090399 0.569138 -0.22140178 0.25854164 0.98012936 0.109379336 -0.68206936
-0.05050297 -0.42764318 -0.14798804 0.40272114 -0.2223647 -0.01341218 0.49172953 0.20746812
-0.23639394 -0.065234214 -0.14184313
00000000: 2ea3 d43e 54c4 793f 80b4 043f 1b53 d23e
00000010: 6b13 f3be a2d2 70bf 2c04 3b3e a10d a4bf
00000020: 9b2c 1abe afec dd3c 07b3 113f 26b7 62be
00000030: 925f 843e c2e9 7a3f 4602 e03d 199c 2ebf
00000040: 34dc 4ebd 0cf4 dabe 2d8a 17be 7731 ce3e
00000050: 92b3 63be c3be 5bbc f9c3 fb3e 8672 543e
00000060: 4111 72be 8499 85bd 533f 11be

conv4.bias f4 [3]
0.21977389 -0.20921601 0.19785424
00000000: 680c 613e b93c 56be 4d9a 4a3e

conv5.weight f4 [3, 3, 1, 3, 3]
-0.33594427 0.26434624 -0.06857787 -0.21215013 0.4606785 0.15549615 -0.047990367 0.54421306
-0.30892506 -0.15986083 0.14099443 0.15266246 -0.11632266 -0.25115752 -0.37706822 0.71877533
-0.26023525 -0.24659045 0.28689033 -0.054569423 -0.09237663 0.35020164 0.06876412 -0.08928604
0.53266174 0.20105973 -0.110723436 -0.14847094 -0.3344832 -0.53742456 -0.030228352 0.21792579
0.07031748 0.19462055 0.41474855 -0.12961353 -0.41105717 -0.2889058 -0.07432258 0.26882926
-0.055231374 0.3237187 0.014680547 -0.0320853 -0.02305745 -0.46437544 0.111873515 0.22630526
-0.41672477 0.12205192 0.12733112 0.008747593 0.14366555 0.29746902 0.015109698 -0.24963245
0.14242072 0.020086257 -0.16232876 -0.37395465 0.3371046 0.22002636 -0.038671836 0.27971402
-0.17806254 -0.11445705 0.38739967 0.19221148 -0.44956952 0.13965899 0.2793951 -0.09651676
0.14272739 -0.022851847 0.039332096 0.40194282 -0.0064813513 0.18200625 -0.09714593 -0.08457214
0.12838669
00000000: e300 acbe 6458 873e 8e72 8cbd e23d 59be
00000010: 0dde eb3e 623a 1f3e 8c91 44bd 8c51 0b3f
00000020: 6d2b 9ebe 8fb2 23be d860 103e 8c53 1c3e
00000030: 933a eebd b897 80be 160f c1be a901 383f
00000040: 8e3d 85be 3582 7cbe 4ae3 923e 3084 5fbd
00000050: f52f bdbd a14d b33e 34d4 8c3d 99db b6bd
00000060: 855c 083f 9ae2 4d3e f8c2 e2bd c408 18be
00000070: 6241 abbe a894 09bf 73a1 f7bc f027 5f3e
00000080: 9c02 903d 9c4a 473e ec59 d43e 69b9 04be
00000090: 1676 d2be 76eb 93be 7036 98bd fda3 893e
000000a0: 4b3a 62bd 75be a53e ad86 703c e06b 03bd
000000b0: fae2 bcbc 9ec2 edbe f11d e53d 91bc 673e
000000c0: f35c d5be 5bf6 f93d 1763 023e 1052 0f3c
000000d0: 101d 133e dc4d 983e ab8e 773c a69f 7fbe
000000e0: bdd6 113e ef8b a43c 8339 26be fc76 bfbe
000000f0: f998 ac3e 974e 613e 5c66 1ebd ad36 8f3e
00000100: 0756 36be 7568 eabd 4059 c63e 16d3 443e
00000110: fa2d e6be c402 0f3e e00c 8f3e 94aa c5bd
00000120: 2127 123e cc33 bbbc b11a 213d 73cb cd3e
00000130: 8461 d4bb d95f 3a3e 72f4 c6bd 2834 adbd
00000140: cd77 033e

conv5.bias f4 [3]
0.04687716 0.77584195 -0.21803316
00000000: 4402 403d 949d 463f 1644 5fbe

conv6.weight f4 [3, 3, 3, 1, 1]
-0.20382309 0.41628304 0.03302726 -0.6326531 -0.7189774 -0.62076646 0.056842744 0.19859292
0.006370075 0.28721657 0.17895152 0.14855202 0.14722827 -0.4615546 -0.08859463 -0.30470073
-0.01745431 0.25936878 -0.19013157 0.07512277 0.32657483 -0.35765013 -0.328296 -1.0071139
-0.21986486 1.3502282 0.6115211
00000000: 00b7 50be 0d23 d53e 9847 073d 8ef5 21bf
00000010: e70e 38bf 8dea 1ebf f0d3 683d f15b 4b3e
00000020: 10bc d03b 0d0e 933e 113f 373e 051e 183e
00000030: 02c3 163e e250 ecbe 1a71 b5bd bc01 9cbe
00000040: 57fc 8ebc fccb 843e dab1 42be f8d9 993d
00000050: d134 a73e eb1d b7be 6a16 a8be 1ce9 80bf
00000060: 4124 61be 47d4 ac3f a68c 1c3f

conv6.bias f4 [3]
0.19385119 -0.02084358 -0.20289819
00000000: ed80 463e 28c0 aabc 8bc4 4fbe

conv7.weight f4 [3, 3, 1, 3, 3]
0.12140899 0.09371782 0.3438323 -0.026120605 0.023119241 -0.007609921 0.1360064 -0.09391039
-0.31457323 -0.2809962 0.10756118 -0.005940975 0.60399216 -0.23254268 0.10996541 0.40010682
0.17450142 -0.05795707 0.08878407 -0.3161938 0.28965247 0.1927123 0.088844076 -0.002093911
-0.36101228 -0.16109192 0.064428486 0.43668962 0.117942594 0.42690492 0.38392255 -0.11142587
0.2300399 0.324096 -0.32181135 0.39237422 0.16070095 -0.27043208 0.0009942051 0.053157195
-0.123068176 -0.025678592 -0.24335347 0.06912054 -0.17963754 0.30702156 -0.10508884 0.69809884
-0.049617674 0.036608726 -0.2191257 -0.084558755 -0.26999882 -0.024880493 0.55129266 0.17504273
0.05109645 0.33488294 0.27502513 -0.20920162 0.034117907 -0.24409924 0.73810333 0.03907816
-0.008817596 0.23623237 0.34443 -0.084555864 -0.044442035 0.17295073 0.15520425 0.03807945
-0.39898986 0.2979074 0.1260946 -0.0071864985 -0.30175397 0.07605205 -0.013449494 -0.1340701
-0.14906512
00000000: 47a5 f83d 21ef bf3d ca0a b03e e1fa d5bc
00000010: 9064 bd3c a55c f9bb 4345 0b3e 1754 c0bd
00000020: be0f a1be bcde 8fbe 0949 dc3d 83ac c2bb
00000030: 3b9f 1a3f ab1f 6ebe 8b35 e13d cdda cc3e
00000040: 80b0 323e 6564 6dbd 6cd4 b53d 27e4 a1be
00000050: 544d 943e 6056 453e e2f3 b53d ff39 09bb
00000060: 9ad6 b8be 48f5 24be 15f3 833d c895 df3e
00000070: e38b f13d 4893 da3e 7f91 c43e 3f33 e4bd
00000080: 948f 6b3e e9ef a53e 75c4 a4be 46e5 c83e
00000090: ca8e 243e 1376 8abe fd4f 823a 5cbb 593d
000000a0: 2b0b fcbd e95b d2bc a731 79be 128f 8d3d
000000b0: e7f2 37be ee31 9d3e d138 d7bd 9bb6 323f
000000c0: e73b 4bbd 08f3 153d 7d62 60be 242d adbd
000000d0: 493d 8abe 2dd2 cbbc 8421 0d3f 673e 333e
000000e0: 834a 513d c775 ab3e 18d0 8c3e f338 56be
000000f0: 38bf 0b3d 27f5 79be 57f4 3c3f 6c10 203d
00000100: ae77 10bc e6e6 713e 2159 b03e a02b adbd
00000110: da08 36bd ff19 313e dded 1e3e 33f9 1b3d
00000120: 6648 ccbe 5287 983e f11e 013e b87c ebbb
00000130: 7f7f 9abe 2dc1 9b3d 445b 5cbc ac49 09be
00000140: 87a4 18be

conv7.bias f4 [3]
-0.1000328 -0.2808668 0.043367397
00000000: ffdd ccbd c6cd 8fbe 03a2 313d

conv8.weight f4 [3, 3, 3, 1, 1]
0.21512783 0.36992347 0.5555404 0.019440796 0.3761804 -0.33498827 0.05593642 0.7905807
-0.054623734 0.37079456 0.84966815 0.4916107 0.20978314 0.45252502 -0.27066097 -0.5623003
0.4698613 -0.39471683 0.34775513 0.15474184 -0.023652546 -0.08084642 1.0506815 -0.030231899
0.33443558 -0.7935486 -0.16990274
00000000: 784a 5c3e 9c66 bd3e e537 0e3f 4e42 9f3c
00000010: b89a c03e 9583 abbe 961d 653d 7f63 4a3f
00000020: 23bd 5fbd c9d8 bd3e da83 593f 66b4 fb3e
00000030: 64d1 563e 5cb1 e73e 1394 8abe eaf2 0fbf
00000040: a991 f03e 5318 cabe f60c b23e a574 1e3e
00000050: fcc2 c1bc cf92 a5bd bb7c 863f e3a8 f7bc
00000060: 243b ab3e 0026 4bbf fcfa 2dbe

conv8.bias f4 [3]
-0.3649117 -0.4656905 -0.08366719
00000000: b5d5 babe fc6e eebe b459 abbd
