saved_model_2/upsample_at_location_3.pt (torch, 7314 bytes, 16 tensors)

conv1.weight f4 [3, 3, 1, 3, 3]
0	0x3ee5516f	0.4478869
1	0x3eecb87b	0.46234497
2	0x3dd545b8	0.104136884
3	0x3d8408b7	0.06446975
4	0x3e4760e1	0.1947055
5	0xbdce3dc8	-0.100703776
6	0xbcdce5d9	-0.026965069
7	0xbd80427d	-0.06262682
8	0x3da304bb	0.07959887
9	0xbcc7a1c3	-0.024369126
10	0x3e88b060	0.26697063
11	0x3f191fc2	0.59814084
12	0xbeb691b6	-0.35658044
13	0xbe8e9cc0	-0.27853966
14	0xbed871e2	-0.42274386
15	0xbb386c18	-0.00281406
16	0xbe8cb091	-0.2747846
17	0x3e9529bf	0.29133412
18	0xbe602a26	-0.21891078
19	0xbdb6cec9	-0.0892616
20	0xbeb12b78	-0.34603477
21	0x3dad1c5a	0.08452673
22	0xbe8bb623	-0.27287397
23	0xbe818876	-0.25299424
24	0x3ed93b35	0.42427984
25	0x3d257359	0.040393207
26	0x3ea40f08	0.32042718
27	0x3badc6e4	0.0053032506
28	0xbe8e1362	-0.27749163
29	0xbe6750f9	-0.22589482
30	0xbcf97744	-0.030452378
31	0xbdd2a524	-0.10285404
32	0x3eaf4702	0.34233862
33	0x3e212129	0.15735306
34	0x3eba7e8e	0.3642468
35	0xbe19da50	-0.15024686
36	0xbe373b8f	-0.17893814
37	0xbd995f6f	-0.07488906
38	0x3e909b78	0.28243613
39	0xbe0e83b9	-0.13917436
40	0x3d93c43b	0.07215162
41	0xbdaeafb2	-0.08529605
42	0x3e8cec63	0.275241
43	0x3e5edb96	0.21763453
44	0xbe6aa367	-0.22913896
45	0xbe8fad1f	-0.28061768
46	0x3f097643	0.5369608
47	0xbd93cac0	-0.07216406
48	0xbf0d1a71	-0.5511847
49	0x3e22919e	0.15875861
50	0x3d5f9473	0.05458493
51	0x3e8a6cef	0.27036235
52	0x3ee172c0	0.4403286
53	0xbcfa6bc8	-0.030568972
54	0x3edda479	0.43289545
55	0xbebdff69	-0.37108925
56	0x3e0e1f19	0.1387905
57	0x3c3babed	0.0114545645
58	0xbe1d02a1	-0.15333034
59	0x3e50243c	0.20326322
60	0x3e851b09	0.2599719
61	0x3e910659	0.28325155
62	0xbed07df5	-0.40721098
63	0x3ea69566	0.32535857
64	0xbd92fafa	-0.07176776
65	0xbf191935	-0.5980409
66	0xbc81c614	-0.015841521
67	0x3f09b31f	0.5378894
68	0xbc0913ca	-0.0083665345
69	0xbe063bb1	-0.13108708
70	0x3e52ba42	0.20578864
71	0x3e590278	0.21192348
72	0x3cb67384	0.022271879
73	0xbe9d823e	-0.3076343
74	0x3e16ca04	0.147255
75	0xba45441c	-0.00075251027
76	0xbddb8dff	-0.10720443
77	0xbd972526	-0.073801324
78	0x3dd5a1e4	0.10431269
79	0x3c8acc60	0.016943157
80	0x3e202e17	0.15642582

conv1.bias f4 [3]
0	0x3ff9aed8	1.9506483
1	0x3f7c73b9	0.9861408
2	0x3fa1b291	1.2632619

conv2.weight f4 [3, 3, 3, 1, 1]
0	0xbd8f48d9	-0.069963165
1	0x3eacf554	0.3378092
2	0x3db6eed2	0.0893227
3	0x3ea9c51d	0.33158198
4	0x3def9c3c	0.11699721
5	0xbe29319a	-0.16522828
6	0x3e89c40f	0.26907393
7	0x3f5c2b2f	0.8600339
8	0x3d61e905	0.055153865
9	0xbd7b93b7	-0.06142017
10	0xbda0f7ed	-0.07859788
11	0x3bae0a8d	0.0053113163
12	0x3e96f85d	0.2948636
13	0x3f27c736	0.65538347
14	0x3e1c8f9d	0.15289159
15	0x3f009e87	0.50241894
16	0x3ef37066	0.4754669
17	0xbdad4ef9	-0.084623285
18	0xbd99fddb	-0.07519122
19	0x3e0c4d29	0.1370131
20	0x3db5054f	0.08838903
21	0x3ebf3a5c	0.37349212
22	0xbdff4ea5	-0.12466172
23	0xbe2ef23c	-0.17084593
24	0x3eb57daf	0.3544745
25	0x3ed510ab	0.4161428
26	0xbca1cfb1	-0.019752355

conv2.bias f4 [3]
0	0x3d49b091	0.049240652
1	0x3f0c815e	0.548849
2	0x3ee44b27	0.44588587

conv3.weight f4 [3, 3, 1, 3, 3]
0	0x3cc95451	0.024576338
1	0xbb69be64	-0.003566646
2	0xbeb04d96	-0.34434193
3	0xbbfcd163	-0.0077153905
4	0x3ec9d32e	0.3941893
5	0x3f2905e4	0.66024613
6	0xbe695f02	-0.22790149
7	0x3e317fea	0.17333952
8	0x3c568412	0.013093011
9	0x3c89768d	0.016780162
10	0x3d33409e	0.043762796
11	0x3e854658	0.2603023
12	0x3df2309c	0.11825678
13	0x3db0baa9	0.086293526
14	0xbe0c9642	-0.13729194
15	0xbd7ea7f4	-0.06217189
16	0xbe09c6f6	-0.13454804
17	0xbe75a5c0	-0.2398901
18	0xbd079ef2	-0.033110566
19	0xbde4eae0	-0.11177611
20	0x3e70e2d2	0.23524025
21	0xbee3b6f7	-0.4447553
22	0x3e4bb366	0.19892654
23	0x3e755064	0.23956448
24	0xbe03f628	-0.1288687
25	0x3eefec99	0.46860197
26	0xbeeb11ac	-0.4591192
27	0x3d5a1ed2	0.05325205
28	0x3eaea335	0.34108892
29	0x3e94e3df	0.29080102
30	0xbbb3a178	-0.005481895
31	0x3efdedd7	0.4959552
32	0x3ebd7feb	0.37011656
33	0xbe1c8c5e	-0.15287921
34	0xbf11d368	-0.56963205
35	0xbed947e2	-0.42437655
36	0x3e0da8d0	0.13833928
37	0x3e4e793c	0.20163435
38	0x3e7e6984	0.24844939
39	0xbe83be8d	-0.25731316
40	0x3e8f08c9	0.2793639
41	0xbd93b4b7	-0.07212203
42	0x3e1135a2	0.14180616
43	0xbd211121	-0.039322976
44	0x3dd113a6	0.10208826
45	0xbea86286	-0.32887667
46	0xbef108c8	-0.47077012
47	0xbeffd6dd	-0.49968615
48	0xbe03bb20	-0.12864351
49	0x3ce8e4e2	0.028429452
50	0xbea03f24	-0.31298172
51	0x3e2c7119	0.16840018
52	0x3e262bcb	0.16227643
53	0x3ea41068	0.32043767
54	0x3e907060	0.28210735
55	0x3e4f1c7c	0.2022571
56	0x3e2a63d9	0.16639651
57	0x3eb9938e	0.36245388
58	0xbf1aa98e	-0.6041497
59	0xbeed0134	-0.4628998
60	0xbdb43540	-0.08799219
61	0xbe825a0a	-0.2545932
62	0xbe569429	-0.20954956
63	0x3dc9bf73	0.09850969
64	0xbdd2b33e	-0.10288094
65	0xbece77d8	-0.4032581
66	0x3e98949d	0.29800883
67	0xbd9405f1	-0.07227696
68	0xbf102d89	-0.5631948
69	0xbd0c35fc	-0.03423117
70	0x3ee5f693	0.44914684
71	0xbc7f39ee	-0.015577776
72	0xbef476a8	-0.47746778
73	0x3e853e7d	0.26024237
74	0x3f352630	0.70761395
75	0xbbbc7812	-0.005751618
76	0x3e924c64	0.28573906
77	0xbe9fd766	-0.31219023
78	0xbf1f3a84	-0.6219866
79	0x3ead81eb	0.33888182
80	0x3f5626af	0.83652776

conv3.bias f4 [3]
0	0xbe288dd0	-0.16460347
1	0x3f40845a	0.7520195
2	0x3f74dcae	0.9564923

conv4.weight f4 [3, 3, 3, 1, 1]
0	0xbebaec4c	-0.36508405
1	0xbed20703	-0.41020975
2	0x3e4b5dc5	0.19859989
3	0x3f9f10a0	1.2426949
4	0x3e4a2b06	0.19742975
5	0x3e32434e	0.17408487
6	0xbe82085b	-0.25397
7	0x3e302222	0.1720052
8	0xbee27db5	-0.44236532
9	0xbec60d72	-0.38682133
10	0xbef65505	-0.4811174
11	0xbe9e15b3	-0.3087593
12	0x3f11420c	0.56741405
13	0x3e3d9ea0	0.18517542
14	0xbe052a22	-0.13004354
15	0xbeabcc47	-0.3355429
16	0x3f20f111	0.6286784
17	0xbe33da51	-0.1756375
18	0x3e4a83b9	0.1977681
19	0x3e2c1c3e	0.16807649
20	0x3e80cee7	0.25157854
21	0xbeb57f66	-0.3544876
22	0x3e67b776	0.22628579
23	0x3e4fab71	0.20280243
24	0x3de9ee0d	0.11422358
25	0xbe9685e8	-0.29399037
26	0xbe25d26f	-0.16193555

conv4.bias f4 [3]
0	0x3f1e5ede	0.61863506
1	0x3d25997e	0.040429585
2	0x3e2465fc	0.16054529

conv5.weight f4 [3, 3, 1, 3, 3]
0	0xbe3bcaa6	-0.18339023
1	0x3df8f309	0.1215573
2	0x3ecdcbb4	0.40194476
3	0x3e91fc34	0.28512728
4	0xbe7d277c	-0.24722093
5	0xbe7abd0f	-0.24486183
6	0x3cf39d03	0.029737955
7	0xbd9e0a0e	-0.077167615
8	0x3dfb0df9	0.122585244
9	0xbef0a7c3	-0.47002992
10	0xbd8826b5	-0.06648008
11	0xbd840a05	-0.064472236
12	0xbca0065d	-0.019534284
13	0x3e8b12e6	0.27162856
14	0x3e192e58	0.14959085
15	0xbd3994ec	-0.04530804
16	0xbe37ab3a	-0.17936411
17	0x3e1bdbe3	0.15220599
18	0xbf1917e1	-0.5980206
19	0x3e8efeb1	0.2792869
20	0x3ebce4c7	0.36893293
21	0x3df225ab	0.11823591
22	0x3f1c324b	0.6101424
23	0xbe3bdda2	-0.18346265
24	0x3f0e90c1	0.55689627
25	0x3e12eb89	0.14347662
26	0x3c259afd	0.010107753
27	0xbdbd1da2	-0.09234168
28	0xbf59c666	-0.85068357
29	0xbdb0655d	-0.086130835
30	0x3d45a1d0	0.04825002
31	0xbf21edab	-0.6325328
32	0xbe0c7edc	-0.13720268
33	0x3d3617f4	0.044456437
34	0x3f192a3e	0.5983008
35	0x3f035d87	0.51314586
36	0x3f132b68	0.5748811
37	0x3e6139ab	0.21994655
38	0x3f0982d4	0.5371525
39	0xbda1ea7b	-0.07906052
40	0xbd04e606	-0.03244593
41	0xbe46f65b	-0.19429915
42	0xbed58c99	-0.4170883
43	0xbe6eccdf	-0.2332034
44	0xbecc3e08	-0.39891076
45	0x3ec45203	0.3834382
46	0xbe3b724c	-0.1830532
47	0xbebf728b	-0.37392077
48	0x3e816025	0.25268665
49	0x3d511a61	0.051050548
50	0xbd67469c	-0.056463823
51	0x3d072927	0.03299823
52	0xbc05e749	-0.008172818
53	0xbe9a2555	-0.30106607
54	0xbd88ba26	-0.0667613
55	0x3ea0eccc	0.31430662
56	0x3dc71017	0.09719866
57	0xbe89032b	-0.2676023
58	0xbe63ebae	-0.22257873
59	0x3dc51464	0.0962303
60	0x3f570397	0.8398985
61	0xbdb7b189	-0.08969409
62	0x3d9fdb50	0.078055024
63	0x3eb30f7f	0.3497276
64	0xbe26803c	-0.16259855
65	0x3ecdaeb7	0.4017236
66	0xbe85727f	-0.26063916
67	0xbdfa2dc1	-0.12215758
68	0x3dfa4e18	0.122219265
69	0x3e22f9b4	0.15915567
70	0x3a0a3b8e	0.00052731566
71	0x3e942b9c	0.2893952
72	0x3e15aa50	0.1461575
73	0x3d088662	0.033331282
74	0x3ec47bf2	0.38375813
75	0x3e03a259	0.128549
76	0xbe0e96a0	-0.13924646
77	0xbc9510aa	-0.018196423
78	0xbf185df0	-0.5951834
79	0x3e96e3d2	0.29470688
80	0xbe79e98f	-0.24405502

conv5.bias f4 [3]
0	0x3d187624	0.037222043
1	0xbe44e297	-0.19227062
2	0x3e8a9694	0.27068007

conv6.weight f4 [3, 3, 3, 1, 1]
0	0x3e32731e	0.17426726
1	0xbf2632ea	-0.6492144
2	0x3eee6eb1	0.46568826
3	0x3dc21d5a	0.094782546
4	0x3f786287	0.9702534
5	0x3fbf1366	1.4927795
6	0xbea6d273	-0.32582435
7	0x3eb9d3f9	0.36294535
8	0x3fd4fd30	1.6639767
9	0x3f23ecbf	0.6403312
10	0xbe38992a	-0.18027177
11	0x3f6901b2	0.9101821
12	0x3f0291a6	0.5100349
13	0xbeff533c	-0.4986819
14	0x3fce3862	1.6110957
15	0xbf32fec8	-0.69920015
16	0x3f02b5a2	0.510584
17	0xbdaf9b7e	-0.0857458
18	0xbe6b60c8	-0.22986138
19	0x3f532d47	0.8249096
20	0x3e894d01	0.26816562
21	0x3e675c15	0.2259372
22	0xbd79a381	-0.060946945
23	0x3ccc9886	0.024975073
24	0xbe87a68c	-0.26494253
25	0x3ec16c44	0.37777913
26	0x3ee35440	0.44400215

conv6.bias f4 [3]
0	0x3e2c1d13	0.16807966
1	0x3f4b5d1e	0.7943896
2	0xbf06b55d	-0.5262049

conv7.weight f4 [3, 3, 1, 3, 3]
0	0x3e7b3325	0.24531229
1	0x3cc5c9a4	0.024144001
2	0xbeecd1f2	-0.46253926
3	0xbe0139c3	-0.1261969
4	0xbf0866bc	-0.5328176
5	0x3e763c1b	0.24046366
6	0x3e74171c	0.2383694
7	0x3e17bc05	0.14817818
8	0xbedf7e7b	-0.43651184
9	0xbf1a8240	-0.60354996
10	0x3e6466db	0.22304861
11	0xbd947c1b	-0.07250234
12	0xbe5cfc71	-0.21580674
13	0xbd1c787c	-0.03820084
14	0xbdea42d6	-0.11438529
15	0x3e4c8d16	0.19975695
16	0xbe401f6f	-0.18761991
17	0x3ce4b8b7	0.02792011
18	0x3e9624fe	0.29325098
19	0x3f170e7c	0.59006476
20	0x3d85d9be	0.06535672
21	0xbd3d2add	-0.046183456
22	0x3f42ad4e	0.7604569
23	0x3df532e6	0.11972599
24	0xbb1668e5	-0.0022950706
25	0x3ee88eb0	0.45421362
26	0x3e30bd01	0.172596
27	0xbe357116	-0.1771892
28	0x3dc3d451	0.095619805
29	0xbe49611f	-0.19665955
30	0xbefaf94d	-0.49018326
31	0x3ea810ab	0.32825217
32	0xbe1b1a1f	-0.15146683
33	0x3ca7cbfe	0.020483013
34	0xbdae7faf	-0.085204475
35	0xbe826a07	-0.25471517
36	0xbdfee1b3	-0.124453925
37	0x3d35d0a5	0.044388432
38	0x3dc209c8	0.09474522
39	0x3d64dfa7	0.055877354
40	0x3ec06526	0.3757717
41	0x3e8d27fe	0.27569574
42	0xbe24b503	-0.16084675
43	0x3df4dca9	0.1195615
44	0x3e025ccc	0.12730712
45	0x3cd14f9c	0.025550656
46	0x3e79ef33	0.24407654
47	0x3eb94508	0.3618548
48	0xbc91577f	-0.017741917
49	0xbe3b5766	-0.18295059
50	0xbdb11704	-0.08646968
51	0xbe09d08b	-0.13458459
52	0x3f23a64a	0.6392561
53	0xbe2dd278	-0.16974819
54	0x3f07cf92	0.530511
55	0x3eb0d936	0.3454072
56	0x39d77a09	0.0004109892
57	0x3cbb39fe	0.022854801
58	0x3c384624	0.011247192
59	0x3d99dcea	0.07512839
60	0x3e3c21c8	0.18372262
61	0x3f32a41c	0.6978166
62	0xbe9c3978	-0.30512595
63	0xbc122825	-0.008920704
64	0xbe2a4c21	-0.16630603
65	0xbea26204	-0.31715405
66	0xbdfc30ee	-0.1231402
67	0xbd630ae3	-0.055430304
68	0xbede5206	-0.43421954
69	0xbd8e7a09	-0.0695687
70	0xbdf23902	-0.118272796
71	0xbe7a7be5	-0.24461325
72	0xbe67b14a	-0.22626224
73	0x3d838118	0.06421107
74	0xbef9cec2	-0.48790556
75	0xbdf3980d	-0.11894236
76	0xbd6345d5	-0.05548652
77	0xbdc97191	-0.09836114
78	0xbdc2d9ad	-0.095141746
79	0x3e57216d	0.21008845
80	0xbe0e5849	-0.13900866

conv7.bias f4 [3]
0	0xbf329557	-0.69759125
1	0x3f391db1	0.7231093
2	0x3f84a96f	1.0364207

conv8.weight f4 [3, 3, 3, 1, 1]
0	0x3ec561d4	0.385512
1	0x3e568870	0.20950484
2	0xbe54d147	-0.20782958
3	0x3f038434	0.513736
4	0xbe00258e	-0.12514326
5	0x3ead845c	0.33890045
6	0xbd7426f3	-0.059607457
7	0xbd1ce714	-0.03830631
8	0xbd0b97df	-0.034080382
9	0x3f106b15	0.56413394
10	0x3ec7769b	0.38957676
11	0xbe1a976b	-0.15096824
12	0x3e1ab9e0	0.15109968
13	0xbeea8eac	-0.45811975
14	0x3e935c19	0.28781202
15	0xbe8133b6	-0.25234765
16	0x3db64b79	0.08901114
17	0xbe32c965	-0.17459638
18	0x3f2404bd	0.6406973
19	0x3f07c3b7	0.5303301
20	0xbd8c1a72	-0.068409815
21	0xbd59f5a8	-0.05321279
22	0xbf3c9d8d	-0.73677903
23	0x3e5230ea	0.20526472
24	0x3dcb8533	0.09937515
25	0x3ed55716	0.41668004
26	0xbdce7fac	-0.10082945

conv8.bias f4 [3]
0	0xbf6d7e01	-0.9277039
1	0x3e28445e	0.1643233
2	0x3e63cd16	0.22246203
