saved_model_2/upsample_at_location_6.pt (torch, 7314 bytes, 16 tensors)

conv1.weight f4 [3, 3, 1, 3, 3]
000000 ec ec 30 3e 8f 9d 12 3d d3 2f be be 37 1f 19 3e
       0.17277879 0.03579479 -0.37145862 0.14953314
000010 12 40 2d bb 97 f1 19 3f dd e2 38 3e 6b 10 1c be
       -0.0026435894 0.6013426 0.18055291 -0.15240638
000020 60 2e b8 be 10 5e 3b 3e cc 65 29 3e 41 47 42 bd
       -0.3597288 0.18297601 0.16542739 -0.047431234
000030 da 5e b4 3e 26 cc a9 3e f1 00 7d bd 2c 00 ff bd
       0.35228616 0.33163565 -0.061768476 -0.12451205
000040 b6 68 b0 be 0f f5 b7 be 6a 05 80 bd 3c f3 47 bc
       -0.34454888 -0.35929152 -0.06251033 -0.012203988
000050 a9 5f 43 bc 87 2a fb 3e 10 93 87 be a3 d2 29 3f
       -0.011924663 0.49055883 -0.26479387 0.6633703
000060 02 ec a6 3e b6 88 17 bf a1 56 24 be 4f 9c 3f be
       0.32601935 -0.5919298 -0.16048671 -0.18711971
000070 a3 37 61 3e 0c aa e2 3e 7d d9 63 bd a3 94 d0 3c
       0.2199388 0.4427036 -0.055627335 0.0254615
000080 9e 8a 48 3e 2f 9e 32 be 01 6d 11 3e 49 74 ff bc
       0.19584128 -0.17443155 0.14201738 -0.031183379
000090 64 09 21 bd 81 e5 0f 3f d1 76 6a 3d 3b 41 b8 be
       -0.039315596 0.5620957 0.05724222 -0.35987267
0000a0 5b 77 23 bd 6a 53 8b 3e 23 6e 94 3d d0 62 db 3c
       -0.039908748 0.27212077 0.072475694 0.026780516
0000b0 da 18 36 3d d1 2f fd be b9 2f 89 3e a3 67 33 3f
       0.044457294 -0.49450544 0.26794222 0.7008001
0000c0 88 52 05 3e c0 9c e6 3d 70 cf a5 3d 9c e8 04 be
       0.13019764 0.112603664 0.08096206 -0.12979358
0000d0 36 b2 e6 3d 22 94 4b be e3 05 87 be bb 02 35 be
       0.1126446 -0.19880727 -0.2637168 -0.17676823
0000e0 a3 fd d0 be 7f 7b 12 3f 48 f0 4c be 1b b9 77 3d
       -0.4081851 0.5721969 -0.20013535 0.060479265
0000f0 a8 d9 f4 be 21 a1 97 3e 03 f2 ed 3e 51 75 31 3e
       -0.4782231 0.2961512 0.46473703 0.17329909
000100 0c 9d 1a bf 01 8e 96 be 7b dc 9e 3e 80 55 8f 3e
       -0.60395885 -0.29405215 0.31027588 0.2799492
000110 3f 58 13 3e 93 2f 4b bd 11 5b d6 be d1 a7 e2 3e
       0.14389132 -0.049605917 -0.41866353 0.4426866
000120 60 db f0 bc 5f a3 0b be a9 ce 29 be 34 71 c1 bd
       -0.029401481 -0.1363654 -0.16582741 -0.0944542
000130 56 b1 2d 3d 46 a8 57 3e 34 6d 1a 3d 9b fa 28 3d
       0.04240545 0.21060285 0.0377018 0.04125462
000140 6b 6a 1f 3d
       0.038919847

conv1.bias f4 [3]
000000 c7 83 6f 3f 1c d6 0c 3f d6 b0 82 40
       0.9356045 0.55014205 4.0840864

conv2.weight f4 [3, 3, 3, 1, 1]
000000 cc 6e 0c bd f6 17 89 3e 6e f7 6f 3e 50 ea dc bd
       -0.03428535 0.26776093 0.2343423 -0.10786879
000010 3e bc e3 3d d6 79 cc be a1 4b 3b be c7 bf 68 3f
       0.11119889 -0.39936703 -0.18290569 0.9091763
000020 d7 e3 1d 3f bf f2 60 bd a8 b2 99 be 16 37 c2 be
       0.6167578 -0.054919 -0.30019116 -0.37932652
000030 3d e8 38 3e 29 e4 3c be 2c 93 2d 3f fc 62 23 3d
       0.18057342 -0.18446411 0.6780269 0.03988932
000040 73 29 aa 3e 04 1f 7e be 34 bc 01 3c 8f 67 76 bd
       0.33234748 -0.24816519 0.007918406 -0.060157355
000050 5c 4a b9 bc ca 96 b9 bd 04 a4 07 3f ac c7 95 3e
       -0.022618465 -0.09061964 0.52984643 0.292539
000060 2d f9 1d 3d 60 f4 e1 bd c5 03 d2 3c
       0.03856771 -0.11032939 0.025636563

conv2.bias f4 [3]
000000 eb d8 be 3f 14 50 d0 3e ce ee c9 3e
       1.4909948 0.40686095 0.39440006

conv3.weight f4 [3, 3, 1, 3, 3]
000000 85 29 d6 be e5 89 ad be eb b1 9a 3f 4e a6 24 be
       -0.41828552 -0.33894268 1.2085546 -0.16079065
000010 a3 45 02 3e 0b 68 17 3f 38 eb ee 3e 0b 88 d2 3c
       0.12721877 0.5914313 0.46663833 0.025699636
000020 98 5d 3b 3f 65 d5 0a 3f 92 b0 72 be 97 64 4f bd
       0.7318969 0.54231864 -0.23700169 -0.05063304
000030 6a a0 19 be 2f 40 c6 bd ac 94 77 3e c5 43 87 3e
       -0.150026 -0.09680211 0.24177808 0.26418892
000040 81 c2 a6 3e f2 43 27 3e 62 32 53 3e 15 c6 c0 3d
       0.3257027 0.16334513 0.20624688 0.09412781
000050 c5 51 26 3e 65 21 23 bf e1 64 af be 29 44 2a be
       0.1624213 -0.6372283 -0.34256652 -0.16627564
000060 fc 30 ef bf 0d 8c 05 c0 a6 19 2a bf 98 b5 44 be
       -1.8686824 -2.086673 -0.66445386 -0.19209898
000070 9a f7 d6 3d 55 69 82 be 6b b3 01 3e 6c 7f 3d be
       0.10496445 -0.25470987 0.12666099 -0.18505639
000080 cf 0d 16 3e 62 e2 0c be 0d f8 c5 bd 78 a9 ed bd
       0.14653705 -0.13758233 -0.096664526 -0.11604589
000090 d8 61 58 be ad 43 01 bd 56 74 57 bd f6 36 e3 3e
       -0.21131074 -0.03155868 -0.05260118 0.4437787
0000a0 b6 64 23 be a5 e7 3d 3e c5 3c d1 3e 35 90 52 3e
       -0.15956387 0.18545397 0.40866676 0.20562823
0000b0 a9 3f 12 3e c7 29 a2 bd 6f 9a b3 bd 97 c0 ce 3d
       0.14282097 -0.07918125 -0.0876969 0.10095327
0000c0 83 bb 66 3e 45 b1 02 be 25 a8 27 3e 40 f2 34 3f
       0.22532468 -0.12762935 0.16372736 0.70682144
0000d0 bf 5a 8b be 91 f8 04 be e2 43 89 3e 63 58 cd 3e
       -0.2721767 -0.12985446 0.26809603 0.40106496
0000e0 e5 b7 22 3e 38 27 25 bd a9 be c5 be 87 dd 96 be
       0.15890463 -0.040320605 -0.38622025 -0.29465887
0000f0 05 b3 e0 3d 81 ea cf 3d bf 1b 80 bd 57 9f 55 be
       0.10971645 0.1015215 -0.06255292 -0.20861565
000100 15 0e 73 3d a8 dc 4a 3d 3e 56 67 bd 38 17 5b be
       0.0593396 0.04952684 -0.05647873 -0.21395576
000110 cb 8c fb bc fa e0 d0 3d 56 a6 56 3d 58 83 e8 bd
       -0.030706784 0.10199161 0.052404724 -0.11353177
000120 c9 84 b4 be 6f 16 05 be 0d d6 84 be cf ea 04 3f
       -0.35257557 -0.12996839 -0.25944558 0.5192079
000130 57 b7 92 3e 97 57 9d 3e 38 da c4 3e 68 d0 79 3e
       0.28655502 0.30730888 0.38447738 0.24395907
000140 77 69 c6 3e
       0.38752338

conv3.bias f4 [3]
000000 a7 0b 93 40 bf 2d 0a bf 6f d9 d8 3e
       4.5951724 -0.53976053 0.4235339

conv4.weight f4 [3, 3, 3, 1, 1]
000000 8f 15 b2 3e 9b dd 52 3f f4 8d c5 bd ff 35 0c 3e
       0.34782073 0.82369393 -0.09646216 0.13692473
000010 2b 1f 70 be e6 e2 cd bc 65 e6 7b 3e b9 34 0b bb
       -0.2344939 -0.025132608 0.24599607 -0.0021241142
000020 f9 00 0c 3e 76 93 a0 3e c2 a7 3f bf 9a 2c 95 3d
       0.13672246 0.31362504 -0.74865353 0.07283898
000030 ec 02 bf be 48 02 f6 bb c9 ce 5f be de 73 5e 3e
       -0.37306917 -0.007507596 -0.21856226 0.21723887
000040 d9 41 df 3e c7 bb a8 3e a2 37 bf 3e 4c d0 8d 3e
       0.43604925 0.32955763 0.37347132 0.2769798
000050 34 bc 13 bf c0 90 5b 3e af b2 ce 3e 03 97 06 3f
       -0.5770905 0.21441936 0.403707 0.52574176
000060 32 3c 44 3f 65 62 94 3e 6b 33 69 3e
       0.7665435 0.2898132 0.2277352

conv4.bias f4 [3]
000000 4b 30 e5 3d 56 2b 62 3e 88 46 03 3f
       0.11190852 0.22086844 0.512795

conv5.weight f4 [3, 3, 1, 3, 3]
000000 ad 25 93 3e fc 0f 0f 3d 6b 56 f8 bd 82 5d 06 3c
       0.28739682 0.034927353 -0.12125858 0.008201005
000010 7b 92 c0 3e 92 db 06 bd 21 9b bc be 6c ae 92 3e
       0.37611756 -0.032924242 -0.36837104 0.28648698
000020 37 ab f3 be 2f 42 4c be c6 56 88 bd ab 3a 9a 3d
       -0.47591564 -0.19947122 -0.06657176 0.07530721
000030 fa c0 66 bd 9b 6b f4 be 45 30 59 be bd fd 2a be
       -0.05633638 -0.47738346 -0.2120982 -0.16698356
000040 5e 8b 7d 3e 28 94 0f 3e de 97 f7 bd c3 9a 59 be
       0.24760196 0.14021361 -0.12089513 -0.21250443
000050 57 9f 0f bd 68 1a 77 3e f8 40 80 3e 91 8d 5b 3e
       -0.035064068 0.24131167 0.25049567 0.21440722
000060 13 19 3f 3e f6 da e6 3d f3 82 18 bd 51 91 8b 3e
       0.18661909 0.11272232 -0.037234258 0.27259305
000070 cc 30 5e 3f aa 29 a2 3d e4 c2 1f bf 49 17 00 3e
       0.8679321 0.07918103 -0.62406754 0.12508883
000080 c8 b9 75 3e e6 a6 10 bf 26 2e 0f be 92 d6 91 be
       0.23996651 -0.56504667 -0.13982448 -0.28484017
000090 c9 60 0a 3e 2e fd 30 bf 33 57 19 3f cd bc ad be
       0.13513483 -0.6913632 0.5989868 -0.33933106
0000a0 45 60 3b bf 9f 1d c9 3e 3b 6d ab 3d 46 b9 77 bf
       -0.7319377 0.39280412 0.083704434 -0.9676708
0000b0 43 58 f0 3e a0 07 cc 3d 90 8e 11 bd 4f 99 31 be
       0.46942338 0.09962392 -0.03553635 -0.17343639
0000c0 f4 79 dd bd 3b 37 47 be fc ca f2 bd 55 82 e2 3e
       -0.10814276 -0.19454663 -0.118551224 0.4424006
0000d0 bf a2 87 3e 2a 32 b1 3e 63 8c 3f bf bb a9 0a be
       0.26491353 0.34608585 -0.7482359 -0.1354131
0000e0 fd ad d1 be 8d 7d a4 3d c1 31 04 bf 7a 40 fd be
       -0.40953055 0.080317594 -0.5163842 -0.49463254
0000f0 74 8f 6a be 92 75 58 3e ff 79 33 3d 72 09 22 3d
       -0.22906286 0.211386 0.043817516 0.03955979
000100 2a e8 bd 3e 65 dc 14 bf 75 7d ae 3e e1 1e 2d be
       0.3709119 -0.58148795 0.3408009 -0.1690631
000110 f9 87 f9 3c 21 34 0b 3f 16 bb 27 3e 46 8a 36 be
       0.030460345 0.5437642 0.16379961 -0.17826185
000120 cf 0a bc be 53 08 a2 3e 1d d2 f2 bc db 3b 02 3e
       -0.36726996 0.31646976 -0.029641205 0.12718146
000130 66 6c 29 3f e1 50 2d bd 56 ba 36 3e f8 f3 08 3e
       0.6618103 -0.04231346 0.17844519 0.13374317
000140 15 30 3c 3d
       0.045944292

conv5.bias f4 [3]
000000 4d 58 54 3d da b4 02 41 f8 83 14 3e
       0.051842023 8.169153 0.14503467

conv6.weight f4 [3, 3, 3, 1, 1]
000000 9e c6 b4 be 58 61 59 bf b1 00 a5 bf 85 17 a7 3e
       -0.35307783 -0.8491416 -1.2890836 0.3263513
000010 75 39 0e be da f6 21 3f d9 7d e0 3e df ab 3c 3e
       -0.13889106 0.6326729 0.43846014 0.18424939
000020 a9 96 2b 3f 3d 4a 32 3f 13 c7 da be 3e 68 87 3e
       0.67026764 0.6964453 -0.42730007 0.26446718
000030 23 13 cb 3e 23 87 2d be 48 11 b7 be 12 57 c2 3e
       0.39663038 -0.16946082 -0.35755372 0.37957054
000040 a5 c0 c9 3e b6 25 24 3c ad 77 99 3f 88 40 3f 3f
       0.3940479 0.010018757 1.1989647 0.7470784
000050 f4 a9 f7 be 7d ee 8a be e5 10 cc 3e da 0e 83 be
       -0.4837185 -0.27135077 0.3985664 -0.25597268
000060 09 db aa 3e 18 e5 07 bf cd 62 97 3e
       0.33370236 -0.53083944 0.29567567

conv6.bias f4 [3]
000000 9d b8 ad be 57 b9 24 3d 53 55 d9 3d
       -0.3392991 0.040215816 0.106119774

conv7.weight f4 [3, 3, 1, 3, 3]
000000 3b 74 a8 be 96 fb 0b be e7 84 87 be f8 a3 1a 3d
       -0.32901177 -0.13670191 -0.26468584 0.03775403
000010 93 30 87 be d3 36 66 3d 00 3e 7c bf 7d 12 bc 3c
       -0.26404247 0.05620463 -0.98532104 0.022958035
000020 73 65 8b bc b2 2e b9 be 95 30 ce be d4 13 9c be
       -0.017016148 -0.36168438 -0.4027144 -0.30483878
000030 c8 b8 e6 bd 87 d2 65 bd ed 27 ed bd 30 65 88 3d
       -0.11265713 -0.056108978 -0.11579881 0.06659925
000040 5d 27 30 be ce 31 e4 be 78 c9 97 be 18 5a 45 3e
       -0.17202516 -0.44569248 -0.29645896 0.1927265
000050 3d e0 56 be 2f 41 70 be f2 6a d1 be a8 34 74 bd
       -0.20983978 -0.23462366 -0.40901905 -0.05962053
000060 86 00 aa bd e0 ad 20 3d c5 63 67 bb e0 04 17 3e
       -0.08300881 0.03922832 -0.003530727 0.14747953
000070 23 a8 b7 be 88 ed b6 be ae b0 c8 3e 23 fc 7c be
       -0.35870466 -0.35728097 0.39197296 -0.24705558
000080 68 65 20 3c a6 88 a8 3d 05 e4 cb 3e 92 3e 17 be
       0.009789802 0.082291886 0.39822403 -0.14769962
000090 46 1a 0f 3f 45 d2 9e bb 5c 1a ad bd ab 6a 41 3e
       0.55899465 -0.0048468434 -0.08452293 0.18888347
0000a0 19 3c 2f 3e 83 c9 cf 3e 19 b1 6c be 79 42 a5 3c
       0.17112769 0.4058343 -0.23114432 0.020173298
0000b0 75 40 26 3e 2a 9a 61 bd 09 fc 0f 3e 9a 7a 01 be
       0.16235526 -0.055078663 0.14060988 -0.12644425
0000c0 91 f0 44 be 5a 64 1a be d3 c0 26 be 68 2d 6e 3e
       -0.19232394 -0.15077344 -0.16284494 0.23259509
0000d0 50 16 f9 be fe 7b f9 bd 47 05 e8 be 4b 3a dd 3d
       -0.48649836 -0.12181853 -0.45316526 0.10802134
0000e0 7f a5 1f be 37 f1 4c be b4 5f d0 3e df bd e6 bd
       -0.15590475 -0.20013891 0.40698016 -0.11266684
0000f0 37 66 89 bc 1f ef 87 3e c1 60 ab 3b d8 d1 10 bf
       -0.016772373 0.26549622 0.00523004 -0.56570196
000100 86 0a b8 be 36 02 93 bd ef a9 94 ba 4a 83 0f 3b
       -0.3594553 -0.07178156 -0.0011342148 0.0021898323
000110 9d 11 90 be ef 96 ce be a1 97 fd bd f7 a7 da bd
       -0.28138438 -0.40349528 -0.123824365 -0.10676568
000120 7c 2c a1 3e 5c 15 8f ba 9c d1 9b 3e e6 89 85 3e
       0.3147925 -0.00109164 0.30433357 0.2608177
000130 a6 27 62 3e 9d bc e2 3d 96 95 26 3e 6b d8 1f be
       0.22085437 0.110711314 0.16268 -0.156099
000140 af 0f 7e 3e
       0.2481067

conv7.bias f4 [3]
000000 73 1d 21 be 40 0f 8a 3d 3e f8 1d 40
       -0.1573389 0.0674119 2.4682765

conv8.weight f4 [3, 3, 3, 1, 1]
000000 5c 3e 99 bb e6 18 8f be 3d 5a fa 3e 31 f0 0d 3f
       -0.0046766233 -0.27948684 0.4889697 0.5544463
000010 a7 70 53 3e 99 91 6d 3c 0b 8c 1f bf 4a c7 c9 be
       0.20648442 0.014500045 -0.62323064 -0.39409858
000020 f3 a5 1a 3d ea ff b9 bd 6d 09 17 3f 8e 40 39 bf
       0.037755918 -0.09082015 0.5899876 -0.7236413
000030 19 6c 14 3f a1 a1 59 3e 61 9d 1d 3c bd 97 41 bf
       0.57977444 0.21253063 0.009620042 -0.7562216
000040 fe 99 db be 36 e0 5b 3b c3 20 22 3e f2 43 ad 3e
       -0.42890924 0.0033550388 0.1583281 0.338409
000050 ab 83 9a 3b 3b d0 11 3f e6 b5 5c 3e 37 34 a3 3c
       0.004715403 0.5695836 0.21553764 0.019922359
000060 2d 4f 55 bf 2f 9c df be 03 35 1b 3d
       -0.8332394 -0.43673846 0.037892353

conv8.bias f4 [3]
000000 50 dd 9c c0 89 ae 5e bf d7 eb 8a 40
       -4.9020157 -0.8698507 4.341289
