saved_model_2/upsample_at_location_4.pt (torch, 7314 bytes, 16 tensors)

conv1.weight f4 [3, 3, 1, 3, 3]
0.6626443 -0.073216215 -0.25818303 -0.20126723 0.18564372 0.50263685 -0.6283428 0.074777186
-0.04354746 0.01684479 0.2612517 -0.12125538 -0.058805123 0.25093544 0.14607652 0.13128494
-0.44240895 0.18386911 0.33806083 -0.44971982 -0.09627085 0.044861324 0.5117254 0.28999925
-0.09160365 0.22677824 -0.5947336 0.4142715 -0.06953546 0.16679026 -0.44325253 0.08981915
-0.57977164 0.302765 -0.03348519 0.3387219 -0.14496517 0.20886241 0.3573724 -0.11967038
-0.15938967 -0.10722528 0.17144844 0.09636112 -0.2605853 -0.09007621 0.19149888 0.39322948
0.06448822 -0.426993 -0.1667741 -0.09750432 0.22551282 0.08732725 0.3655911 0.3448243
-0.23034234 -0.29197735 0.27900153 -0.21312226 0.20745456 0.16342624 -0.05465919 0.88719857
-0.08668098 0.39104438 -0.19379285 0.18725078 -0.29576358 -0.2640631 0.015416529 -0.15458438
-0.017330926 0.39100307 0.12968735 0.04654849 -0.08059658 0.25584295 0.27061343 -0.37518826
-0.02770441
00000000: 0fa3 293f 62f2 95bd 9130 84be ff18 4ebe
00000010: 6319 3e3e cfac 003f 13db 20bf c824 993d
00000020: d25e 32bd 16fe 893c c8c2 853e be54 f8bd
00000030: a4dd 70bd 9c7a 803e 1595 153e 8f6f 063e
00000040: 6d83 e2be 2f48 3c3e 4f16 ad3e ad41 e6be
00000050: a729 c5bd 82c0 373d 7000 033f c87a 943e
00000060: b29a bbbd 8e38 683e 7640 18bf 651b d43e
00000070: 9b68 8ebd 11cb 2a3e fff1 e2be 1af3 b73d
00000080: ea6b 14bf 0404 9b3e c427 09bd f56c ad3e
00000090: c071 14be 07e0 553e 84f9 b63e bf15 f5bd
000000a0: 0c37 23be ed98 dbbd 2e90 2f3e fb58 c53d
000000b0: 706b 85be e079 b8bd 4818 443e 6055 c93e
000000c0: 6612 843d d49e dabe d4c6 2abe 58b0 c7bd
000000d0: d5ec 663e a1d8 b23d c22e bb3e d08c b03e
000000e0: ddde 6bbe 0e7e 95be 4ad9 8e3e b93c 5abe
000000f0: f86e 543e 3559 273e 51e2 5fbd 721f 633f
00000100: cc85 b1bd f836 c83e a271 46be abbe 3f3e
00000110: 536e 97be 4733 87be 9c95 7c3c 5e4b 1ebe
00000120: 96f9 8dbc 8e31 c83e c3cc 043e a1a9 3e3d
00000130: d20f a5bd d9fd 823e d88d 8a3e ad18 c0be
00000140: 5cf4 e2bc

conv1.bias f4 [3]
0.6440844 0.09676141 0.594803
00000000: b7e2 243f d92a c63d 0245 183f

conv2.weight f4 [3, 3, 3, 1, 1]
-0.37742501 0.6321457 0.36844027 0.27603027 -0.22760372 0.33802187 0.04448772 0.47882944
-0.07626322 0.11783038 1.058501 0.97221863 0.26418298 -1.3945987 0.520069 0.29216662
-0.22472079 -0.5969551 -0.09338034 0.6336409 0.32922217 0.5270997 -0.49526122 0.40809307
-0.14868176 1.1112868 0.06025831
00000000: da3d c1be 4dd4 213f 34a4 bc3e d753 8d3e
00000010: f310 69be 3411 ad3e c138 363d 2229 f53e
00000020: e42f 9cbd 0e51 f13d f67c 873f 52e3 783f
00000030: fe42 873e 3682 b2bf 3e23 053f dd96 953e
00000040: 351d 66be 0dd2 18bf 313e bfbd 4a36 223f
00000050: cf8f a83e 02f0 063f e192 fdbe 93f1 d03e
00000060: 0840 18be a53e 8e3f 6bd1 763d

conv2.bias f4 [3]
-0.71579164 1.3627622 0.6302035
00000000: 1f3e 37bf fe6e ae3f 0455 213f

conv3.weight f4 [3, 3, 1, 3, 3]
-0.31179947 0.06275772 -0.44813696 -0.23450284 0.1628916 -0.20059739 -0.09985081 -0.087555684
0.20011498 0.026267765 0.33989447 -0.09073592 -0.21602057 -0.1559904 -0.25858822 0.08191651
0.010952861 0.31797084 0.24454434 -0.1423638 0.0003298423 -0.036417577 0.23252401 0.39939398
-0.18934679 0.17098437 0.22885099 0.026642265 -0.40886548 0.1577713 0.5044123 0.15449318
-0.091885075 0.43313456 -0.40787044 0.09849974 0.09386022 -0.1674424 0.08206737 0.049818393
-0.08403915 0.25591585 0.08243699 -0.36115298 0.01087833 -0.11635922 -0.062223844 0.21579643
0.11743664 0.03014419 0.18481839 -0.08613793 -0.843245 0.10011974 -0.26278445 0.1402932
0.42700005 -0.038354617 0.083723746 -0.14697093 0.3063049 -0.15700631 -0.2360663 0.25477922
-0.20040314 0.09751462 0.084604576 0.4344943 -0.1586336 -0.09428306 -0.52291733 0.024968626
0.08360164 0.038392097 -0.10936495 -0.17995901 -0.1544194 0.013990714 -0.0599252 0.36967233
-0.21588938
00000000: 2ea4 9fbe 1f87 803d 3572 e5be 8321 70be
00000010: 0ecd 263e 6769 4dbe 957e ccbd 6550 b3bd
00000020: f1ea 4c3e 7f2f d73c a606 ae3e c1d3 b9bd
00000030: 7f34 5dbe f3bb 1fbe ad65 84be d8c3 a73d
00000040: a173 333c 13cd a23e d569 7a3e d1c7 11be
00000050: afee ac39 992a 15bd c61a 6e3e 5e7d cc3e
00000060: 20e4 41be 8716 2f3e ea57 6a3e e140 da3c
00000070: d156 d1be cd8e 213e 2a21 013f 7633 1e3e
00000080: 3e2e bcbd d0c3 dd3e 65d4 d0be 3bba c93d
00000090: c939 c03d 0576 2bbe f012 a83d 5f0e 4c3d
000000a0: b81c acbd 6707 833e bad4 a83d 0be9 b8be
000000b0: 063b 323c be4d eebd 6ede 7ebd bdf9 5c3e
000000c0: 9f82 f03d f3f0 f63c 0841 3d3e 1569 b0bd
000000d0: e8de 57bf 940b cd3d af8b 86be 05a9 0f3e
000000e0: c09f da3e bb19 1dbd 5b77 ab3d 8c7f 16be
000000f0: ffd3 9c3e 43c6 20be 5dbb 71be 6c72 823e
00000100: 7b36 4dbe bfb5 c73d 2a45 ad3d 0976 de3e
00000110: d970 22be 7a17 c1bd e9dd 05bf 018b cc3c
00000120: 5637 ab3d 0841 1d3d bbfa dfbd 2d47 38be
00000130: 1f20 1ebe 4f39 653c 2074 75bd b145 bd3e
00000140: 1b12 5dbe

conv3.bias f4 [3]
0.70911276 3.9274664 1.3269655
00000000: 6a88 353f 9c5b 7b40 01da a93f

conv4.weight f4 [3, 3, 3, 1, 1]
0.013669095 0.4635127 -0.0014053615 0.052943762 -0.55636966 0.21031608 -0.11812346 -0.08546808
-0.4116984 0.095642015 0.1566048 0.16913395 -0.01619168 -0.42404634 0.0764037 -0.13078207
0.15637812 0.008279029 -0.09836059 0.44375414 -0.19799684 0.14387271 -1.3173212 0.17456685
-1.7443582 0.386193 -1.1895628
00000000: 57f4 5f3c 8951 ed3e 1b34 b8ba 8fdb 583d
00000010: 3e6e 0ebf 195d 573e b6ea f1bd e409 afbd
00000020: 22ca d2be f6df c33d 025d 203e 7331 2d3e
00000030: 6aa4 84bc 9a1c d9be 8b79 9c3d bceb 05be
00000040: 9621 203e c4a4 073c 4771 c9bd be33 e33e
00000050: afbf 4abe 5e53 133e fb9d a8bf a7c1 323e
00000060: 2147 dfbf 17bb c53e 9843 98bf

conv4.bias f4 [3]
-0.2707704 1.3678552 1.8079948
00000000: 6ba2 8abe e115 af3f 606c e73f

conv5.weight f4 [3, 3, 1, 3, 3]
0.088639274 -0.13788947 -0.22470073 0.12914841 -0.07429753 -0.37588942 0.19660683 0.2681492
-0.8088164 -0.0109731 0.24621323 0.44874632 -0.032438077 0.2244778 -0.22272693 0.10693868
-0.4247276 -0.07074201 -0.020004768 0.07487202 -0.20250973 0.013816504 0.009186596 -0.05206875
0.09086928 -0.10002284 0.24291745 0.19450328 0.20109247 0.37747562 0.005246941 0.035911847
0.42067498 0.29735017 -0.06639814 -0.533015 -0.34235665 -0.50367236 -0.052866515 -0.01427141
0.5981185 -0.13129199 0.22653344 0.14184925 -0.25141096 -0.01489698 -0.079908006 -0.15009375
0.07901919 0.15495816 0.021215133 -0.12461 0.22073896 -0.042943373 -0.5137176 0.33930534
0.41676667 0.18816265 -0.28781494 -0.15886338 -0.31313702 -0.10045042 -0.37665382 0.09808913
0.2957423 0.4116539 -0.08528023 0.35484722 -0.16857865 0.034899767 -0.054434147 0.3893832
0.41233835 0.22154912 -0.320747 -0.53672767 -0.112783715 -0.006428881 0.13562793 0.11722051
0.26503965
00000000: 8288 b53d e632 0dbe f317 66be 7b3f 043e
00000010: 4e29 98bd 9474 c0be 4d53 493e da4a 893e
00000020: 970e 4fbf 84c8 33bc 521f 7c3e 14c2 e53e
00000030: cadd 04bd 82dd 653e 8712 64be ab02 db3d
00000040: e575 d9be 30e1 90bd 0ae1 a3bc 8056 993d
00000050: b65e 4fbe 9e5e 623c 6083 163c 0b46 55bd
00000060: ac19 ba3d c6d8 ccbd 5abf 783e de2b 473e
00000070: 2feb 4d3e 7c44 c13e 88ee ab3b 4d18 133d
00000080: b662 d73e 483e 983e bffb 87bd ac73 08bf
00000090: 5f49 afbe acf0 00bf 8f8a 58bd a2d2 69bc
000000a0: 4b1e 193f 6871 06be 62f8 673e ee40 113e
000000b0: f0b8 80be 7612 74bc cfa6 a3bd 2db2 19be
000000c0: d0d4 a13d 5aad 1e3e 5ccb ad3c 8733 ffbd
000000d0: 6509 623e 64e5 2fbd ff82 03bf 6eb9 ad3e
000000e0: 7162 d53e b6ad 403e 7b5c 93be 15ad 22be
000000f0: 7f53 a0be f3b8 cdbd c5d8 c0be f4e2 c83d
00000100: 896b 973e 4dc4 d23e 67a7 aebd 89ae b53e
00000110: e29f 2cbe 0ff3 0e3d 57f6 5ebd 3c5d c73e
00000120: 031e d33e c6dd 623e f338 a4be fc66 09bf
00000130: 26fb e6bd 5da9 d2bb 0ce2 0a3e 4f11 f03d
00000140: 47b3 873e

conv5.bias f4 [3]
4.5765986 0.29977578 2.4836493
00000000: 7f73 9240 367c 993e 1cf4 1e40

conv6.weight f4 [3, 3, 3, 1, 1]
0.039334837 -0.8028533 0.37282923 0.15476729 0.4713472 0.39015716 0.031205334 -0.9733496
0.320701 -0.283431 -0.81741315 -0.6163726 0.47459927 -0.061005443 -0.42704138 0.6760927
-0.57353085 0.54104865 -0.11210982 -0.4561961 -0.35384542 0.21363968 1.3851353 -0.2442289
0.23161286 -0.24035367 0.17239633
00000000: 911d 213d cb87 4dbf 79e3 be3e 517b 1e3e
00000010: 6c54 f13e aec2 c73e 54a2 ff3c 702d 79bf
00000020: ec32 a43e de1d 91be fd41 51bf 98ca 1dbf
00000030: adfe f23e d8e0 79bd 2ba5 dabe 6914 2d3f
00000040: ebd2 12bf 2a82 0a3f d599 e5bd 8992 e9be
00000050: 3a2b b5be 5cc4 5a3e 1d4c b13f 2417 7abe
00000060: ec2b 6d3e 461f 76be aa88 303e

conv6.bias f4 [3]
-0.8956157 -2.415634 2.7167306
00000000: 1247 65bf bf99 1ac0 eade 2d40

conv7.weight f4 [3, 3, 1, 3, 3]
0.40446216 0.12393733 0.20911072 -0.2985982 0.47902584 0.0443088 0.2645566 0.46635228
-0.062314894 -0.41112155 -0.2027469 0.12950952 -0.20841753 0.3469792 -0.36378515 0.6033161
0.19791028 -0.33291313 0.31593683 0.0018380637 -0.24803226 0.16505533 0.33729964 0.072509535
0.3535171 0.19731478 0.7850828 0.35378432 0.60360134 -0.5236475 -0.27629814 0.33495083
0.30537173 0.4058005 0.46664354 0.01989384 -0.48594016 0.060801666 -0.05774007 0.2720426
0.14711748 -0.2766959 0.23550801 0.21010607 -0.32453978 0.2895397 0.07093481 -0.21547061
0.1580091 -0.1427217 0.8048151 -0.53651977 -0.0498375 0.1969644 -0.24254213 0.30347368
0.30027893 0.15716887 0.09433419 0.10904248 0.3842868 0.3929228 -0.20870095 -0.18123522
0.33052954 -0.029401943 0.113561146 -0.34711707 0.010080211 0.41343504 -0.13552278 0.05814041
-0.05135564 -0.13983138 0.06408593 0.24284056 -0.053441435 0.086245805 -0.37818345 -0.06865047
-0.016639166
00000000: aa15 cf3e dbd2 fd3d 1f21 563e dde1 98be
00000010: e042 f53e 257d 353d f673 873e bac5 ee3e
00000020: e73d 7fbd 867e d2be e29c 4fbe 259e 043e
00000030: 686b 55be 42a7 b13e 0c42 babe ed72 1a3f
00000040: fea8 4a3e 9773 aabe 79c2 a13e 2feb f03a
00000050: 2bfc 7dbe 4404 293e 8ab2 ac3e e17f 943d
00000060: 3100 b53e e30c 4a3e 30fb 483f 3823 b53e
00000070: 9e85 1a3f c30d 06bf f376 8dbe ad7e ab3e
00000080: af59 9c3e 15c5 cf3e e7eb ee3e 68f8 a23c
00000090: 26cd f8be 2b0b 793d da80 6cbd 2b49 8b3e
000000a0: f7a5 163e 16ab 8dbe 0329 713e 0c26 573e
000000b0: 142a a6be 8c3e 943e 4546 913d 54a4 5cbe
000000c0: 23cd 213e a325 12be 5d08 4e3f 5c59 09bf
000000d0: 6822 4cbd 09b1 493e f75c 78be e760 9b3e
000000e0: 29be 993e e0f0 203e 4932 c13d aa51 df3d
000000f0: 3dc1 c43e 2d2d c93e b4b5 55be ba95 39be
00000100: 2b3b a93e 58dc f0bc bf92 e83d 54b9 b1be
00000110: 7827 253c c2ad d33e 7cc6 0abe a324 6e3d
00000120: 4b5a 52bd f52f 0fbe 7c3f 833d 32ab 783e
00000130: 68e5 5abd a4a1 b03d 43a1 c1be 9e98 8cbd
00000140: dc4e 88bc

conv7.bias f4 [3]
0.9112712 -1.0524354 -4.071577
00000000: 1249 693f 34b6 86bf 5c4a 82c0

conv8.weight f4 [3, 3, 3, 1, 1]
0.115471534 0.4116466 0.050750747 -0.30264983 0.7076429 -0.07757973 0.26955146 -0.18353252
0.4406734 -0.09478252 0.5663123 0.18113418 0.24432208 0.15840065 -0.14676498 -0.26565087
0.7551687 -0.41924235 -0.11222425 0.76269686 0.036027983 0.049534366 0.15260345 0.042507023
0.5886072 -0.8852351 -0.04972173
00000000: 577c ec3d 58c3 d23e 04e0 4f3d ebf4 9abe
00000010: 1628 353f 1fe2 9ebd a602 8a3e f3ef 3bbe
00000020: f29f e13e 561d c2bd d8f9 103f 3d7b 393e
00000030: 912f 7a3e c833 223e 8f49 16be 6403 88be
00000040: bc52 413f efa6 d6be d4d5 e5bd 1a40 433f
00000050: 1492 133d 8ce4 4a3d 1444 1c3e d81b 2e3d
00000060: f6ae 163f c49e 62bf 03a9 4bbd

conv8.bias f4 [3]
-2.9347265 -0.57508427 2.957806
00000000: 8fd2 3bc0 b938 13bf b24c 3d40
