saved_model_2/upsample_at_location_0.pt (torch, 7314 bytes, 16 tensors)

conv1.weight f4 [3, 3, 1, 3, 3]
000000 50 df 0a bd b8 0c c9 3e 43 dd 22 3d c4 6c 55 bc
       -0.033904374 0.39267516 0.039761793 -0.01302642
000010 dd d1 39 3e 4b 1a a6 3e c1 7b 58 3e 21 ca 9a be
       0.18146463 0.32441935 0.21140958 -0.30232337
000020 ce b2 79 3d 28 ce bf bd 6b 5a c7 3c 33 83 cc bd
       0.060961537 -0.09365493 0.024335107 -0.09985962
000030 d9 a1 06 3f 80 c2 4f bc 6f 1e 83 bc 77 74 40 be
       0.5259071 -0.01268065 -0.016005723 -0.18794428
000040 d9 98 02 be 6a 6b f5 bd 07 3d 19 3d 13 53 68 be
       -0.12753619 -0.11983378 0.037411716 -0.2268794
000050 37 0e 32 3f ab 32 cb 3d 0d 50 f3 be bd 85 c6 3e
       0.6955294 0.099217735 -0.4752201 0.3877391
000060 d2 8f b2 be 5b 3d 59 3c b2 aa bc bd fe 08 c1 be
       -0.3487535 0.013259257 -0.09212245 -0.37702173
000070 36 30 95 3e 11 61 13 3f 82 8b b2 be 08 3f 14 be
       0.29138345 0.57569987 -0.3487206 -0.1447717
000080 8b 72 26 be de 0c a5 3d 0b d2 c0 be 18 df 0b 3f
       -0.16254632 0.08059095 -0.3766025 0.5463729
000090 10 f6 2d bd b9 43 50 bd f9 44 39 3e d4 66 52 be
       -0.04247099 -0.050845835 0.18092717 -0.20547038
0000a0 81 dc f6 bd cf eb 5a 3d 2c bf 90 3c 32 c2 b8 3e
       -0.120537765 0.05344754 0.017669283 0.3608566
0000b0 b3 38 7a 3e 85 75 15 3e ce 34 87 3e aa 26 12 3d
       0.24435692 0.14595611 0.26407474 0.035681404
0000c0 fc c1 98 be 7d 7d 4c be 08 b9 34 3e e7 98 ab be
       -0.29835498 -0.19969745 0.17648709 -0.33515093
0000d0 95 e5 8a 3e b0 36 9c 3e 64 7d 06 3e 96 79 69 3e
       0.27128282 0.30510473 0.1313377 0.22800288
0000e0 e7 50 73 bd a3 d6 8c 3c 1e 08 4b bd ab 51 ce be
       -0.059403326 0.01719219 -0.049568288 -0.40296683
0000f0 93 1f 4d be 55 2b 51 3e fc d5 ec 3d a7 48 08 3e
       -0.20031576 0.20426686 0.11564252 0.13308965
000100 93 df 45 bf 55 45 3e bf 9e 7c b2 3e c5 be b9 be
       -0.7729427 -0.7432454 0.348607 -0.36278358
000110 2d a3 6c 3e 99 f4 fa 3e 9d 7f e1 3d ee ea 14 3e
       0.23109122 0.49014738 0.110106684 0.14542744
000120 23 9d 1c be f0 1c c6 be 6a a1 c1 be d8 4a 16 3f
       -0.15294318 -0.38693953 -0.37818462 0.5870795
000130 5b 8e 29 be 04 91 66 be 49 90 55 bd ea 75 65 3e
       -0.1655821 -0.22516257 -0.052139554 0.22408262
000140 5f 2e 8d 3e
       0.2757444

conv1.bias f4 [3]
000000 ee 8b 75 3f bc 3c 6d 3f c9 5a a3 40
       0.9591664 0.926708 5.104832

conv2.weight f4 [3, 3, 3, 1, 1]
000000 27 0e 45 be f3 83 49 3e 6b a3 95 be d9 48 04 bf
       -0.1924368 0.19679241 -0.2922624 -0.51673657
000010 87 d5 a6 3e cd e9 0f bf cb ee 09 3f cb a4 1d bf
       0.32584783 -0.56216127 0.53879994 -0.6157958
000020 a3 b1 bd 3e a4 b7 94 3c f5 a2 0d be 62 1b c8 3d
       0.3704959 0.018153973 -0.13831694 0.09770848
000030 af e8 32 bd 38 86 82 be fc a7 d3 be 61 2a eb 3e
       -0.043678936 -0.25493026 -0.413391 0.4593077
000040 35 8b 7b 3f 12 7b 63 3e 09 69 a2 3d d4 db 73 3e
       0.9825929 0.22214916 0.0793019 0.23814327
000050 f8 86 7a 3d 4c a8 5c 3e cb ef 27 3f 57 f9 44 3e
       0.061163872 0.21548575 0.6560027 0.1923574
000060 04 ee 6b bd b5 95 65 be 83 33 60 bd
       -0.057600036 -0.2242039 -0.054736625

conv2.bias f4 [3]
000000 2b 10 39 c0 53 a7 98 40 8f 0f 6e 3f
       -2.8916118 4.7704253 0.9299249

conv3.weight f4 [3, 3, 1, 3, 3]
000000 09 82 9b bb 05 ab 43 3e db fb 7a be 1b f9 09 bf
       -0.004745726 0.19108208 -0.24510138 -0.5389573
000010 82 13 03 be d1 f4 0b 3e 76 b0 7f 3d 9e 1c 8b be
       -0.1280041 0.13667609 0.062424146 -0.2717027
000020 12 98 a7 be 21 88 ad be c4 a5 b7 3e b8 54 2a bf
       -0.32733208 -0.3389292 0.35868657 -0.6653552
000030 7e 84 b6 bc 35 37 5f 3d e9 5a 08 3f 5d 1a 02 be
       -0.022279974 0.05449601 0.5326372 -0.1270537
000040 60 c3 bc bd 33 83 e5 be 00 92 f7 3d 70 de 72 be
       -0.09216952 -0.4482666 0.12088394 -0.23717666
000050 c2 47 3b be c9 65 76 be e3 8a 83 be 88 25 72 3e
       -0.18289092 -0.24062265 -0.256919 0.2364713
000060 a8 17 bb be 67 0e a8 be ec a1 04 bf 3d 50 05 3f
       -0.36541486 -0.32823488 -0.51809573 0.5207556
000070 b4 cc 7e be 8d 83 e5 3e c9 24 9f be 32 95 7f 3e
       -0.24882776 0.44826928 -0.31082752 0.24959257
000080 2f fb 58 3e ec d6 af 3e 0d 24 03 bf 84 d3 66 bf
       0.21189569 0.3434366 -0.51226884 -0.901665
000090 91 b6 6f be 16 b6 2c bf a0 de dd 3e 55 75 cc 3e
       -0.23409487 -0.6746534 0.43333912 0.39933267
0000a0 d6 68 07 bf f7 7f 03 3f dc 25 49 bd 08 20 0d bf
       -0.5289434 0.51367134 -0.04910837 -0.55127
0000b0 d0 15 14 3f 30 43 9c 3c 98 b6 c4 3e f9 52 4a 3e
       0.57845783 0.019075006 0.38420558 0.19758214
0000c0 dc 75 bf be 53 f8 0f bd 41 ae 0e 3e 46 76 cf 3d
       -0.37394607 -0.03514893 0.1393366 0.10129981
0000d0 bb 99 45 be 83 6b f7 be d0 37 a6 3e e4 21 14 be
       -0.19296925 -0.48324212 0.32464457 -0.14466053
0000e0 a5 10 73 3d 2c 5e 8b bd a6 12 9b 3c cc 0a fd bb
       0.059342045 -0.06805071 0.01892979 -0.0077222344
0000f0 64 d4 31 3d 82 ec 9a 3d b9 e7 8b bd 7b 96 16 bc
       0.043415442 0.075646415 -0.06831307 -0.009191151
000100 5b 89 57 3d 29 62 79 be 7f c1 3e 3d 04 fe 0a bd
       0.052621227 -0.24353851 0.04657125 -0.033933654
000110 9c 51 18 3e 82 fe d8 bd 06 30 ef 3d fc 76 bd bd
       0.14874882 -0.105954185 0.116790816 -0.0925121
000120 e2 9b a2 3e 76 78 b2 3e 0f f1 db bd e5 a2 c1 bd
       0.31759554 0.3485753 -0.10739338 -0.09454898
000130 31 7e 80 3e 28 88 06 bf d3 20 2c be 56 f1 16 3e
       0.25096276 -0.5255151 -0.16809396 0.147405
000140 97 36 aa 3d
       0.083111934

conv3.bias f4 [3]
000000 dc d2 88 3c b2 95 4f 3e 99 85 82 3f
       0.016702108 0.20271948 1.0197021

conv4.weight f4 [3, 3, 3, 1, 1]
000000 e5 02 32 3f d6 48 09 bf 80 17 8a be fc fb 78 3d
       0.69535667 -0.53626764 -0.26971054 0.060787186
000010 69 71 56 3d 78 3e 06 3e de 8c c0 be 6b f5 57 3f
       0.05235425 0.13109767 -0.37607473 0.84358853
000020 ea 2d 15 3f b0 e8 57 be 25 2c 18 bc 0a 44 fa be
       0.58273184 -0.21084857 -0.009287869 -0.48880035
000030 db 63 ba 3d 7c 4b ab 3e e1 fd ca 3c 3d c8 b0 3e
       0.09101077 0.33456028 0.024779262 0.3452777
000040 3d 5a c6 be 5c f1 b2 3e 7d b9 12 3f ef 94 d8 3e
       -0.3874072 0.34949768 0.5731428 0.42301127
000050 d5 12 17 bf 61 46 85 3d a9 51 df bd 7e dc c9 be
       -0.5901311 0.06507564 -0.10904247 -0.39426035
000060 41 2c 05 3f ca 44 b9 3e 41 1d 5b 3e
       0.5202065 0.36185294 0.21397878

conv4.bias f4 [3]
000000 65 78 14 3f c5 6f b7 3e a5 8a d4 3e
       0.5799621 0.3582746 0.41512027

conv5.weight f4 [3, 3, 1, 3, 3]
000000 61 68 0b bd ea a1 e8 bd 8f 23 11 be 3e fb ad be
       -0.03403509 -0.11359008 -0.14173721 -0.33980745
000010 1e 0a e5 3d a2 1c 04 3f a2 34 5d 3e 75 35 08 3e
       0.1118357 0.5160619 0.21602109 0.13301642
000020 0a 2c 21 3e d6 dd c2 3e e1 d5 eb bd af 67 01 3f
       0.15739456 0.38059872 -0.115154035 0.50548834
000030 de 42 fa 3e 84 3d be be 97 85 9a 3e 1c d8 b1 be
       0.4887914 -0.37156308 0.30180046 -0.3473519
000040 21 73 ae 3d 30 df e3 be a0 fb 56 bd d6 52 93 3d
       0.08518053 -0.44506216 -0.052486062 0.07193534
000050 0d 63 07 be 0a 72 95 3e 4b ea 33 3e c8 48 6e 3d
       -0.13221379 0.29188567 0.17569844 0.05817488
000060 fe 18 d9 3e fb 36 8d 3e cc 67 55 be 63 40 e2 3e
       0.4240188 0.2758101 -0.20840377 0.44189748
000070 07 d3 8e 3e 08 cb 79 3c 24 8a ae be e8 0b 44 bc
       0.27895376 0.01524616 -0.34089768 -0.011965729
000080 ef ed d0 bd 0b 1b 9a be 74 e0 5e 3e 1f 44 f1 bd
       -0.10201632 -0.30098757 0.2176531 -0.11780571
000090 24 56 dc 3e 2f a3 c0 3e b6 56 be 3c 9c 99 56 3f
       0.4303447 0.376245 0.023234706 0.8382814
0000a0 dc 0a e1 3e a6 b6 72 3e 81 6b c3 3e d2 cd 92 3f
       0.43953598 0.23702487 0.38167956 1.1469061
0000b0 fc 8f 56 3e 49 f3 dc bc f7 c5 ce 3d e7 ca 1d 3e
       0.20953363 -0.026971476 0.100963525 0.15409432
0000c0 06 30 05 3d e2 b6 b8 3d 37 11 c1 3d 48 75 8b bd
       0.0325165 0.09019257 0.094271116 -0.06809479
0000d0 db 0d 8a 3d ac 33 25 bf ae cb 20 3e b5 5b ee bc
       0.06740924 -0.6453197 0.15702698 -0.029096464
0000e0 95 86 79 be 05 94 bd 3e 9c 8c f3 3d c3 46 e8 3d
       -0.24367745 0.37026992 0.118920535 0.11341622
0000f0 39 34 77 3e a2 35 bd bb b8 26 18 bd 2c 27 b7 3d
       0.24141015 -0.005774216 -0.0371463 0.08943018
000100 76 a5 06 bd 58 6a ef 3c 23 44 e0 3e 87 c2 eb be
       -0.03287264 0.029225513 0.43801984 -0.4604685
000110 93 3f a0 be 49 8f 0a 3e d9 85 30 be 4b 8f c2 3e
       -0.31298503 0.13531221 -0.17238559 0.3799995
000120 e9 3e 5b be c7 42 c0 be 5a a2 eb bd d6 27 4e 3e
       -0.21410717 -0.37550947 -0.115055755 0.20132384
000130 bb 16 94 bc 4d 0e 9d 3e d6 09 85 bc 27 76 9b bd
       -0.018077245 0.30674973 -0.016240042 -0.07590895
000140 b3 81 29 3e
       0.16553383

conv5.bias f4 [3]
000000 84 d5 08 3f ef b0 54 3f ee 98 85 3d
       0.534508 0.8308248 0.0652331

conv6.weight f4 [3, 3, 3, 1, 1]
000000 36 0a 00 bf 9f b2 30 bc 56 64 37 3f 36 f7 cb be
       -0.5001558 -0.010784774 0.71637475 -0.39837044
000010 15 98 cf 3e 3d 92 bb be db 60 1a 3f e4 db c0 3e
       0.40545717 -0.36635008 0.6030404 0.37667763
000020 74 f3 a9 3d 55 5d b5 3d 2e 44 63 3e e0 f5 c7 be
       0.08298388 0.08855692 0.22193977 -0.39054775
000030 62 89 53 be b9 cf 17 3f c2 fc b7 bd 8c 59 2e bd
       -0.20657876 0.59301335 -0.089837566 -0.042565867
000040 93 f7 4e 3e 6a 61 ab 3e b1 76 a5 3f e4 e2 c2 3e
       0.2021163 0.3347276 1.2926847 0.3806373
000050 20 7c 74 3e fc 66 05 bf 13 6d b5 bf 20 f1 57 3b
       0.23875475 -0.52110267 -1.4173912 0.0032950118
000060 57 c8 2a 3d 3b 5f 46 3f 58 c2 37 3e
       0.041694965 0.7748906 0.1794523

conv6.bias f4 [3]
000000 d6 b0 0c c0 d9 9c b5 3d 5f 00 3f 3f
       -2.1982932 0.08867807 0.7460994

conv7.weight f4 [3, 3, 1, 3, 3]
000000 55 fe 89 be cd 30 ee bd 13 4c d5 3e bd 53 63 3e
       -0.26951852 -0.11630402 0.41659603 0.22199912
000010 2b c1 11 3c 80 71 6b 3e a1 38 45 3e 6f 91 83 bd
       0.0088961525 0.22992516 0.19259883 -0.06424224
000020 a7 5b 19 bf 76 30 49 3e 01 2f 51 3e 38 d1 82 3d
       -0.59905475 0.19647393 0.20428087 0.063875616
000030 80 87 e9 bd e8 3a 95 3c d0 48 4a bc e9 72 8a 3e
       -0.11402798 0.018216565 -0.012346461 0.27040794
000040 b8 97 d5 bd 64 3d 44 be 0b cb 7c be 45 3b 92 3e
       -0.10429329 -0.19164044 -0.2468683 0.28560844
000050 8e b6 9a 3e f7 ac 00 3e aa 61 1e be 25 83 ab 3e
       0.30217403 0.12565981 -0.15466943 0.33498493
000060 e2 3e de 3e 24 75 5d 3d 32 09 9a be e9 60 15 3e
       0.4340735 0.054066792 -0.3008514 0.1458775
000070 0d dc eb 3e f7 02 79 bd d0 4b 13 be f5 0a e6 3e
       0.46066323 -0.060793843 -0.14384389 0.44930235
000080 e1 62 c2 be 27 07 b3 be bd 98 99 3d 41 fe c9 be
       -0.37966064 -0.34966394 0.07499836 -0.39451793
000090 40 69 dd 3e 85 35 05 3f f1 bb ba 3c 20 93 d6 bc
       0.43244362 0.5203479 0.022794696 -0.026193202
0000a0 b5 38 90 be 30 97 5e 3e 24 68 1d 3b 97 ab 1e bf
       -0.28168264 0.21737361 0.0024018371 -0.61980575
0000b0 3c b4 e5 3d ca 0a d8 3e de da 6e 3d cb e4 96 be
       0.112160176 0.4219573 0.058314197 -0.2947143
0000c0 5c 93 5d 3e 5d 48 a4 3e 29 79 02 3f 36 92 21 be
       0.21638244 0.3208646 0.50966126 -0.15778431
0000d0 5b 95 06 3d 3a 6b bd 3e c9 77 9a 3d 79 81 d8 be
       0.03285728 0.3699587 0.075423785 -0.4228628
0000e0 c7 8a 62 3d bb bc 97 3d c0 36 c1 3d 2c f2 c3 3d
       0.05530813 0.07409044 0.09434271 0.09567675
0000f0 f1 33 0d bf 8f bd 09 3e 29 12 df 3e 4b b0 e8 be
       -0.5515738 0.13451217 0.43568543 -0.45447
000100 46 97 66 bf 15 ee 14 bf 6a 8a 93 3e 10 c6 e9 3e
       -0.90074575 -0.58175784 0.2881654 0.45658922
000110 90 db d7 3e 96 6a 90 3f a6 e7 4c 3e 89 e6 41 3f
       0.421597 1.1282527 0.20010242 0.75742394
000120 1b 44 38 be da a8 1e 3f 37 92 2d 3e f0 86 2a bd
       -0.1799473 0.619764 0.16950308 -0.041632593
000130 29 2b e2 3e 33 99 db be 1a bb 06 bf a9 2e 0f be
       0.44173554 -0.4289032 -0.52629244 -0.13982643
000140 de 05 c0 bc
       -0.023440298

conv7.bias f4 [3]
000000 a1 fb 5c c0 81 75 6c 3f b5 5c c2 40
       -3.4528582 0.92366797 6.073817

conv8.weight f4 [3, 3, 3, 1, 1]
000000 ff ad 85 3e da cd f8 bd 67 bc 60 3f de 30 20 be
       0.2610931 -0.12148638 0.8778748 -0.15643641
000010 bc ee 76 3f fb 4d d2 bd 48 95 88 3e 73 3d 3e bf
       0.9645803 -0.1026878 0.26676393 -0.74312514
000020 d1 81 0f 3e ac 84 c6 3e 3e d2 81 3f bc 15 e9 be
       0.14014365 0.38773096 1.0142286 -0.45524395
000030 de 67 5f be 21 c4 a9 3e 21 1a 26 3f c7 68 9c 3e
       -0.21816966 0.33157447 0.6488362 0.3054869
000040 95 ac 7b bf e1 9a c2 3e 05 23 34 be 8c 49 f4 3e
       -0.98310214 0.38008788 -0.17591484 0.47712362
000050 8b c9 17 3e eb 58 fd 3d 14 37 0b 3f 93 33 bd 3e
       0.14822976 0.123704754 0.5438092 0.3695341
000060 0d 22 b6 3e 82 6e 82 bf 2a 39 c6 3e
       0.35572854 -1.0189974 0.38715488

conv8.bias f4 [3]
000000 4f 32 7b c0 f7 c0 f9 bd 44 6b 25 40
       -3.9249456 -0.12195008 2.584672
