saved_model_2/upsample_at_location_8.pt (torch, 7314 bytes, 16 tensors)

conv1.weight f4 [3, 3, 1, 3, 3]
00000000: 9c54 4f3c 5321 3cbe a9e7 9e3e d093 c23e
00000010: 9768 d63e 977f 323a 2eaa 4b3b d91b ea3c
00000020: e0ce 79bc cfb4 04be 4b16 00be 8286 5abb
00000030: 035b 8dbe f38e 803e 71e0 f33d f66d 12bd
00000040: 6968 503f b5b5 f23a 2a37 f43d a202 963d
00000050: 0475 bb3d 1c04 03be afb3 023f 04ba 73bd
00000060: 5701 9abe d196 a0bd b3c2 1cbd ddd8 833e
00000070: 3e49 63be 27f5 b33e 7321 a23d 9739 c1be
00000080: dff6 42bc 70f5 063e aeec ec3d 45a7 153e
00000090: e6c7 353e e4ec b3be 648f 0d3e 28cd b5bb
000000a0: e770 e8bd 2be6 8abe 7e72 373d 9435 f9bd
000000b0: da18 173f 2d07 1a3e 3604 763e d4fd 613d
000000c0: 4c57 39be ff6a adbe d877 143e df16 193e
000000d0: 35f4 bdbe 437d a73d 1ad4 b9bc aef8 21be
000000e0: a84c 423e e195 403e 6a81 953d 2f2c 363e
000000f0: cf4a 8dbc ff9b a13e 9c41 1b3c 88ea a1be
00000100: 3bd6 7e3e 91e3 97be d92c 843e 6d0a 81be
00000110: 4aab be3d 224b 173d a8cc 013d 1e1c d13e
00000120: a308 a73e c3b3 833e 1c45 993e 808d d83d
00000130: cae7 1a3e b89f 66be 87ed dcbe 1b04 95bc
00000140: 67c9 d93d
0.01265445 -0.18372087 0.31036118 0.38003397 0.4187667 0.00068091735 0.0031076777 0.028577732
-0.015247077 -0.12959598 -0.12508504 -0.0033344333 -0.276085 0.25109062 0.11908043 -0.0357494
0.8140932 0.0018517288 0.11924584 0.07324721 0.09153178 -0.12794536 0.51055425 -0.05950357
-0.30079147 -0.07841266 -0.038271617 0.2575139 -0.22195908 0.35147974 0.07916536 -0.3773925
-0.011899679 0.13179564 0.115685806 0.1461459 0.17752036 -0.3514167 0.1382423 -0.005548138
-0.113496594 -0.2712873 0.044786923 -0.12168422 0.59022295 0.150418 0.24025044 0.05517371
-0.18099707 -0.33870694 0.14498842 0.14950131 -0.37100378 0.08178189 -0.022684146 -0.1581752
0.18974555 0.18807174 0.073000744 0.17790292 -0.017247586 0.31564328 0.009476092 -0.31624246
0.2488641 -0.29665807 0.25815466 -0.25203267 0.093100145 0.036936887 0.031689316 0.40841764
0.32623777 0.25723085 0.2993554 0.10573864 0.15127483 -0.22521865 -0.4314997 -0.018190434
0.106341176

conv1.bias f4 [3]
00000000: aa7e 3a3f 2572 b83e f2e4 423f
0.72849524 0.36024585 0.7613059

conv2.weight f4 [3, 3, 3, 1, 1]
00000000: 6fc2 c93d 638e e33e 9c35 ac3e ae21 8e3c
00000010: c50c 39bf 2812 33bf bfb0 f4bd 1fee 4e3e
00000020: 1134 2d3d 9da5 ce3d ea6e 653e dbc0 a8be
00000030: 0e1e b03e 448e b9bc ff3f 36bd 51d5 5cbe
00000040: 64d4 543d 8529 c73e 9a9d 8fbd 1830 013e
00000050: ba7b 323e a439 b4be 2d6e 2abf e741 8abf
00000060: 4303 6e3e 08cf c03d dec3 ac3e
0.098515384 0.4444457 0.3363465 0.017350044 -0.7228511 -0.6994958 -0.11947774 0.20208023
0.042285983 0.10090182 0.22405592 -0.32959637 0.3439793 -0.022650845 -0.044494625 -0.21565749
0.051960364 0.38898864 -0.07012482 0.12616003 0.1743001 -0.35200226 -0.66574365 -1.0801362
0.23243432 0.09414488 0.33743185

conv2.bias f4 [3]
00000000: 3b5a e03e 5bac 033e d677 903f
0.4381884 0.12858717 1.1286571

conv3.weight f4 [3, 3, 1, 3, 3]
00000000: f70e 82bd 3522 91bd 68b1 a03c 5672 4bbe
00000010: 32b1 cc3e 7d27 4e3e 6cd4 a3be 35df dcbd
00000020: 4ef7 4dbe fd56 8b3c f089 b03c 4acf 9fbd
00000030: 638c bb3e 4913 3c3d 090b 4c3e 6425 183f
00000040: 7371 813d 4972 aabe 2818 9b3e fde4 02be
00000050: 666d bfbd 1f72 a03e f08b 07be 8cb7 e9bd
00000060: 7e3a 71bf fa50 4dbf 797d 603e 0962 5a3d
00000070: a1b3 a9bd 8a24 263e fb24 943c bc44 1e3e
00000080: 3e44 a5bd cab0 babd d3c6 a33d 75d1 86be
00000090: 4175 a8be 5662 843e 84b6 acbe a661 c4bc
000000a0: 3a0c 47bc 8719 debe 24d3 2bbe d727 c73e
000000b0: abb0 0a3f 2c2e d2bd 7de1 c43e 91aa 023f
000000c0: 5e0f 8d3d de6d a8be 500c 953d 339f 523e
000000d0: e55d 9dbd 0256 be3e b425 a53d 3311 6d3d
000000e0: 0963 bf3e cb0e 25be 278a 3a3d f703 573e
000000f0: 1cf2 4cbc 59a6 a83d dce9 53be a500 ea3c
00000100: 73e9 b73d df7d a03d 1505 113c 5097 a23e
00000110: 8f21 80be 3730 47be 8935 92be 91a6 e23e
00000120: b342 a7be 1a84 633e ad4a 15bd 5f81 453e
00000130: 2ef7 aebd dbb4 d83e b9cc c63c 7b20 793d
00000140: d48c 66be
-0.063505106 -0.070866026 0.019615844 -0.19867834 0.3997894 0.20132251 -0.31998003 -0.10784761
-0.2011387 0.017009253 0.021550149 -0.07803209 0.36630544 0.04591683 0.19926085 0.59432054
0.06320467 -0.33290318 0.30291867 -0.12782665 -0.09347038 0.31337067 -0.13236976 -0.11411962
-0.94229877 -0.80201685 0.21922864 0.05331615 -0.082862146 0.16224876 0.01808404 0.15455908
-0.08069657 -0.09115751 0.07996907 -0.26331678 -0.32901958 0.25856274 -0.33732998 -0.023972344
-0.012148911 -0.4337885 -0.16779763 0.38897583 0.54175824 -0.10262713 0.38453284 0.51041514
0.06887697 -0.32896322 0.07277739 0.20568542 -0.076839246 0.37174994 0.08063832 0.05787773
0.37380245 -0.16118924 0.04554191 0.20997606 -0.012508895 0.08234853 -0.20694679 0.02856476
0.08980074 0.07836508 0.008851309 0.31756067 -0.25025603 -0.19451986 -0.2855647 0.44267705
-0.32668075 0.22218361 -0.03644817 0.19287632 -0.085432395 0.42325482 0.024267541 0.06082199
-0.22514659

conv3.bias f4 [3]
00000000: 2661 fb3e 9c1b b3bd 916b 4f3e
0.49097556 -0.087455004 0.20255877

conv4.weight f4 [3, 3, 3, 1, 1]
00000000: 7533 8fbe 3930 f7be 8b89 ef3d 1cdd 6a3f
00000010: c7fc c93e 2c19 fdbe 4aad e33d cb16 6f3e
00000020: a8e0 c83e f574 3f3e 772f 8abd a927 5c3e
00000030: c67a 88be 295c 703e a3eb cabe 4c1d 28bd
00000040: 041b b13e 68e4 da3e 6a9e 2c3e 8a74 963e
00000050: ff5b 3abe de86 d9be b794 89bd 77bd 293e
00000060: 456b 873e 0622 663f e09c 97be
-0.27968946 -0.48278978 0.11696156 0.91743636 0.39450666 -0.49433267 0.11117037 0.23348539
0.392339 0.1869696 -0.067473345 0.21499504 -0.2665617 0.23472656 -0.39632902 -0.041043565
0.34590924 0.42752385 0.16857305 0.29385787 -0.18199156 -0.42485708 -0.06717818 0.16576181
0.26449028 0.89895666 -0.29611874

conv4.bias f4 [3]
00000000: b781 81bf 9d53 b93f 8b50 783e
-1.0117711 1.4478642 0.24249475

conv5.weight f4 [3, 3, 1, 3, 3]
00000000: 0674 313c 6fb6 07be ca74 613d 3d83 4abe
00000010: 7893 063f 641a af3e f288 3d3f 785a 48bf
00000020: a455 de3d 3582 3cbd ab81 39bf 93e0 79be
00000030: 642c 0e3f 17fe 55bd 7dc4 c53e 5385 893e
00000040: 01c6 243f 43d2 af3e 9af0 383c 61aa 483d
00000050: 8b98 493e 2d4a 97be e2cb efbc 8274 303e
00000060: 84f1 13bf f155 023d a7b4 a5bd 0e1a 343e
00000070: 295b 97bd f06c 0cbe 407f 863d 76a3 8f3e
00000080: 5a7b 6e3e 5eab b93c bb83 5dbe c8ba d63e
00000090: a369 15bd a9b0 d53d cac7 213e 440c 543c
000000a0: 60ae 9ebe d4b7 ccbe 6b35 883c 9d80 483e
000000b0: 6b8d 85be 179e 07bd 3a81 0bbe 0151 6b3e
000000c0: 6114 a73e b07c 10bf 3780 9a3e 3266 6cbd
000000d0: a557 e33a d19c 6f3e f9a5 91be 7276 c8be
000000e0: b9ef dc3e f63d b03e 90ab df3e 47ba 12bd
000000f0: 10df ed3e 2c57 5dbe 743b 11bd 18cc b83c
00000100: 3431 2abe 1df9 583d e562 fa3d 0f94 993d
00000110: 13e5 6bbe d491 033f 63db ed3e 88ab 013f
00000120: 7a8d 083e df1f e7bd 84b5 b2be cb3f 8ebe
00000130: 01f4 e63e f10b d13d b7ad 0a3e f795 b63e
00000140: fa56 80bc
0.010830885 -0.13253187 0.05504302 -0.19776626 0.5256877 0.34199822 0.74037087 -0.78263044
0.108561784 -0.046022613 -0.7246348 -0.24402075 0.55536485 -0.052244272 0.3862647 0.2685953
0.6436463 0.34340104 0.011287833 0.04899061 0.19687097 -0.2954878 -0.029272024 0.17231944
-0.577904 0.03182024 -0.08091097 0.17588064 -0.07390434 -0.13713431 0.0656724 0.28054398
0.23289242 0.022664722 -0.21632282 0.41939378 -0.036477696 0.10434086 0.1579887 0.0129423775
-0.30992413 -0.39984 0.016627034 0.19580312 -0.26084456 -0.03310975 -0.13623515 0.2298012
0.32632735 -0.5644026 0.30175945 -0.05771465 0.0017344846 0.23399664 -0.2844694 -0.39152867
0.43151644 0.34422272 0.4368558 -0.03582218 0.46459246 -0.21615285 -0.03545709 0.022558257
-0.16620332 0.052971948 0.12225894 0.07498943 -0.23036604 0.5139439 0.4645644 0.5065236
0.13335219 -0.11285376 -0.3490411 -0.27783045 0.45108035 0.10207356 0.1354283 0.3566129
-0.015666474

conv5.bias f4 [3]
00000000: 2924 bf3e 44f2 11be a7ca a6bd
0.37332276 -0.14252573 -0.081441216

conv6.weight f4 [3, 3, 3, 1, 1]
00000000: 46d0 d73d 3c85 73bd bcba f23e 4422 f2bd
00000010: 62fa e93d 5405 b43e c7ba 403e e91e 18bf
00000020: 2e55 c8be fd99 7dbe d443 daba 02f2 9c3e
00000030: 23b7 3dbe 4855 063f f3af 953f 89fc 46bd
00000040: 8f2c 483d e6ec 75be 378b 2fbe 197a 5a3c
00000050: 449c b2be c3b5 b63e 969e d3bd 0f22 24bf
00000060: 2a89 a8be 210b 3e3f 6b3e b33e
0.10537772 -0.059453234 0.47408092 -0.11822942 0.1142471 0.35160315 0.1882125 -0.59422165
-0.39127487 -0.24765773 -0.0016652294 0.30653387 -0.18526892 0.5247388 1.169432 -0.04858068
0.04887062 -0.24016151 -0.1714295 0.013334774 -0.34884846 0.35685548 -0.10332982 -0.6411447
-0.32917148 0.7423573 0.3500856

conv6.bias f4 [3]
00000000: c8b5 0540 54e8 7a3f 72fa 6bbe
2.08922 0.98010755 -0.23044756

conv7.weight f4 [3, 3, 1, 3, 3]
00000000: aed5 cdbf e76f 0fbf 9bce 2ec0 e9f4 02bf
00000010: 2735 913f 0ebf aebe e2e4 03c0 19a0 4cbf
00000020: d161 b1bf 7faa 30bc a94a 98bd 2a52 6cbe
00000030: d2f5 d73e c81c f83e 16d5 0b3e 4db6 e4be
00000040: 8ce9 0c3e 3a96 32be d8fa f53e 541d dabd
00000050: d60c 503e 41fb 023e 41c1 e33e 8ee2 733e
00000060: 1c34 953e e36e 19bc 2afb ef3e 0ba1 b6be
00000070: 3b88 f8be 4e73 28bf 9a77 fcbd c195 113f
00000080: cce9 6ebb 7228 8fbf b146 e6be 4bc6 83be
00000090: ea9e 3d3e 523e 073d 0703 70be 23a5 653e
000000a0: ec09 9c3e 6c34 c03d 5a61 ba3d 42dc c03d
000000b0: 40eb 403d 8566 dbbd f44f 203e 7e07 debe
000000c0: 948e 263e 9d7e 94bd 1e07 6b3e 1708 023e
000000d0: fdec c83b c18e a8bd 2ce6 efbe 85e2 6dbe
000000e0: f8fc df3d 486d 9a3e 765b 9d3e b601 12be
000000f0: 966d 6bbf 1afe 00be 75b7 56bf 2442 4cbe
00000100: 2c22 833d f236 eebc 77ec 053e f52c 8d3d
00000110: 0acd cf3d 2e2d 96be f267 fe3d 6a35 8fbe
00000120: 2593 7c3e 5174 b1bc 08e9 a13e 95fb 80bd
00000130: d247 913e a5a0 dd3d 78bf 343e da4d 2c3d
00000140: 55a0 563e
-1.6080835 -0.56030124 -2.7313602 -0.51154953 1.1344346 -0.34130138 -2.060845 -0.7993179
-1.3857976 -0.010782837 -0.07436115 -0.23078218 0.42179734 0.48459458 0.13655505 -0.44670334
0.13760966 -0.1744012 0.4804294 -0.10650125 0.20317397 0.12791158 0.4448338 0.23816893
0.2914132 -0.009364816 0.4687131 -0.3566974 -0.48541436 -0.6580094 -0.123275 0.5686913
-0.0036455272 -1.1184218 -0.44975808 -0.25737223 0.18517652 0.033018418 -0.23438655 0.22426276
0.3047632 0.09384999 0.091005996 0.09417011 0.047099352 -0.107129134 0.156555 -0.4336509
0.16265327 -0.07250712 0.22951934 0.12698399 0.006131767 -0.08230353 -0.46855295 -0.23230942
0.10936922 0.301615 0.30733842 -0.14258465 -0.9196409 -0.12596932 -0.83873683 -0.19947106
0.06403002 -0.029078934 0.13078485 0.068933405 0.1014653 -0.29331344 0.1242217 -0.2797044
0.24665506 -0.02166191 0.316231 -0.062979855 0.28375107 0.10821656 0.17651165 0.042066433
0.209596

conv7.bias f4 [3]
00000000: fec8 14bf 4289 1c3f 82a9 c3bf
-0.5811919 0.6114694 -1.5286105

conv8.weight f4 [3, 3, 3, 1, 1]
00000000: 1251 183f c5e3 833e 6a62 28be 7a4e 503e
00000010: ab07 0ebf babf a13e 94ca 023f cd0d 673e
00000020: 9e57 5f3e 4bd1 543f ce9a 5e3e b8f4 243e
00000030: c6d7 9d3b afe2 493e 50a9 45be 8262 073d
00000040: 687e 94be bf90 cebe af0e b73e 76e7 4dbe
00000050: f197 dc3c 6a73 2d3f 4d1d 253f a0e5 123c
00000060: fed0 003f 0781 223e 0d0c a0be
0.59498703 0.25759712 -0.16443792 0.20342436 -0.5548045 0.31591588 0.5109036 0.22563858
0.21810767 0.83131856 0.21738741 0.16108978 0.004816982 0.19715379 -0.19302869 0.03305293
-0.2900269 -0.40344808 0.3575339 -0.20107827 0.02692792 0.6775423 0.64497834 0.00896588
0.50318897 0.15869533 -0.31259194

conv8.bias f4 [3]
00000000: b30e b1bf ace8 bcbf 999a 0bbe
-1.3832611 -1.4758506 -0.13633193
