saved_model_2/upsample_at_location_2.pt (torch, 7314 bytes, 16 tensors)

conv1.weight f4 [3, 3, 1, 3, 3]
0	0x3ee40d88	0.44541574
1	0xbe30b26d	-0.17255564
2	0xbef1b0d5	-0.47205225
3	0xbec3ab07	-0.3821642
4	0x3ee8492d	0.4536833
5	0x3d95ffde	0.073241934
6	0xbedfff2e	-0.43749374
7	0x3f250e9f	0.64475435
8	0xbdce9a2a	-0.10087998
9	0x3d20a053	0.039215397
10	0xbd7e9852	-0.062156983
11	0xbd8b053c	-0.06788108
12	0xbe86d7ba	-0.2633646
13	0x3e81097d	0.2520255
14	0x3e828d9d	0.25498667
15	0xbb4a4c3c	-0.0030868193
16	0x3cbe02bc	0.023194663
17	0xbd5473e2	-0.051868327
18	0x3d0672ac	0.032824203
19	0x3e2294fb	0.15877144
20	0xbf3d35c8	-0.7391019
21	0xbe50bb36	-0.20383915
22	0x3ed828e2	0.4221869
23	0x3f18c7ad	0.5967968
24	0xbe86e364	-0.2634536
25	0x3e15da45	0.14634044
26	0xbdccbf2f	-0.09997403
27	0x3e364b0d	0.17802067
28	0x3e99363c	0.2992419
29	0xbec0b943	-0.37641343
30	0xbe2590ba	-0.1616849
31	0x3dc78ff0	0.09744251
32	0xbe176dc7	-0.1478797
33	0xbe4d2381	-0.20033075
34	0xbc714111	-0.014724986
35	0x3f171cdd	0.59028417
36	0x3d6f7af0	0.05846685
37	0x3d2b67ff	0.041847225
38	0xbdc5bd13	-0.09655204
39	0xbe87f680	-0.26555252
40	0x3d1fc634	0.03900738
41	0x3e1156ec	0.14193314
42	0x3b2e0526	0.0026553362
43	0xbdfa8f08	-0.12234312
44	0x3efb3083	0.4906045
45	0xbdfeeb65	-0.12447242
46	0xbe841d8f	-0.258038
47	0x395924b6	0.00020708409
48	0x3d3eb47c	0.046558842
49	0x3c0eadb6	0.008708408
50	0x3ec1bdec	0.3784021
51	0x3e28014e	0.16406748
52	0xbe32f5b7	-0.17476545
53	0x3e51b559	0.20479335
54	0xbe83b468	-0.25723577
55	0x3e9f35ee	0.31095833
56	0x3e6079e0	0.21921492
57	0xbe3cd8ba	-0.1844205
58	0x3dda4b57	0.10658901
59	0x3ce89198	0.028389737
60	0x3dbd7258	0.09250325
61	0xbe3cfc1c	-0.18455547
62	0x3f022887	0.5084309
63	0xbec7e288	-0.39040017
64	0x3e8eb1c4	0.2787
65	0xbec435aa	-0.38322192
66	0x3eb61548	0.3556311
67	0x3e745cb2	0.23863485
68	0x3efc04eb	0.49222502
69	0xbdb69804	-0.089157134
70	0xbba8ebdf	-0.005155071
71	0x3dea6a72	0.11446084
72	0x3ce743d6	0.028230589
73	0xbda3bc7f	-0.07994937
74	0x3d2b449a	0.04181347
75	0x3e75a449	0.23988451
76	0x3e48bdcf	0.19603656
77	0x3e66ad18	0.22526968
78	0xbed52f60	-0.41637707
79	0x3e139912	0.1441386
80	0x3e8893b5	0.26675192

conv1.bias f4 [3]
0	0xbf875ce4	-1.0575223
1	0x3ef0b068	0.47009587
2	0xbe7b1491	-0.24519564

conv2.weight f4 [3, 3, 3, 1, 1]
0	0x3de94c1a	0.11391468
1	0xbd9c1458	-0.07621068
2	0x3dce91ed	0.10086427
3	0x3ca8c20e	0.020600345
4	0x3e2f3ad3	0.17112283
5	0x3f3fc50d	0.7491005
6	0x3f05b1c2	0.5222436
7	0xbf0756b6	-0.52866685
8	0x3e707608	0.23482525
9	0xbe329aeb	-0.17441909
10	0xbcc268f8	-0.023731694
11	0xbe88e5d7	-0.26737854
12	0x3f02db4c	0.5111587
13	0x3ebb1494	0.36539137
14	0x3ec81318	0.39077067
15	0xbe050bcf	-0.12992786
16	0x3f95cfd5	1.170405
17	0xbd30b392	-0.04314
18	0x3d17ff82	0.037108906
19	0xbfe39861	-1.7780877
20	0xbdf4a80c	-0.11946115
21	0x3ef647e6	0.4810173
22	0x3f44ae45	0.76828414
23	0x3ea9df09	0.33177975
24	0xbe663a41	-0.2248316
25	0x3ef6dead	0.48216763
26	0xbdd28089	-0.102784224

conv2.bias f4 [3]
0	0x3d274ad9	0.040842865
1	0xbe825758	-0.25457263
2	0x3efe3071	0.49646333

conv3.weight f4 [3, 3, 1, 3, 3]
0	0xbe339124	-0.17535836
1	0x3df3a6ac	0.118970245
2	0xbecc52c1	-0.39906886
3	0x3ecfe8a8	0.4060719
4	0xbf1704ab	-0.589915
5	0xbdaeb93e	-0.08531426
6	0xbe029f48	-0.12756073
7	0x3ed15cee	0.40891212
8	0x3ee7319a	0.4515503
9	0xbdf9e1fa	-0.12201305
10	0x3d6536c5	0.055960435
11	0xbdee5c37	-0.11638682
12	0xbf614e22	-0.88009846
13	0xbe7b24e4	-0.24525791
14	0x3ea6c99f	0.325757
15	0xbe25f7e1	-0.1620784
16	0xbc202105	-0.0097734975
17	0x3e62fbb7	0.22166334
18	0xbe668706	-0.22512445
19	0x3ec7c103	0.39014444
20	0xbe348087	-0.17627154
21	0xbe26d374	-0.162916
22	0x3f141e17	0.57858413
23	0x3e3140f1	0.1730993
24	0x3ea87523	0.32901868
25	0x3eee9eaa	0.46605426
26	0x3e8476cb	0.25871882
27	0xbeb9307c	-0.36169803
28	0x3e23c20e	0.15991995
29	0x3e18b438	0.14912498
30	0xbdb98bb4	-0.090598494
31	0xbe5eb8af	-0.21750139
32	0xbec5fe1d	-0.38670436
33	0x3f25f7b7	0.6483111
34	0x3e5a283e	0.21304414
35	0xbe6f32b9	-0.23359193
36	0x3e1b7b78	0.15183818
37	0xbe4cf99a	-0.2001709
38	0xbeecfe20	-0.46287632
39	0xbdc02bfa	-0.09383388
40	0xbea00f5a	-0.31261712
41	0xbd8f21ca	-0.069888666
42	0x3ecbde9a	0.3981827
43	0x3e86a734	0.2629944
44	0xbe54608e	-0.20739958
45	0x3bd09f58	0.0063666515
46	0x3eccef0c	0.40026128
47	0xbe06d1db	-0.13165991
48	0x3e92292b	0.28547034
49	0x3f1ce01e	0.61279476
50	0xbf016de3	-0.505583
51	0x3ef3f093	0.4764448
52	0x3d0b5e80	0.03402567
53	0xbeb2dbb9	-0.3493326
54	0xbd848702	-0.06471063
55	0x3df3f32e	0.11911617
56	0xbe8aa861	-0.27081588
57	0xbec551b0	-0.38538885
58	0x3ecf6576	0.40507096
59	0xbd45b60f	-0.048269328
60	0x3ef33d2f	0.47507617
61	0xbec637ed	-0.38714543
62	0x3e06a416	0.13148531
63	0xbe5856f0	-0.21126914
64	0x3e471371	0.1944101
65	0xbca4b875	-0.020107487
66	0x3d290f18	0.04127416
67	0xbe587797	-0.2113937
68	0x3f0eb8b6	0.55750597
69	0x3eae0439	0.33987597
70	0x3dce1950	0.10063422
71	0xbdb700b3	-0.0893568
72	0xbe4e6a43	-0.20157723
73	0xbf06c0d6	-0.52637994
74	0x3dba94b8	0.09110397
75	0xbf011f3a	-0.5043827
76	0xbe1ad040	-0.15118504
77	0x3b2299d2	0.0024810922
78	0x3e95e74b	0.29278025
79	0x3e4f9ac0	0.20273876
80	0x3ed153a2	0.4088412

conv3.bias f4 [3]
0	0xbfa245ca	-1.2677548
1	0x3fd44e41	1.6586381
2	0xbe955621	-0.29167274

conv4.weight f4 [3, 3, 3, 1, 1]
0	0x3ebf657b	0.3738211
1	0x3e848459	0.25882223
2	0x3e20a195	0.15686639
3	0xbe0e972e	-0.13924858
4	0xbe32e72c	-0.17470998
5	0xbe1e3b34	-0.15452272
6	0xbec5c071	-0.38623384
7	0xbf1b25d2	-0.60604584
8	0xbea4e3c4	-0.3220502
9	0xbc2e9a48	-0.010656901
10	0xbe4bef56	-0.19915518
11	0xbc592705	-0.013253932
12	0x3c91fa8a	0.017819662
13	0xbe9bb061	-0.30408004
14	0x3d697705	0.05699827
15	0xbd1907cd	-0.037360955
16	0x3f5b11c6	0.85573995
17	0x3c8d77f6	0.017269116
18	0xbce5595f	-0.027996717
19	0x3c84bf1b	0.016204407
20	0xbc7b985a	-0.015356148
21	0xbe8de5fd	-0.2771453
22	0x3e557cb2	0.20848349
23	0xbdd202a0	-0.10254407
24	0xbbed8399	-0.0072483537
25	0xbd9024f0	-0.07038295
26	0xbd0590f2	-0.032608934

conv4.bias f4 [3]
0	0x3fea3151	1.82963
1	0xbe787e5a	-0.2426695
2	0x4055ac78	3.3386517

conv5.weight f4 [3, 3, 1, 3, 3]
0	0xbefd1289	-0.49428204
1	0x3e5bd609	0.21468367
2	0x3d03c669	0.03217164
3	0xbe99d9b2	-0.300489
4	0x3d1a86e5	0.0377263
5	0x3e20d68e	0.15706846
6	0xbf27977a	-0.6546551
7	0xbde79db4	-0.11309376
8	0xbeb3fc94	-0.3515364
9	0x3de9a002	0.11407472
10	0x3dcd4171	0.100222476
11	0xbd9e17d7	-0.07719391
12	0xbecaeb7b	-0.39632782
13	0xbea67a03	-0.32514963
14	0x3eee08f2	0.464912
15	0xbe65d995	-0.22446282
16	0x3e374731	0.17898251
17	0xbd332a08	-0.043741256
18	0x3f086732	0.53282464
19	0xbddac09e	-0.1068127
20	0xbf3c7268	-0.7361207
21	0x3e444d94	0.19170219
22	0x3f12e162	0.57375157
23	0x3d72c911	0.059273783
24	0x3e3880f2	0.18017939
25	0x3ea153fd	0.3150939
26	0xbee47bc6	-0.44625682
27	0xbdbff81e	-0.093734965
28	0x3e31b967	0.17355882
29	0x3e89cd57	0.26914474
30	0x3d736462	0.059421904
31	0xbebd9215	-0.37025514
32	0xbc105674	-0.0088096745
33	0x3e77de8e	0.24205992
34	0xbb90a79f	-0.0044145132
35	0xbd8aaef9	-0.06771655
36	0xbe169ab9	-0.1470746
37	0xbe69cd9f	-0.22832344
38	0x3ea14103	0.31494913
39	0x3e48f5a4	0.19624954
40	0xbe072856	-0.1319898
41	0xbd8fee1d	-0.070278384
42	0x3e0432c5	0.12909992
43	0x3e8d4967	0.27595064
44	0xbe881caf	-0.26584384
45	0xbe3bf682	-0.18355754
46	0x3e475ca3	0.19468932
47	0x3d1ded06	0.03855612
48	0x3f1e63aa	0.61870825
49	0xbe8f7f40	-0.28026772
50	0xbc5c8556	-0.013459524
51	0xbe4b143f	-0.19831942
52	0x3e22b770	0.15890288
53	0x3de6452a	0.11243661
54	0xc02f0306	-2.7345595
55	0xbf406ebb	-0.7516896
56	0xbfc68339	-1.5508796
57	0xbfe8ba52	-1.818186
58	0xbf61924b	-0.8811385
59	0xbfac6462	-1.3468134
60	0xc051add1	-3.276234
61	0xc022aba6	-2.5417266
62	0xc01af031	-2.4209101
63	0x3f2527b4	0.6451371
64	0x3f0f9aba	0.5609547
65	0xbf130541	-0.5742989
66	0x3d65c7f4	0.056098893
67	0xbd2bacce	-0.041912846
68	0xbd4b120c	-0.049577758
69	0x3ca7bce7	0.020475818
70	0x3e0c4815	0.13699372
71	0xbe74bd47	-0.23900329
72	0x3f27d551	0.6555987
73	0x3d75738b	0.059924643
74	0xbde83641	-0.11338473
75	0x3eef8088	0.4677775
76	0xbf016359	-0.5054222
77	0x3e8f610b	0.28003725
78	0xbdb2146f	-0.08695304
79	0x3e6325fb	0.22182457
80	0xbd2d33c4	-0.042285696

conv5.bias f4 [3]
0	0xbf2dcfd6	-0.6789526
1	0xbd6157bf	-0.05501532
2	0xbddbd627	-0.10734206

conv6.weight f4 [3, 3, 3, 1, 1]
0	0x3d297457	0.041370716
1	0xbf02883b	-0.5098912
2	0x3e2f7299	0.1713356
3	0xbe658986	-0.22415742
4	0x3e54fd83	0.20799832
5	0xbe9795a2	-0.29606348
6	0x3b493a8e	0.0030705067
7	0x3ecebeec	0.40380037
8	0x3d18049e	0.03711378
9	0x3ecd25de	0.40067953
10	0xbe8b5128	-0.27210355
11	0x3f1df09f	0.61695284
12	0x3e0fa2e1	0.14026977
13	0x3f9fba6a	1.2478764
14	0x3e0522c9	0.1300155
15	0xbc56376c	-0.013074737
16	0xbe5d966c	-0.21639413
17	0x3c205d9f	0.009787946
18	0x3f01deef	0.50730795
19	0xbf85db86	-1.0457618
20	0x3e1f60e8	0.1556431
21	0xbec45889	-0.38348797
22	0xbfb33d22	-1.4003031
23	0xbe9ae126	-0.302499
24	0x3d4a6a66	0.049417876
25	0x3e6b2f47	0.22967254
26	0x3ac9fc7c	0.0015410329

conv6.bias f4 [3]
0	0x3ecde8e8	0.40216756
1	0x3d00f010	0.03147894
2	0x3deecfb3	0.11660709

conv7.weight f4 [3, 3, 1, 3, 3]
0	0x3e39e7c8	0.18154824
1	0x3e2ac202	0.1667557
2	0xbdfd87fd	-0.12379453
3	0xbebde39e	-0.3708772
4	0x3e92939c	0.28628242
5	0xbe790706	-0.24319085
6	0xbdecdd86	-0.1156569
7	0x3d4117ad	0.04714172
8	0x3ccd7d19	0.025084065
9	0xbdcc7a1e	-0.099842295
10	0x3e9062a8	0.2820027
11	0xbe3edf17	-0.1863979
12	0xbd47e58d	-0.0488029
13	0x3d9aeaee	0.075643405
14	0xbe8e5d3d	-0.2780551
15	0xbe72bf68	-0.23705828
16	0x3e3b221e	0.18274733
17	0xbe8104a9	-0.25198868
18	0xbe6786bf	-0.22609995
19	0xbea90f10	-0.33019304
20	0xbe1ed88e	-0.15512297
21	0xbd8f1609	-0.06986625
22	0x3c0a9ef4	0.008460749
23	0x3e4e1613	0.20125608
24	0xbd85c89b	-0.06532403
25	0xbed4de03	-0.41575631
26	0x3cfa0c8d	0.030523563
27	0x3e41bd9d	0.18919988
28	0x3cad231e	0.02113491
29	0x3ab2c61a	0.0013639361
30	0x3e587d91	0.2114165
31	0x3f4e23fd	0.80523664
32	0x3e36a2ef	0.17835592
33	0x3d3eec51	0.046612088
34	0x3e503be1	0.20335342
35	0x3ec7df35	0.3903748
36	0xbd2fe6d4	-0.042944744
37	0x3d642c86	0.055706523
38	0x3e09d605	0.13460548
39	0xbede4b96	-0.43417042
40	0xbdd7e4db	-0.105416976
41	0xbee90011	-0.45507863
42	0xbefd2949	-0.4944556
43	0x3e832467	0.2561371
44	0xbe7d18e3	-0.24716525
45	0x3d0ab67a	0.03386543
46	0xbdc0fff4	-0.09423819
47	0x3d0bfb63	0.034175288
48	0x3f1290f5	0.57252437
49	0xbe2bb866	-0.16769561
50	0x3dd57781	0.10423184
51	0x3dd5e065	0.104431905
52	0xbd5184c6	-0.051152013
53	0x3eaeac59	0.34115866
54	0x3eadfc8c	0.3398174
55	0x3e4ab863	0.197969
56	0x3f2b232f	0.6685056
57	0x3ec4ab4c	0.3841194
58	0x3d6b4dc9	0.05744723
59	0x3ec3b1ed	0.38221684
60	0x3f163226	0.5867027
61	0x3dfe922d	0.124302246
62	0x3ebefc73	0.37301978
63	0xbef6037a	-0.48049527
64	0x3eb68978	0.35651755
65	0x3ed658dd	0.41864672
66	0xbf26c58d	-0.6514519
67	0xbf049d14	-0.5180218
68	0xbe4f05b9	-0.20217027
69	0xbf0c71e5	-0.5486129
70	0x3e44a8f2	0.19205073
71	0xbe7c62cc	-0.24647063
72	0x3e9766be	0.29570574
73	0xbe965306	-0.29360217
74	0xbd8239a4	-0.0635865
75	0x3f2e6e7d	0.6813734
76	0x3e09056e	0.13380978
77	0x3e24cd60	0.1609397
78	0x3ead76a1	0.3387957
79	0x3f1741d2	0.5908481
80	0x3e6dd431	0.23225476

conv7.bias f4 [3]
0	0x401706d1	2.359791
1	0xc00da188	-2.212984
2	0x4050a14d	3.259845

conv8.weight f4 [3, 3, 3, 1, 1]
0	0x3fcfb850	1.6228123
1	0x3fe80fe6	1.8129852
2	0x3fc5ad79	1.5443565
3	0x3e75ddd2	0.24010399
4	0x3e5dc49c	0.21657032
5	0x3f80be00	1.0057983
6	0xbd823d86	-0.06359391
7	0x3f823742	1.0173113
8	0xbf2bdaed	-0.6713093
9	0x3a246c3a	0.00062722305
10	0xbee70da9	-0.4512761
11	0xbf19915e	-0.5998744
12	0xbebf3181	-0.37342456
13	0x3ecfbd3a	0.40574056
14	0x3ee0078f	0.43755767
15	0x3ea3a063	0.31958303
16	0x3f725f41	0.94676596
17	0xbeaabda7	-0.33347818
18	0xbfabc771	-1.342024
19	0xc018c4af	-2.3870046
20	0xbf8e375d	-1.1110646
21	0x3dc35f0b	0.095396124
22	0x3f1bb1e8	0.6081834
23	0xbcac30f1	-0.02101943
24	0x3bf9d3ef	0.0076241414
25	0x3f4a6e68	0.79074717
26	0xbd16a27a	-0.036776043

conv8.bias f4 [3]
0	0xc0a36252	-5.105752
1	0xbfe0c1cc	-1.7559142
2	0x40c0a007	6.0195346
