saved_model_resnet/upsample_at_location_7.pt (torch, 7314 bytes, 16 tensors)

conv1.weight f4 [3, 3, 1, 3, 3]
0	0xbe35699a	-0.17716065
1	0x3e70b0dd	0.23504968
2	0xbe47e7bb	-0.19521992
3	0x3e864b94	0.26229537
4	0xbea0c7f5	-0.31402555
5	0x3eb54eb6	0.35411614
6	0x3f17c124	0.59279084
7	0x3d7eebb7	0.062236514
8	0x3f26d8e3	0.6517469
9	0xbd17848b	-0.036991637
10	0xbe6f80a1	-0.23388912
11	0xbda3aa0c	-0.07991418
12	0x3cb282a2	0.021790806
13	0x3e7975f7	0.24361406
14	0x3e84f17a	0.25965482
15	0x3ed3cc66	0.4136688
16	0x3c089509	0.008336314
17	0x3eeb8568	0.46000218
18	0xbdfd2108	-0.12359816
19	0xbb432ebf	-0.0029782502
20	0x3dbd43d4	0.09241453
21	0xbd6f7dfa	-0.05846975
22	0xbda241db	-0.07922717
23	0x3d954e7e	0.07290362
24	0x3dce6cf4	0.10079375
25	0xbe30b112	-0.17255047
26	0x3e58f038	0.21185386
27	0x3dbe3809	0.092880316
28	0x3e94a1ac	0.29029596
29	0x3eb7ba72	0.35884434
30	0x3dd0d7a9	0.10197384
31	0xbd10d28a	-0.035357036
32	0x3e212000	0.15734863
33	0x3ccb77b6	0.024837356
34	0x3e55a466	0.20863494
35	0xbddcf63d	-0.10789154
36	0x3e194ebf	0.14971446
37	0xbe3e9ee7	-0.18615304
38	0x3f13c31d	0.57719594
39	0x3e6f1bb1	0.23350407
40	0x3c29e6cc	0.010369968
41	0x3e335614	0.17513305
42	0xbd52528e	-0.05134826
43	0xba41352c	-0.0007370289
44	0xbe8fec46	-0.2810995
45	0xbdd26587	-0.10273271
46	0xbee25126	-0.44202536
47	0x3e90e308	0.2829821
48	0xbd489f46	-0.04898002
49	0xbca9b313	-0.020715272
50	0x3f14c6d3	0.5811588
51	0xbec9af8a	-0.39391738
52	0x3ecdb9f3	0.4018093
53	0xbe2a3c3b	-0.16624539
54	0xbe97b1a0	-0.29627705
55	0x3e25b43c	0.16182035
56	0xbedc8a9a	-0.43074495
57	0x3e9c03c3	0.3047162
58	0xbe3b67fe	-0.18301389
59	0x3e1d36f5	0.15352996
60	0x3ee047d2	0.43804795
61	0xbd508868	-0.050911337
62	0x3f4054af	0.75129217
63	0x3cca29a5	0.02467806
64	0xbe5463aa	-0.20741144
65	0xbdfa00e0	-0.12207198
66	0x3e305b13	0.17222242
67	0xbe108b54	-0.1411565
68	0x3e5692e0	0.20954466
69	0x3e8c161d	0.2736062
70	0x3da4878b	0.08033665
71	0x3e7d087d	0.2471027
72	0xbe4e5b35	-0.2015198
73	0x3e86e386	0.26345462
74	0xbe51ae52	-0.20476654
75	0xbe030093	-0.12793188
76	0xbcf1ab96	-0.029500764
77	0x3eab98d2	0.3351503
78	0x3e110a01	0.14163972
79	0xbd1ec8bf	-0.038765665
80	0xbdc734b0	-0.09726846

conv1.bias f4 [3]
0	0x40fe7102	7.951295
1	0xc0495986	-3.146089
2	0x402a2fac	2.6591597

conv2.weight f4 [3, 3, 3, 1, 1]
0	0x3f1c6ef5	0.61106807
1	0x3ea0859c	0.31351936
2	0x3ea28a66	0.31746215
3	0xbed10e13	-0.4083105
4	0xbe0f9a04	-0.14023596
5	0xbe12685d	-0.14297624
6	0x3f4b59c5	0.7943385
7	0x3de8ff2e	0.11376797
8	0xbdb6cc1d	-0.0892565
9	0xbe628094	-0.22119361
10	0xbf12c095	-0.57325107
11	0xbe8059fc	-0.25068653
12	0x3e1713bb	0.1475362
13	0x3e8bc1b8	0.27296233
14	0x3dc8dc82	0.098076835
15	0xbf8e98da	-1.1140397
16	0x3eecf447	0.4628012
17	0x3e23a417	0.15980564
18	0xbea39968	-0.31952977
19	0xbcc438a2	-0.023952786
20	0x3f2f2194	0.6841061
21	0x3f04c416	0.51861703
22	0x3d196d05	0.037457485
23	0xbe373580	-0.17891502
24	0xbe49b32e	-0.19697258
25	0xbcf82130	-0.030289263
26	0xbf70991b	-0.9398362

conv2.bias f4 [3]
0	0x40f0f713	7.5301604
1	0x3ff324d3	1.8995613
2	0x405c02e9	3.4376776

conv3.weight f4 [3, 3, 1, 3, 3]
0	0xbea685ff	-0.32524106
1	0x3e31c5c0	0.17360592
2	0x3dd54fae	0.10415588
3	0xbe072b90	-0.13200212
4	0xbf18826e	-0.5957402
5	0xbe8f41f0	-0.27979994
6	0x3d6f3ebd	0.05840944
7	0xbe4f6b97	-0.20255886
8	0xbe3b5fc7	-0.18298255
9	0x3e3a8c16	0.18217501
10	0xbe00c85a	-0.12576428
11	0x3e1cb363	0.15302806
12	0x3e0cc66b	0.13747565
13	0x3e3eae27	0.18621121
14	0x3d70c766	0.05878391
15	0xbe38d6ae	-0.18050644
16	0x3dfa3dfb	0.12218853
17	0xbea92ac9	-0.33040455
18	0x3e96a65e	0.29423803
19	0xbecdfea8	-0.4023335
20	0x3e1126cc	0.14174956
21	0x3d24e5bd	0.040258158
22	0xbc0af039	-0.008480125
23	0xbbf7f000	-0.007566452
24	0xbe392df2	-0.18083933
25	0x3e6306a0	0.22170496
26	0xbeb2021c	-0.34767234
27	0xbeb04a76	-0.3443181
28	0x3f426a83	0.75943774
29	0xbea2a3b2	-0.31765515
30	0x3cbccab5	0.023045877
31	0x3d2839d2	0.041070767
32	0xbdcdc640	-0.10047579
33	0xbe32b0e8	-0.17450297
34	0x3ed06e51	0.40709165
35	0xbde757a3	-0.11296012
36	0x3e1151f4	0.14191419
37	0xbe92d0a9	-0.2867482
38	0x3c075b52	0.008261519
39	0xbdf87c6e	-0.12133108
40	0xbc18aa3f	-0.009317934
41	0x3e18e5af	0.14931367
42	0x3dbdbc0b	0.09264382
43	0xbec2726b	-0.3797792
44	0xbd15c995	-0.036569197
45	0x3d6ca0f0	0.05777067
46	0x3d4fc93f	0.050729033
47	0x3cb73624	0.022364683
48	0x3cb49689	0.022044437
49	0x3daf647e	0.08564089
50	0xbc4de7fe	-0.012567518
51	0x3ddb915f	0.10721087
52	0xbde21106	-0.11038403
53	0xbcfb78e7	-0.0306973
54	0xbe885fb9	-0.2663553
55	0x3e903351	0.2816415
56	0xbc286f82	-0.010280492
57	0xbe77d4cb	-0.24202268
58	0x3e396e56	0.18108496
59	0x3d8eac84	0.069664985
60	0x3dfc86bb	0.12330385
61	0xbd8a3c79	-0.067498155
62	0xbc84edc1	-0.016226651
63	0x3eb46f21	0.35241035
64	0xbe23be78	-0.15990627
65	0x3ccac623	0.024752682
66	0xbdb0684b	-0.08613642
67	0xbe4c0b75	-0.19926246
68	0xbf2f40c8	-0.68458223
69	0x3e10d800	0.14144897
70	0xbd0b6045	-0.034027357
71	0x3e3a0292	0.18165043
72	0xbecddb83	-0.40206537
73	0x3cbf155d	0.023325616
74	0x3e399cb8	0.1812619
75	0xbe5de8fe	-0.2167091
76	0xbd7fe5a5	-0.062474865
77	0x3e5547a5	0.20828111
78	0x3e97f2ab	0.29677328
79	0x3e884791	0.266171
80	0xbd943fbb	-0.07238718

conv3.bias f4 [3]
0	0x3f2f0262	0.6836301
1	0x3fd5e3f3	1.671019
2	0x40c6ecaa	6.2163897

conv4.weight f4 [3, 3, 3, 1, 1]
0	0x3e9c30c7	0.30505964
1	0x3e813a4e	0.25239795
2	0xbddbe042	-0.10736133
3	0x3deffb6e	0.11717878
4	0x3f8d052e	1.1017206
5	0xbef74120	-0.48291874
6	0xbd12390a	-0.035698928
7	0xbe346347	-0.17615996
8	0x3d89e46f	0.067330234
9	0x3d637b80	0.0555377
10	0x3bb7f6c0	0.0056141317
11	0x3d878f30	0.06619108
12	0x3d9a7169	0.075411625
13	0x3f430806	0.7618412
14	0xbeabf957	-0.3358867
15	0x3cfa626c	0.03056451
16	0x3e8ac5fd	0.27104178
17	0xbde36df2	-0.11104955
18	0xbe4b3725	-0.19845255
19	0x3e38349e	0.17988822
20	0x3eb8e9ad	0.3611578
21	0xbf2bfa45	-0.67178756
22	0xbf3e003d	-0.74219114
23	0x3e212410	0.15736413
24	0x3e0be69f	0.13662194
25	0x3e6a3d7c	0.22875017
26	0x3e081b48	0.13291657

conv4.bias f4 [3]
0	0xc0979851	-4.7373433
1	0x40fa5771	7.823174
2	0x4005c4f4	2.090146

conv5.weight f4 [3, 3, 1, 3, 3]
0	0x3c17ca99	0.009264612
1	0xbdc0dc8f	-0.09417068
2	0xbd28f0be	-0.041245215
3	0x3e5e85a9	0.21730675
4	0xbc5516dd	-0.013005939
5	0xbf393b17	-0.7235579
6	0x3ed35e55	0.41282907
7	0xbe4b8763	-0.19875865
8	0xbe13ba58	-0.14426553
9	0xbe93d088	-0.28870034
10	0xbd5b25e4	-0.053502932
11	0x3bf10339	0.0073551205
12	0xbf219ee0	-0.6313305
13	0x3d86fbb3	0.065909766
14	0x3f18e01e	0.59716976
15	0xbde1bb53	-0.110220574
16	0x3eda5b63	0.42647848
17	0x3d8f3a96	0.06993596
18	0x3eda71a1	0.42664817
19	0x3e917e32	0.28416592
20	0x3fb41547	1.4068993
21	0xbe4267e3	-0.18984942
22	0x3e551061	0.2080703
23	0xbdfb3fce	-0.12268029
24	0xbd3db4e6	-0.046315096
25	0x3f0be300	0.5464325
26	0x3f1d6478	0.6148143
27	0x3ea17c1a	0.31539994
28	0x3d4d58c2	0.050133474
29	0xbf62f096	-0.88648355
30	0x3e8afaa1	0.2714434
31	0xbcdff862	-0.027340118
32	0xbf028ef3	-0.50999373
33	0xbf004b08	-0.5011449
34	0xbedccbbf	-0.43124196
35	0x3e421c03	0.18955998
36	0x3e7bb823	0.24581961
37	0x3f9851c8	1.1899958
38	0xbe92c03e	-0.28662294
39	0x3f0065fc	0.50155616
40	0x3d90b189	0.07065112
41	0x3eddc4f7	0.43314335
42	0x3e392f28	0.18084395
43	0xbdf0b802	-0.11753847
44	0x3dc1b708	0.094587386
45	0xbf4773fa	-0.7791134
46	0xbf652f1d	-0.89525014
47	0x3f77ab97	0.967462
48	0xbe328c85	-0.17436416
49	0xbf28f745	-0.66002303
50	0x3ef9ea9e	0.4881181
51	0xbd1f8c6d	-0.03895228
52	0xbea4a23f	-0.32155034
53	0xbf0892a9	-0.53348786
54	0xbebcb3bb	-0.36855873
55	0xbe9bce62	-0.30430895
56	0xbe552b2d	-0.20817252
57	0xbc4ece7c	-0.012622472
58	0xbbeae09c	-0.007167889
59	0xbe28c933	-0.16483001
60	0x3e153433	0.14570694
61	0xbe5f7374	-0.21821386
62	0xbe4f2845	-0.20230205
63	0x3f017590	0.5057001
64	0xbe2cbce6	-0.16868934
65	0x3d4ed123	0.050492417
66	0xbe72e1ae	-0.23718902
67	0xbe9181f0	-0.28419447
68	0x3e8f2914	0.27961028
69	0x3e8b070a	0.27153808
70	0x3f2740c4	0.653332
71	0x3e906442	0.2820149
72	0x3ee1d06d	0.4410433
73	0x3f4e0a08	0.80484056
74	0x3c45f40f	0.012082114
75	0xbe02f278	-0.12787807
76	0x3f81df45	1.0146261
77	0x3ec62fb1	0.3870826
78	0xbee3abad	-0.44466916
79	0xbf21ed56	-0.6325277
80	0xbf16965d	-0.58823186

conv5.bias f4 [3]
0	0x3f8929a9	1.0715839
1	0x40c9de0e	6.3083563
2	0x405090ea	3.2588449

conv6.weight f4 [3, 3, 3, 1, 1]
0	0xbdc31b18	-0.09526652
1	0xbf82a3e8	-1.020627
2	0x3d99d812	0.07511915
3	0xbe829466	-0.25503844
4	0x3f8147bc	1.0100017
5	0x3e8b3997	0.27192375
6	0xbdf4888f	-0.11940109
7	0xbf1790b9	-0.59205204
8	0xbe246690	-0.1605475
9	0xbdc211e7	-0.09476071
10	0x3fefb931	1.8728391
11	0x3ef4240e	0.47683758
12	0xbe95e4c2	-0.2927609
13	0x3f77ec6c	0.96845126
14	0x3e924661	0.2856932
15	0xbe55c2dd	-0.20875116
16	0xbedae62e	-0.42753738
17	0xbe4564e8	-0.19276774
18	0x3dada857	0.08479374
19	0xbe0ee1b5	-0.13953288
20	0xbeb2a6d2	-0.348929
21	0xbe473da5	-0.1945711
22	0x400de294	2.2169542
23	0x3e24e5cd	0.16103287
24	0x3e3c0a27	0.18363248
25	0xbf0944e8	-0.5362077
26	0x3d29fea8	0.041502625

conv6.bias f4 [3]
0	0x3ffe8f55	1.9887491
1	0xbf9e4cbd	-1.2367169
2	0x3fdd1e33	1.7274841

conv7.weight f4 [3, 3, 1, 3, 3]
0	0xbcd25f9a	-0.025680352
1	0xbead8cca	-0.33896476
2	0x3e2db76d	0.16964503
3	0xbe20486d	-0.15652628
4	0xbf0af90f	-0.54286283
5	0xbf0fe25b	-0.56204766
6	0xbc8b2d4f	-0.016989378
7	0x3ef54a3a	0.47908193
8	0x3e170cd5	0.14750989
9	0x3ef4296f	0.4768786
10	0x3e920f29	0.2852719
11	0x3ebe3f5e	0.3715772
12	0x3d9f0907	0.07765394
13	0xbdfa47d4	-0.122207314
14	0xbf1c5f44	-0.61082864
15	0x3dcb8079	0.099366136
16	0xbe0f47d7	-0.13992248
17	0x3e8f0dcc	0.27940214
18	0xbe04599d	-0.1292481
19	0x3e863577	0.26212665
20	0x3e908495	0.28226152
21	0x3da0ed36	0.078577444
22	0xbe6b1375	-0.22956641
23	0xbedc990a	-0.4308551
24	0x3ce0b47e	0.027429815
25	0x3e14b7d1	0.14523245
26	0x3d6ca155	0.057771046
27	0x3e069d33	0.13145904
28	0xbd883774	-0.06651202
29	0xbe359760	-0.17733526
30	0x3f144373	0.5791542
31	0xbe1b5726	-0.15169963
32	0x3eb0f6ba	0.34563237
33	0x3e92c898	0.28668666
34	0xbdd4b5c2	-0.1038623
35	0x3cf2bd03	0.029631143
36	0x3f042a0a	0.51626647
37	0xbe618814	-0.22024566
38	0xbe8eea64	-0.279132
39	0x3d90ba9e	0.070668444
40	0xbf32046d	-0.69538003
41	0xbe944257	-0.28956863
42	0x3e450aac	0.19242352
43	0xbf9b8b1e	-1.215183
44	0xbec10261	-0.37697127
45	0xbe9000cc	-0.28125608
46	0x3ddf564d	0.109051324
47	0x3daba011	0.083801396
48	0xbda4b7cd	-0.0804287
49	0xbbbf48cb	-0.005837535
50	0xbe7e4a97	-0.24833141
51	0x3e8d8199	0.27637938
52	0x3e209a4a	0.15683857
53	0xbf45df86	-0.77294195
54	0x3e0546c9	0.13015284
55	0x3c1ad075	0.009449114
56	0xbeecca85	-0.4624826
57	0x3ea3e30d	0.32009163
58	0xbd7a2bd2	-0.061076947
59	0x3f80a667	1.0050782
60	0xbe3e487c	-0.18582338
61	0x3e44818e	0.19190046
62	0xbd63baa8	-0.05559793
63	0xbdbd1581	-0.09232617
64	0xbed69414	-0.4190985
65	0xbed74216	-0.42042607
66	0xbd7a90e3	-0.06117333
67	0x3f29af1e	0.6628283
68	0x3e3f30fa	0.18671027
69	0xbdecde5c	-0.11565849
70	0xbece0f9d	-0.40246287
71	0xbe4e4f58	-0.20147455
72	0xbe252ec8	-0.16131127
73	0xbe362fd8	-0.17791688
74	0xbe64e367	-0.22352372
75	0xbe3952e0	-0.1809802
76	0x3f09416d	0.53615457
77	0x3f296086	0.6616291
78	0x3d247645	0.040151853
79	0xbed47eff	-0.4150314
80	0xbe1d57cd	-0.15365525

conv7.bias f4 [3]
0	0x400419de	2.0640788
1	0x3f4af729	0.79283386
2	0x3ffdbc09	1.9823009

conv8.weight f4 [3, 3, 3, 1, 1]
0	0xbc6b98fa	-0.014379734
1	0x3c6496cf	0.013951971
2	0xc00386e2	-2.0551076
3	0x3da918bb	0.0825667
4	0x3cc3d937	0.023907287
5	0xbf344cd1	-0.7042971
6	0x3d354433	0.044254493
7	0x3d848585	0.06470779
8	0x3fd16138	1.6357794
9	0xbb9638fc	-0.00458443
10	0x3ce3e54c	0.027819298
11	0xc0047e55	-2.0702107
12	0x3d94dacf	0.07268297
13	0x3c541e28	0.012946643
14	0xbf377649	-0.71664864
15	0x3d64408f	0.05572563
16	0x3da122a1	0.07867933
17	0x3fd2844c	1.6446624
18	0xbd9a2460	-0.07526469
19	0xbf3823d9	-0.719297
20	0x3c227126	0.009914672
21	0x3d38a937	0.04508325
22	0xbe8b05de	-0.27152914
23	0xbe8cfa49	-0.27534702
24	0xbed51bc8	-0.41622758
25	0xbf05f8e9	-0.5233293
26	0xbf54e1d0	-0.8315706

conv8.bias f4 [3]
0	0xc0705155	-3.754964
1	0xc07b1947	-3.9234178
2	0xbfe3dd1e	-1.7801855
