saved_model_resnet/upsample_at_location_6.pt (torch, 7314 bytes, 16 tensors)

conv1.weight f4 [3, 3, 1, 3, 3]
000000 ba 8d e2 bc bd a4 5f be a5 9f 8e 3e 70 84 95 bd
       -0.027655471 -0.21840186 0.27856174 -0.07300651
000010 b5 9a 24 bd cb 6d a1 3c d2 8c 7c be b4 a0 c3 3e
       -0.040186603 0.019705674 -0.24663094 0.38208544
000020 62 38 dc 3e 12 0e 7a be 0a 9a ca bd 3a 04 98 3e
       0.43011767 -0.2441943 -0.09892662 0.29690725
000030 d4 c4 97 ba e1 91 1e be ad 93 0f 3e 4b 07 b8 3e
       -0.0011579045 -0.15485336 0.14021178 0.35943064
000040 37 1f a5 3e d7 54 0d 3e f0 36 c3 3b 51 66 47 bc
       0.32250378 0.13801895 0.005957477 -0.01217039
000050 e1 86 99 bd 4e 68 5a be 03 e1 29 3f 0f f8 20 3e
       -0.07496429 -0.21328852 0.66358966 0.15719627
000060 b4 aa e7 3e 81 ae 61 be fa 39 aa be a0 36 15 3e
       0.45247424 -0.22039224 -0.33247358 0.14571619
000070 a7 2e 53 3e 58 8e 80 be 66 ff a9 3e 68 b2 80 3e
       0.20623265 -0.251086 0.33202666 0.25136113
000080 96 12 74 be d5 03 81 be c7 ba 4e be 44 de 80 3e
       -0.23835215 -0.25198236 -0.20188437 0.25169575
000090 38 6c c7 bd 83 3b 67 3e 01 80 58 3d 8c 06 f6 3b
       -0.09737438 0.22581296 0.05285645 0.0075081047
0000a0 4b b1 dc 3e df 35 e5 bd 75 82 a4 be e1 88 3a 3e
       0.43104014 -0.11191916 -0.3213078 0.18216278
0000b0 ab 36 c2 3d e0 93 3d bd f2 c8 81 3e 30 f3 93 be
       0.09483083 -0.046283603 0.25348622 -0.28896475
0000c0 a1 31 90 3e 14 fb e0 bc a0 cd bc 3e b2 fb 23 be
       0.28162864 -0.027463473 0.3687563 -0.16013983
0000d0 22 5e b0 3e b7 10 ed be 61 c5 c9 3e b1 60 e9 bd
       0.34446818 -0.46301815 0.394084 -0.113953955
0000e0 15 6d 08 3e ef f5 4d be a6 23 0e 3d a1 88 d9 bd
       0.13322861 -0.20113347 0.034701966 -0.10621763
0000f0 f9 59 03 be 17 a8 f3 bb 02 3d 9d 3e 87 42 fa 3e
       -0.1282729 -0.0074358094 0.30710608 0.4887888
000100 ad 7c 65 be d6 04 a1 bd d7 a8 79 3e f7 a1 b8 be
       -0.22410841 -0.078622505 0.24380814 -0.3606107
000110 a0 37 56 bd 72 63 64 3e 1f 40 ba bd ab a8 01 3e
       -0.052299142 0.2230356 -0.090942614 0.12661998
000120 ea 09 9f 3e 2e 28 92 3e cb 67 4a be e7 1d 51 3e
       0.3106225 0.2854628 -0.19766156 0.20421563
000130 38 e4 a5 be 4b 2d 82 3c 5f 8c 87 bd 71 9a 43 bd
       -0.3240068 0.015890738 -0.066185705 -0.04775471
000140 c3 e7 92 3d
       0.07173111

conv1.bias f4 [3]
000000 28 ce cb c0 5e 99 07 41 0c a5 15 41
       -6.3689156 8.474943 9.352795

conv2.weight f4 [3, 3, 3, 1, 1]
000000 2c 3e 19 be d2 d3 48 be 57 22 7d be 0e 8b 23 3e
       -0.14965123 -0.19612053 -0.24720131 0.15971014
000010 9e c0 28 3e 6e 32 d7 3e 03 dc 9e 3c 74 55 e5 3d
       0.16479728 0.42030662 0.01939202 0.111979395
000020 bf 3f dd bd 1c 9d b2 3c 0c e5 5f be ff 63 6d 3b
       -0.10803174 0.021803431 -0.21864718 0.0036222932
000030 51 d7 5a bc 14 6b bc 3e e9 4d b2 3c e9 4c 53 bc
       -0.0133569995 0.36800444 0.021765666 -0.012896755
000040 26 63 c5 3e 92 a6 b0 3c 83 46 6a bb f3 7a 98 be
       0.38552207 0.021563802 -0.0035747595 -0.29781303
000050 a3 18 8f bb 49 33 b3 bb c3 7a f9 be 43 e6 22 bd
       -0.0043669506 -0.00546876 -0.48726472 -0.039770376
000060 70 1a c6 3c f3 35 37 3f a1 a0 d1 3d
       0.024182528 0.71566695 0.10235716

conv2.bias f4 [3]
000000 88 a5 f4 bf aa aa 24 41 bb 17 81 bf
       -1.9113016 10.291666 -1.0085367

conv3.weight f4 [3, 3, 1, 3, 3]
000000 91 28 1d 3d be a7 ad bc 24 7c 79 3e 6e 3f aa 3d
       0.038368765 -0.02119815 0.24363762 0.083128795
000010 20 ba aa 3c 5a 21 0c be f4 8b 7d bd f3 f6 4e 3e
       0.020840704 -0.13684598 -0.061901048 0.20211391
000020 64 46 46 3d 27 4c 67 be e4 c4 ee 3d 89 18 67 3e
       0.048406973 -0.22587644 0.11658648 0.22567953
000030 fa 5f e8 3e de 7e 0f bf 7f f0 6b be dd 18 da 3d
       0.45385724 -0.5605296 -0.2304096 0.106492735
000040 33 82 75 be 1d 2b 52 3f 73 23 9e bd 97 aa 5e be
       -0.23975448 0.82097036 -0.07721605 -0.21744762
000050 7a 50 96 3d 63 6b b8 3d d7 43 49 bd e0 91 1f 3e
       0.073395684 0.090048574 -0.049136963 0.1558299
000060 96 8e a9 bd 98 96 0b be fc b3 46 bd 07 cc a4 3c
       -0.08279149 -0.13631666 -0.04851149 0.02011682
000070 2e c7 10 bd 12 84 fd 3a 99 01 1f bc fc 89 d7 b7
       -0.035346203 0.0019341728 -0.009704971 -2.5694251e-05
000080 7e ee 30 3c 5e 4e cc bb c8 8f 19 3c 84 61 fb bc
       0.0107990485 -0.006234928 0.009372659 -0.030686148
000090 1c 6a c2 3c 83 f7 99 be 9b 7a 00 3f f1 b3 aa be
       0.023732238 -0.3007165 0.5018708 -0.3334041
0000a0 09 71 2b 3f cf b7 a0 be e5 db 86 3d 6e d4 22 be
       0.6696935 -0.31390235 0.0658491 -0.15901348
0000b0 52 f3 b9 3d e9 c3 55 3d f4 e7 93 3c 2b 91 fc bc
       0.09079613 0.052188788 0.01805494 -0.03083094
0000c0 be bc 37 ba c4 1d 3c bd 86 1b 18 3c d6 f4 41 3c
       -0.0007009021 -0.045926824 0.009283906 0.011838159
0000d0 f3 2c 37 3d 3a 73 34 3d ac 2c a2 3d 45 48 d4 bc
       0.0447206 0.0440552 0.07918677 -0.025913367
0000e0 20 41 13 be ff 8c b5 bd 75 7f e3 3d 6a 78 07 3e
       -0.14380312 -0.088647835 0.11108295 0.13229528
0000f0 98 b9 45 3e 21 f9 5e be 9d d9 bc 3d 22 c8 de be
       0.1930908 -0.21774723 0.09221194 -0.43512064
000100 08 ab 30 3e f1 f3 75 3f 41 a9 8f 3e a7 43 d5 bd
       0.17252743 0.9607535 0.28058818 -0.10413294
000110 c7 b4 1b bf b3 2f 0f be 23 8e bd bc 38 90 f3 3e
       -0.6082272 -0.1398304 -0.023139065 0.47570968
000120 35 20 0b 3d 09 f3 56 3e 6e 73 59 be 6a 94 00 be
       0.033966262 0.20991148 -0.21235439 -0.12556615
000130 bb 57 9b 3c e6 b4 16 be 18 db a1 bd 78 6f 31 3d
       0.018962732 -0.14717445 -0.07903117 0.043319196
000140 ae dc b3 bc
       -0.021955814

conv3.bias f4 [3]
000000 0d d8 1e 3f 9f ba 82 40 ae a4 22 c0
       0.6204842 4.085281 -2.5413013

conv4.weight f4 [3, 3, 3, 1, 1]
000000 7a 30 3d 3e f6 2c 92 bd e9 96 87 3e c1 2b 62 3e
       0.18475524 -0.07137482 0.26482323 0.22087003
000010 2c fc 22 3e 16 7e 4f 3f 19 36 89 be 51 e6 22 bf
       0.15916508 0.81051767 -0.26799086 -0.63632685
000020 ba c9 5f bf 1f af 52 bc 97 aa b3 3e 75 e8 7d 3c
       -0.87417185 -0.012859135 0.35091087 0.015497317
000030 2b 06 32 be 2a 78 f7 3f 7e 26 06 3e 67 39 ee bb
       -0.17385165 1.9333546 0.13100621 -0.0072700265
000040 bc 88 b2 3e 74 09 73 3b 07 33 8b bd e2 dc 90 3f
       0.34869945 0.0037084492 -0.06796842 1.1317408
000050 f9 47 5a 3d 90 3a 61 3d f6 23 d2 bf 5e 54 73 bd
       0.053291295 0.05498749 -1.6417224 -0.05940663
000060 9f d6 41 bd f7 ae 41 3f 79 02 19 3d
       -0.04732382 0.756576 0.037355874

conv4.bias f4 [3]
000000 43 8c 2b 40 8e 41 b4 bf b9 a5 9e 3e
       2.680436 -1.4082506 0.3098581

conv5.weight f4 [3, 3, 1, 3, 3]
000000 ee 8e a0 bd 60 76 79 be 6c 55 9a bc a5 77 f8 3c
       -0.07839762 -0.24361563 -0.01883956 0.030330488
000010 85 ba 12 3e 1d f7 d5 3e d2 6c 14 3f f9 42 c9 3e
       0.14328964 0.41790095 0.57978547 0.3930891
000020 6a e1 a8 3e 6b ec 73 3e d1 0a 81 3d f3 e8 d7 3e
       0.32984477 0.23820655 0.06300891 0.42169914
000030 da bc 26 be 96 6d c6 be 4a 02 0c bf 05 35 f8 3e
       -0.16282979 -0.38755482 -0.5469099 0.4847795
000040 fb 19 cd bd 28 6a 84 3e bc 8b b7 be 47 67 2d 3f
       -0.10014721 0.2586224 -0.35848796 0.67735714
000050 40 8a d7 be d6 6e c3 3d 54 57 9b 3d 5c 88 50 3d
       -0.42097664 0.09542625 0.07585016 0.050911292
000060 68 9f 84 bd fc 43 94 3e 1b 45 e8 bd 90 23 e5 3e
       -0.06475717 0.28958118 -0.11341306 0.44753695
000070 53 f2 39 3e 16 4b ed 3e 2e 10 fc 3e 21 42 c1 bd
       0.18158846 0.4634635 0.49231094 -0.09436441
000080 61 90 38 be ed 8b 47 3e 70 af 1b bd 95 85 09 bd
       -0.18023826 0.19486971 -0.038009107 -0.03357466
000090 68 e3 94 bd dc 9e 35 3d 62 8c 0d bf 01 bb 5e 3e
       -0.07269937 0.044340953 -0.5529233 0.21751024
0000a0 1d a1 8c 3d 97 8a 45 3f 01 e2 e1 bc 7b f0 81 3e
       0.068666674 0.77164596 -0.027573587 0.25378785
0000b0 81 cc 75 3e 80 22 25 bd 0a 90 5f be 05 a5 3e 3e
       0.24003793 -0.040316105 -0.2183229 0.18617637
0000c0 fb ff 2e 3d 8c 7e 2b bc cd b1 4f 3f fe e9 d5 3e
       0.04272459 -0.010467183 0.8113068 0.41780084
0000d0 43 4c b1 be 65 9a 9b 3d c9 f7 af 3e bf 4e 3c 3e
       -0.34628496 0.07597808 0.34368733 0.18389414
0000e0 88 3d 04 3e 17 ff 8c 3e 24 45 64 3e f4 78 67 3e
       0.12914097 0.27538368 0.22292 0.22604734
0000f0 23 21 f7 bd db 25 0f 3f f1 38 a6 3d 1f 23 d5 3e
       -0.12066867 0.5591714 0.081163295 0.41628358
000100 a1 1a 2b 3d ed 35 54 3e c6 c6 83 be c9 11 35 be
       0.041773442 0.20723696 -0.2573759 -0.17682566
000110 2c 70 87 be 30 e6 2d 3f 16 c7 84 bd ce c4 a5 bd
       -0.26452768 0.67929363 -0.06483285 -0.08094178
000120 83 ef d0 be 70 b8 f7 3e 5e 15 82 be a3 72 44 be
       -0.40807733 0.48382902 -0.25406927 -0.19184355
000130 16 46 89 3e c2 4b 6f be 05 71 8e be be f3 00 3f
       0.26811284 -0.23368743 -0.27820602 0.5037192
000140 df e8 a9 3e
       0.3318548

conv5.bias f4 [3]
000000 ba 6c 1d 40 0e 48 e7 3e 72 ac a8 bf
       2.4597611 0.4517216 -1.3177626

conv6.weight f4 [3, 3, 3, 1, 1]
000000 94 af 0a bc 19 26 8b 3e 9d 33 60 3f 21 0a a4 bc
       -0.008464713 0.27177504 0.87578756 -0.020024361
000010 98 e0 a3 bd 99 58 de be 94 a2 c3 3d 53 ed 83 bd
       -0.08001822 -0.4342697 0.09552494 -0.064417504
000020 2f b2 90 3e b8 ff 1e bf 61 a9 82 be 16 4f 24 bf
       0.28260943 -0.62108946 -0.2551985 -0.64183176
000030 34 81 34 3d 80 ff 9c 3d c5 b7 5e 3f 7c 08 f8 3e
       0.04406853 0.0766592 0.8699916 0.48443973
000040 38 5f 5b be d4 b9 67 bf 2b 04 f1 3e fe 45 3b 3d
       -0.21423042 -0.90517926 0.47073492 0.045721047
000050 37 ad 81 bf fd 3c 4c 3d 16 24 08 3e 2a 21 17 3f
       -1.0130986 0.04986285 0.13295016 0.5903498
000060 a4 2e ee be 03 61 78 be 07 df 61 bf
       -0.4651996 -0.24255757 -0.8823094

conv6.bias f4 [3]
000000 37 96 a0 40 17 83 32 bf f9 89 12 40
       5.018337 -0.6973128 2.2896712

conv7.weight f4 [3, 3, 1, 3, 3]
000000 6c 51 3f 3f bb 1b c5 3d 6d 88 62 3e 76 64 d3 bd
       0.74733615 0.0962443 0.22122355 -0.10321896
000010 b8 04 bd be 82 73 c7 3e 62 34 a0 bf fd 2c 3e bf
       -0.36917663 0.38955313 -1.2515986 -0.74287397
000020 8c f4 08 3f 6e c3 1b bf f7 de cb 3e 12 8a 91 3c
       0.5349815 -0.6084508 0.39818546 0.017766032
000030 3a e1 f9 bc 74 b2 50 bd 18 bf b2 be cc e5 39 3f
       -0.030502904 -0.050951436 -0.34911418 0.7261627
000040 d1 e5 f5 bd eb 2d d2 3c 7e 55 70 3d 24 16 82 bd
       -0.120067246 0.025656661 0.05867528 -0.06351879
000050 61 95 7b bd b1 f0 fb be a6 1f 81 be 95 38 1d be
       -0.061421756 -0.4920707 -0.25219458 -0.15353616
000060 69 c8 52 3f 94 e5 2e 3f 64 db 48 be 97 2e 29 3f
       0.8233705 0.6831906 -0.19614941 0.66086715
000070 ee b7 dc 3e bb 12 24 3e c8 62 03 bd 36 b6 9f be
       0.43109077 0.1602277 -0.032076627 -0.31193703
000080 2a 79 df 3e 0e 36 b7 bf e1 55 99 bf 64 31 6e 3f
       0.43647128 -1.4313371 -1.1979333 0.93044114
000090 30 db 12 bf bc b9 13 bd 76 c7 21 3e 92 0c c7 3b
       -0.57365704 -0.036065802 0.15798745 0.0060744965
0000a0 bd 80 9a 3e cb 5e 91 be cc f4 fa 3e 27 b5 cb 3d
       0.30176345 -0.28392634 0.4901489 0.099466614
0000b0 65 b4 51 bc d5 78 2b bf 6b 55 a8 3e 31 9e ee bd
       -0.012799357 -0.6698125 0.3287767 -0.11651266
0000c0 16 98 9f 3d f5 9c dc be 13 d0 13 bf 26 93 ab 3f
       0.0779268 -0.430885 -0.5773937 1.3404281
0000d0 78 70 c4 3e bd 75 d8 bd 16 da 48 bd 7e 9e 99 be
       0.38367057 -0.10569332 -0.049036108 -0.30003732
0000e0 99 27 af be c0 2d 87 3e e1 a6 1c 3e 8f 0d c3 bd
       -0.34209898 0.26402092 0.15298034 -0.095240705
0000f0 14 b4 46 bd 93 16 c8 be 1f 62 b9 ba 8c 66 91 bd
       -0.04851158 -0.39079723 -0.0014143622 -0.070996374
000100 40 e2 e0 bd 00 35 ac be 03 58 10 bf ba f8 0c be
       -0.10980654 -0.33634186 -0.56384295 -0.13766757
000110 bb 00 a3 3e ac 35 00 bd cf 80 95 be 87 99 49 be
       0.31836495 -0.031301185 -0.29199836 -0.19687472
000120 33 9f ad 3d e1 12 59 3d 9e bf 0f bf 64 f6 93 3d
       0.084776305 0.05299652 -0.5615176 0.0722473
000130 ab 2b 06 be 01 43 c2 3e 82 bf 86 be f5 da 7d bd
       -0.13102596 0.37941745 -0.26317984 -0.06197639
000140 a7 8d 9e be
       -0.30967447

conv7.bias f4 [3]
000000 19 9b 9c be fa 4b 7a 3e 09 1c 88 be
       -0.3058708 0.24443045 -0.2658389

conv8.weight f4 [3, 3, 3, 1, 1]
000000 fc 9b 9d 3f f2 e3 53 3e 8b d2 95 bb 32 03 36 3f
       1.2313228 0.20692423 -0.004572218 0.71098626
000010 23 24 e3 be 5b 5c 4b 3d 7e 21 86 bc 41 56 82 bf
       -0.44363508 0.049648624 -0.016373392 -1.0182573
000020 cf 0e 2d 3e 2e 93 a8 3f 96 23 68 3e 61 2b 95 3b
       0.1690018 1.3169916 0.22669825 0.0045522903
000030 8e 81 2c 3f d3 34 ea be 87 55 2e 3d 17 ae bf 3d
       0.67385185 -0.45743427 0.042562034 0.09359377
000040 00 67 5b 3d 6f 90 71 bb 14 0c a7 3f b3 ca 8c 3e
       0.053565025 -0.003685977 1.3050561 0.27498397
000050 c5 65 03 3d d7 1f 1c 3f 2b 48 ea be 5c 67 04 3c
       0.032079477 0.60986084 -0.45758185 0.008081283
000060 3e 2e 4b be 1f 5c e5 3c 3b a6 d3 3e
       -0.19841859 0.027998028 0.4133776

conv8.bias f4 [3]
000000 07 51 d9 bf a0 21 c8 bf 56 d9 87 bf
       -1.6977853 -1.5635262 -1.0613201
