saved_model_resnet/upsample_at_location_3.pt (torch, 7314 bytes, 16 tensors)

conv1.weight f4 [3, 3, 1, 3, 3]
0	0xbf287811	-0.65808207
1	0x3f49c7a1	0.78820235
2	0x3ecfc555	0.4058024
3	0x3e096f53	0.13421373
4	0xbe2d10db	-0.16900961
5	0xbd39c743	-0.045356046
6	0xbe837833	-0.25677642
7	0x3e0fd651	0.14046599
8	0x3f6de747	0.92931026
9	0xbe667674	-0.22506124
10	0x3ced10f0	0.02893874
11	0x3e20b744	0.1569491
12	0x3ecb27f4	0.3967892
13	0xbee47741	-0.44622234
14	0xbd861929	-0.06547768
15	0xbe890892	-0.2676435
16	0x3e64b142	0.22333243
17	0x3e7d3dbb	0.2473058
18	0xbed2dd52	-0.4118448
19	0x3ef18e95	0.47179094
20	0x3eadf0f1	0.33972886
21	0xbd40a5fc	-0.047033295
22	0x3dbb933d	0.09158943
23	0xbd75a332	-0.05997009
24	0xbe8c8b35	-0.27449957
25	0x3e8f191c	0.27948844
26	0x3f1912b0	0.5979414
27	0xbcbf8a48	-0.023381367
28	0xbea0342a	-0.31289798
29	0xbf0c89a8	-0.54897547
30	0x3e5262ef	0.20545553
31	0xbe93d4a9	-0.28873184
32	0x3f067568	0.525229
33	0x3e5804f8	0.21095645
34	0x3ebea29a	0.3723343
35	0x3ee0371b	0.43792042
36	0x3f00ff2c	0.5038936
37	0xbeff489c	-0.49860084
38	0xbe9fed8f	-0.3123593
39	0xbb904eb7	-0.004403915
40	0xbee7b9a5	-0.45258823
41	0x3eb35717	0.35027382
42	0xbdef1f82	-0.116759315
43	0xbe2e27be	-0.17007348
44	0x3f433377	0.76250404
45	0xbd3ddd29	-0.046353493
46	0x3e13eb44	0.14445215
47	0xbed005de	-0.40629476
48	0x3eb4e9b1	0.35334542
49	0xbe9b2e06	-0.3030855
50	0x3dd66914	0.10469261
51	0x3e41248a	0.18861595
52	0x3e4acd19	0.19804801
53	0x3ed30c02	0.412201
54	0x3d43c48f	0.047794875
55	0xbd831e66	-0.064022824
56	0x3e49ae61	0.19695427
57	0x3e147527	0.14497815
58	0xbf048688	-0.5176778
59	0x3d265be3	0.040614974
60	0x3e9059e5	0.28193584
61	0xbe5c7855	-0.21530278
62	0x3de48295	0.11157719
63	0x3d242a00	0.040079117
64	0x3db923bf	0.09040021
65	0x3e4ca126	0.19983348
66	0xbe4dd1dd	-0.20099588
67	0xbe91b436	-0.28457803
68	0x3d868aa9	0.06569416
69	0x3eef7b71	0.46773866
70	0xbeeee5f2	-0.4665981
71	0xbe76914e	-0.24078867
72	0x3e8f21a1	0.27955344
73	0xbdb74b0a	-0.089498594
74	0x3e854bae	0.26034302
75	0xbe8a672b	-0.27031836
76	0xbea09189	-0.31361035
77	0xbc59ddd5	-0.013297518
78	0x3d4ec05a	0.05047641
79	0x3e3c27f0	0.1837461
80	0xbde40212	-0.111332074

conv1.bias f4 [3]
0	0x3de386cd	0.111096956
1	0x3fc1d048	1.5141687
2	0x409a80d8	4.828228

conv2.weight f4 [3, 3, 3, 1, 1]
0	0xba13f24d	-0.00056437106
1	0x3f3a6766	0.72814023
2	0x3cd17fa3	0.025573557
3	0xbaf8f372	-0.0018993451
4	0xbf65045f	-0.89459795
5	0xbdb12eb0	-0.08651483
6	0xbda580ff	-0.08081245
7	0xbf0669c4	-0.52505136
8	0xbe3c0f76	-0.18365273
9	0xbb6b7f9f	-0.0035934222
10	0xbf0bf58d	-0.54671556
11	0xbc415d83	-0.01180208
12	0x399be2e0	0.0002973294
13	0x3f2da2f1	0.67826754
14	0x3d3bc866	0.04584541
15	0xbdccb285	-0.099949874
16	0xbf4cf0b4	-0.80054784
17	0x3c95873a	0.018252958
18	0xbd4a7eb4	-0.04943724
19	0x3f908aab	1.1292318
20	0x3dd24479	0.102669664
21	0x3c93346a	0.017969329
22	0x3e43e26f	0.19129346
23	0x3cef01e2	0.029175702
24	0xbe02d759	-0.12777461
25	0xbdbdd600	-0.09269333
26	0x3ba6c1e0	0.0050890297

conv2.bias f4 [3]
0	0x3f18ea5c	0.59732604
1	0x4019bfe5	2.4023373
2	0x3f137121	0.57594496

conv3.weight f4 [3, 3, 1, 3, 3]
0	0x3e3f692f	0.18692468
1	0x3d202eb9	0.03910706
2	0x3e305bfa	0.17222586
3	0xbd9bcdd6	-0.076076195
4	0x3e4ec07c	0.20190614
5	0xbdd966a0	-0.10615277
6	0xbe0c314f	-0.13690685
7	0x3d6ee7b5	0.05832644
8	0xbefa57a6	-0.48894995
9	0xbe1de0e0	-0.15417814
10	0x3daff8bd	0.08592365
11	0x3cbd47fa	0.02310561
12	0x3e9834a5	0.29727665
13	0xbde857c5	-0.11344866
14	0xbda15ee7	-0.07879429
15	0x3df839ce	0.121204
16	0x3dcdbd2c	0.10045847
17	0x3e4f02e4	0.20215946
18	0x3f1d9c95	0.6156705
19	0x3e72e3b7	0.23719679
20	0x3ecd21bb	0.40064797
21	0xbace0900	-0.0015719235
22	0x3e23e556	0.16005453
23	0xbe7ab400	-0.24482727
24	0xbe3cb92d	-0.18430014
25	0xbd891d72	-0.066950694
26	0xbe47f23a	-0.19525996
27	0x3eb4aa2d	0.35286084
28	0x3f4dd3b1	0.8040114
29	0xbe81bee8	-0.25340962
30	0x3e90d09d	0.2828416
31	0xbde3059f	-0.110850565
32	0x3ed614ee	0.41812843
33	0x3cf005c1	0.029299619
34	0xbf04ba2a	-0.51846564
35	0xbde5cbe0	-0.11220527
36	0xbf0183a9	-0.5059152
37	0xbf8376cf	-1.0270633
38	0x3e98766f	0.29777858
39	0xbf0021c7	-0.5005154
40	0x3e6a70c5	0.2289458
41	0xbecf5663	-0.40495595
42	0x3edca1c5	0.4309217
43	0x3f7d13f5	0.98858577
44	0x3eaa3b3b	0.33248314
45	0x3d074fcc	0.033035085
46	0x3dac4ce5	0.08413104
47	0x3e22e838	0.15908897
48	0x3f2f1fc9	0.68407875
49	0xbf1188aa	-0.5684916
50	0x3f238dd5	0.63888294
51	0xbd87e8fb	-0.066362344
52	0x3f5660a5	0.8374122
53	0x3c295cf6	0.010337105
54	0x3e71cd90	0.23613572
55	0x3d83b9c4	0.06431916
56	0xbeac323b	-0.33632073
57	0x3f2329d2	0.6373569
58	0xbe23b496	-0.15986857
59	0x3d8ad693	0.06779208
60	0x3e9b4d06	0.30332202
61	0xbce12d63	-0.027487462
62	0x3d8e3603	0.06943896
63	0x3eb6184a	0.35565406
64	0x3ec352b0	0.38149023
65	0x3fa742da	1.3067276
66	0xbe24fbb9	-0.1611165
67	0x3efbbba1	0.49166587
68	0xbee7a847	-0.45245573
69	0x3df03288	0.11728388
70	0xbd00b834	-0.03142567
71	0xbf183cd3	-0.5946781
72	0xbf297abc	-0.662029
73	0x3eb26d79	0.34849146
74	0x3e20d943	0.15707879
75	0x3e89cf66	0.26916045
76	0xbe03bd5d	-0.12865205
77	0x3f0324e0	0.5122814
78	0x3ee8bd7b	0.45457062
79	0x3ea9f0a2	0.331914
80	0x3d9ad8a1	0.0756085

conv3.bias f4 [3]
0	0xc022c707	-2.5433977
1	0x3db6168a	0.08891018
2	0x3fcf666f	1.6203135

conv4.weight f4 [3, 3, 3, 1, 1]
0	0x3eb4ccdd	0.35312548
1	0x3e203a6a	0.15647283
2	0x3d67a55d	0.056554187
3	0x3fa504bc	1.289207
4	0x3ee0d15d	0.43909732
5	0x3e34b34a	0.17646518
6	0x3dd2d804	0.10295108
7	0x3c812ef9	0.015769469
8	0x3d62780b	0.055290263
9	0xbf81276f	-1.0090159
10	0xbe7a2644	-0.2442866
11	0xbdfefca7	-0.12450533
12	0x3ee1a187	0.44068548
13	0x3de6f4e7	0.1127718
14	0x3d57fab5	0.052729327
15	0x3f2396c8	0.6390195
16	0x3e6376e8	0.22213328
17	0x3e037cd9	0.12840594
18	0xbfbb18a9	-1.4616901
19	0xc010bfb8	-2.2617016
20	0xbfbe9c4f	-1.4891452
21	0x3da72eca	0.08163221
22	0x3f807a85	1.003739
23	0x3df60df0	0.12014377
24	0xbf0e0b47	-0.5548596
25	0xbf09424d	-0.5361679
26	0xbef5618f	-0.47925994

conv4.bias f4 [3]
0	0xbee586b9	-0.44829348
1	0x400bf61d	2.1868966
2	0x3f4363cd	0.7632416

conv5.weight f4 [3, 3, 1, 3, 3]
0	0xbf05c0c0	-0.5224724
1	0x3e1fa8ae	0.1559169
2	0xbe942a2f	-0.28938434
3	0x3e39014f	0.18066905
4	0x3f132ccf	0.5749025
5	0xbd25005d	-0.04028355
6	0xbdd75720	-0.10514665
7	0x3e4c3900	0.19943619
8	0xbd806d42	-0.06270839
9	0xbe622d19	-0.22087516
10	0x3f34260f	0.7037057
11	0x3ecb3835	0.3969132
12	0x3c9d2b3e	0.019185659
13	0xbec37a37	-0.3817918
14	0x3d025e7c	0.03182839
15	0xbe107d5e	-0.14110324
16	0xbdd34b62	-0.103171125
17	0xbea5041b	-0.32229695
18	0xbe18c816	-0.14920077
19	0x3ca70940	0.020390153
20	0x3ad27927	0.0016057835
21	0xbd02788d	-0.031853247
22	0xbca1182d	-0.019664848
23	0xbe00977d	-0.12557788
24	0xbb750f7c	-0.0037393263
25	0x3e08d4be	0.13362405
26	0xbda97f28	-0.08276206
27	0xbe039804	-0.12850958
28	0xbd5cda9a	-0.053919412
29	0xbe871a3a	-0.26387197
30	0x3e1461f3	0.1449049
31	0x3c8a2d37	0.016867263
32	0xbdaa572e	-0.083174095
33	0xbeb543cd	-0.3540329
34	0xbec30fe7	-0.3809807
35	0x3e339825	0.17538507
36	0xbde1eee5	-0.11031894
37	0xbdfda0f9	-0.12384219
38	0x3dcaecbe	0.09908436
39	0xbe5a77ae	-0.21334717
40	0xbe0200f6	-0.12695679
41	0xbedc15af	-0.42985293
42	0xbd02d402	-0.031940468
43	0x3e73c476	0.23805413
44	0x3d6a1a50	0.057154
45	0x3e671c84	0.22569472
46	0xbe3b634c	-0.18299598
47	0xbeb5089d	-0.35358134
48	0xbdee373e	-0.1163163
49	0xbca87f83	-0.020568615
50	0x3ebc329a	0.36757356
51	0x3e05fc0d	0.13084431
52	0xbcaab14d	-0.020836497
53	0x3db12bdd	0.086509444
54	0x3dae475b	0.08509704
55	0x3d31decb	0.043425363
56	0xbe8d6b04	-0.2762071
57	0x3f044225	0.5166343
58	0x3da53a07	0.080677085
59	0xbd634dcc	-0.055494115
60	0xbe74fe1f	-0.23925065
61	0xbe813642	-0.25236708
62	0x3e10d939	0.14145364
63	0xbedfcc24	-0.43710434
64	0x3e056173	0.13025455
65	0xbdf49c31	-0.11943854
66	0x3e4b7835	0.19870074
67	0x3d2f948e	0.042866282
68	0x3e3cf191	0.18451525
69	0x3ea4648a	0.32107955
70	0xbe29dd42	-0.1658831
71	0xbde2d127	-0.11075049
72	0xbe9f16f1	-0.3107219
73	0x3e03aa63	0.12857966
74	0x3e4dd7e5	0.20101888
75	0x3e0e70c2	0.13910201
76	0xbd228d74	-0.03968568
77	0xbdd5560b	-0.10416802
78	0x3c9931ae	0.018700447
79	0x3de7d670	0.113201976
80	0x3d9478c2	0.07249595

conv5.bias f4 [3]
0	0x40450c19	3.0788634
1	0xbe014067	-0.12622224
2	0xbf98efea	-1.1948216

conv6.weight f4 [3, 3, 3, 1, 1]
0	0x3df8658b	0.12128743
1	0x3f91bfaf	1.1386622
2	0xbeb4fe64	-0.35350335
3	0xbc966ba4	-0.018361874
4	0xbedb1618	-0.42790294
5	0x3f24afa2	0.64330494
6	0x3ea4194d	0.32050553
7	0xbf21678b	-0.6304862
8	0x3ebaabe9	0.36459282
9	0x3ca40775	0.020023087
10	0x3f8c020b	1.0938123
11	0xbed3c2f3	-0.41359672
12	0xbed2487d	-0.4107093
13	0x3f28a8a1	0.6588231
14	0xbf514606	-0.8174747
15	0x3d12e261	0.035860423
16	0xbde4dd46	-0.11175017
17	0x3d995b97	0.074881725
18	0x3c0e8472	0.00869857
19	0x3f1d5522	0.6145803
20	0xbe602630	-0.21889567
21	0xbc8b96a3	-0.017039603
22	0x3ea4b553	0.3216959
23	0xbf45c076	-0.772468
24	0x3c866ab6	0.016408306
25	0xbeeb9343	-0.4601079
26	0x3e3dac41	0.18522741

conv6.bias f4 [3]
0	0xbd86d739	-0.06584019
1	0xbe147926	-0.1449934
2	0x3faf4a2a	1.3694508

conv7.weight f4 [3, 3, 1, 3, 3]
0	0xbea6c13b	-0.32569298
1	0x3da583bf	0.08081769
2	0x3e245d09	0.16051115
3	0xbd3e9ff4	-0.046539262
4	0x3dd6b29d	0.104832865
5	0x3e0a6f65	0.13519056
6	0x3e8fcbe4	0.28085244
7	0xbe91038c	-0.2832302
8	0xbdf782be	-0.12085484
9	0xbe43ee60	-0.19133902
10	0xbe9216cc	-0.28533018
11	0xbdc5ec40	-0.09664202
12	0x3f323702	0.69615185
13	0x3f06384a	0.5242964
14	0xbe5f6fa5	-0.21819933
15	0x3d036f8b	0.032088798
16	0x3cd72fd2	0.02626792
17	0xbf210ebf	-0.62913126
18	0xbe89baef	-0.26900432
19	0xbe78b19c	-0.24286503
20	0x3e26a7c8	0.16274941
21	0xbdebeb2e	-0.11519466
22	0x3dba79a6	0.09105234
23	0xbba0fbbd	-0.004912822
24	0x3f659805	0.8968509
25	0xbde6c408	-0.11267859
26	0x3da0e426	0.07856016
27	0xbdf97953	-0.12181344
28	0xbef1c4bc	-0.4722041
29	0xbca8870c	-0.020572208
30	0x3eabddb8	0.33567595
31	0x3d5298fa	0.05141542
32	0x3eb63e74	0.35594523
33	0x3ed0f8b0	0.40814734
34	0xbdf606bb	-0.120130025
35	0xbe967b98	-0.2939117
36	0x3dd0cddc	0.101955146
37	0xbd08b55a	-0.033376075
38	0xbec691c4	-0.38783085
39	0xbdabb5ff	-0.083843224
40	0x3e3e98ec	0.18613023
41	0xbe914a89	-0.28377178
42	0x3e5e07a7	0.21682607
43	0xbe9c6ac6	-0.30550212
44	0xbe32ff1d	-0.1748013
45	0x3e00e0da	0.12585774
46	0x3de6d3c3	0.11270859
47	0xbcf1e675	-0.029528836
48	0x3e31c7dc	0.17361397
49	0x3dfe3cab	0.12413915
50	0x3dda2929	0.10652382
51	0x3e612f00	0.21990585
52	0x3e1a2846	0.15054426
53	0x3dfe9b08	0.124319136
54	0x3e0e97d1	0.13925101
55	0xbe6f48ea	-0.23367658
56	0x3e156f06	0.14593133
57	0xbc7fdf12	-0.015617149
58	0x3d03f40c	0.032215163
59	0x3e601781	0.21883966
60	0x3db41341	0.08792735
61	0x3de02eda	0.10946436
62	0xbe7cb6da	-0.24679127
63	0xbd561485	-0.052265663
64	0xbe0064a6	-0.12538394
65	0x3e0c216b	0.13684623
66	0xbe9623c2	-0.29324156
67	0x3e7ad255	0.24494298
68	0xbd7c6688	-0.06162122
69	0xbc44558c	-0.011983287
70	0xbe68476b	-0.22683494
71	0xbdd2fe25	-0.103023805
72	0xbefd9d07	-0.49533865
73	0xbb85a096	-0.004077981
74	0xbea842e0	-0.32863522
75	0x3dbec8a5	0.09315614
76	0x3d58d8f5	0.05294128
77	0x3eda6039	0.42651537
78	0xbdc32ad3	-0.095296524
79	0xbd838ff5	-0.06423942
80	0x3d55e93d	0.052224386

conv7.bias f4 [3]
0	0x3c7d2881	0.015451551
1	0xc0019e27	-2.0252779
2	0x409569bd	4.6691575

conv8.weight f4 [3, 3, 3, 1, 1]
0	0xbd28ad1a	-0.041180708
1	0x39b190c1	0.0003386792
2	0x3fa3a4e4	1.2784696
3	0x3d40809a	0.046997644
4	0x3d1c594f	0.03817111
5	0x3eac98ec	0.3371042
6	0xbe3b38fa	-0.18283454
7	0xbe4edebc	-0.20202154
8	0xbfaf0b16	-1.3675258
9	0xbf882695	-1.0636774
10	0xbeb1fa9e	-0.34761518
11	0xbf095c58	-0.5365653
12	0x3cb103af	0.021608202
13	0xbdc192e8	-0.09451848
14	0xbc9eb6d7	-0.019374294
15	0x3d1204ae	0.035648994
16	0xbc8298de	-0.015942033
17	0xbed5633b	-0.4167727
18	0xbcc111eb	-0.023568114
19	0x3ca2245e	0.019792732
20	0x3f9eebfc	1.2415767
21	0x3d293864	0.041313544
22	0x3d1fc49d	0.039005864
23	0x3ec144e0	0.3774786
24	0xbe03b9d5	-0.12863858
25	0xbe1a629e	-0.15076682
26	0xbfb0cc70	-1.3812389

conv8.bias f4 [3]
0	0xbf9a4ace	-1.2054079
1	0xbfc5838c	-1.543077
2	0xbf8b7bda	-1.0897171
