saved_model_resnet/upsample_at_location_4.pt (torch, 7314 bytes, 16 tensors)

conv1.weight f4 [3, 3, 1, 3, 3]
00000000: 0bf9 db3e c388 883d 4168 0d3e d9e9 c4bd
00000010: 372c b23c a7f9 743d db85 d9be 965b 953e
00000020: f82c 31be c962 c9bc 7ca8 a3be ca99 753e
00000030: 4136 bf3e a24f 0f3e 8c00 3ebf d80e 223e
00000040: 6f31 04bf dfaf bcbe d3ce 42be 5e26 0fbf
00000050: 1a69 c8be 0e11 aa3b c919 01bf dbf0 6fbf
00000060: c90c d8bd 2d80 a7bf 010b dabe bc28 fbbd
00000070: 9b46 95be 6df8 f3be 6797 243f 7fa2 3a3d
00000080: 13c0 5ebd df25 b03d 5805 093e bf37 193c
00000090: 5952 e73d 24c0 483d 4169 c7be bbf4 43bd
000000a0: 9ba8 bc3e f5b5 17be c7aa 41bd b4f6 8a3e
000000b0: 6059 1ebe 6a7a 99be d891 d6be 1860 b2bd
000000c0: 6406 473e 3385 933e 34bc c0bd 6219 053f
000000d0: 22df 47be c4ba 843d 20f4 3a3e 5d3e 6ebe
000000e0: cc5d 29be 40ed 7dbe 0965 ad3e d09a 473e
000000f0: 8afa 34be 17d5 433e e574 f43c b9d1 ab3e
00000100: 02e3 6fbe b71b 98be e46f cdbe 1df1 903e
00000110: 2366 d43e 7604 a2bd 9fdc ae3d 45cc abbb
00000120: 00df 3f3e 7252 6dbe 2c8a 4ebd dbbf 43be
00000130: 2eec 613e e181 ac3d 78f9 27be 7413 513e
00000140: 1cda 133d
0.42963442 0.0666671 0.13809301 -0.096149154 0.021749599 0.0598084 -0.42484936 0.29171437
-0.1730231 -0.024583237 -0.3196448 0.23984447 0.3734608 0.13995221 -0.74219584 0.15825975
-0.5163793 -0.3685293 -0.1902421 -0.5591792 -0.39142686 0.0051900214 -0.5042997 -0.9372689
-0.105493136 -1.3085991 -0.4258652 -0.12263629 -0.2915543 -0.4765047 0.6429352 0.045565125
-0.054382395 0.08600973 0.13380945 0.00935167 0.112950034 0.049011365 -0.3894749 -0.047840815
0.36847386 -0.14815505 -0.047282007 0.27141345 -0.15463781 -0.29976207 -0.41908145 -0.08709735
0.19436032 0.2881256 -0.09410897 0.51991856 -0.19518712 0.06480935 0.18257189 -0.23265977
-0.16539687 -0.24797535 0.33866146 0.1949265 -0.17673698 0.19124256 0.029840896 0.33558443
-0.2342644 -0.29708645 -0.40124428 0.28308955 0.41484174 -0.07911007 0.08538174 -0.0052428567
0.18737411 -0.23175982 -0.05042474 -0.19116156 0.22062752 0.0842321 -0.16403759 0.20417577
0.036096677

conv1.bias f4 [3]
00000000: 43b6 7e3f 1d1f 5b40 d0a0 d940
0.9949686 3.423774 6.8008804

conv2.weight f4 [3, 3, 3, 1, 1]
00000000: 0f04 79bd 84f1 85bd d91b b53d 7b9c 6c3c
00000010: 813a 823c 5cd1 7e3c a58e d9be 3898 2ebe
00000020: 891b 4fbd 4fb0 fa3d 0e02 0ebd a227 da3c
00000030: 73be 7a3d 0c39 ee3c f50f 133c 0851 f93e
00000040: ea20 173e c85a 533d f6f5 7ebe 9880 cdbd
00000050: 55af b6bd a2bf ad3c 8003 f63b 3986 b23b
00000060: b852 02bd 1bd4 53bb 4f90 593b
-0.060794886 -0.06540206 0.08843202 0.014441605 0.015897037 0.015552845 -0.42491642 -0.17050254
-0.05056337 0.122406594 -0.03466993 0.026630227 0.061216783 0.029079936 0.008975972 0.48694634
0.1475865 0.051600248 -0.24898514 -0.10034293 -0.08920161 0.021209542 0.0075077415 0.0054481295
-0.031817168 -0.003232247 0.0033197587

conv2.bias f4 [3]
00000000: cb41 a040 29b4 2ebd f84c 2d40
5.0080314 -0.042652283 2.7078228

conv3.weight f4 [3, 3, 1, 3, 3]
00000000: f826 f23f caa6 18be 0da2 6dbe 8596 b03f
00000010: 53ff bb3d ae6a 28be a786 8dbf 65ee 25bf
00000020: 5cc1 913e a41a 6d3e 16c9 52be 51e2 a03e
00000030: 0ba4 753d 6421 65be ebfc 40bd e801 d53d
00000040: 3343 0b3c 1b70 d7bc 559c c23d e5a8 e53e
00000050: 953f 073f 89f3 87bd f3f1 90be d5c9 75bd
00000060: d98b 3fbf 791a 86bd 76c2 d63d 156f a03d
00000070: 9d4e a7bc 9751 a13c 7689 ebbe 7428 573d
00000080: c198 cb3e fd39 f93e 38f0 f73e fc6f 0b3e
00000090: e206 36bf 71dd e03d c6bb eb3d 1af8 913e
000000a0: b1c6 2e3f 0e56 91be e2ef acbd 1350 76be
000000b0: 8e8c c63d f0bb 023f d8f6 2abf 8e61 f3bd
000000c0: 15c8 073e f7b4 dd3c f3fb 103f 4ab9 e43e
000000d0: 6390 8d3e 4bed 693f dfc8 1b3e 40ff 42be
000000e0: 01f2 823e 8bfd 46be fda6 c4bd f1ca 3d3d
000000f0: 85bf d73e fa36 00be 0296 fd3e fee4 943e
00000100: c7c2 1d3d f75b a8be fc0e ff3e cf63 fb3e
00000110: e8a0 53bd f419 26bf eb02 4c3d bcfd adbc
00000120: c6b9 233d f338 1ebf 3e78 c73e d3ec 0ebf
00000130: c3a8 9f3e f763 363f 3b82 b0be d0fc 0ebe
00000140: 09ec b43e
1.8918142 -0.14907375 -0.23206349 1.3795935 0.091795586 -0.16446945 -1.1056718 -0.64816886
0.28467834 0.23154694 -0.2058452 0.31422666 0.059970897 -0.22376019 -0.0471162 0.10400754
0.008499908 -0.026298573 0.09502474 0.4485542 0.52831393 -0.066382475 -0.28309593 -0.060006935
-0.74822766 -0.06548018 0.10486309 0.07833687 -0.020423228 0.019692225 -0.46003312 0.052528813
0.3976498 0.48677054 0.4842546 0.13616937 -0.7110425 0.109797366 0.11510424 0.285096
0.6827193 -0.28385967 -0.084441915 -0.24053983 0.096947774 0.5106802 -0.66782904 -0.118838415
0.13259919 0.02706383 0.56634444 0.44672614 0.2764922 0.91377705 0.15213345 -0.19042683
0.2557526 -0.19432656 -0.09602163 0.046336118 0.42138305 -0.12520972 0.4952851 0.29080957
0.038515832 -0.32882664 0.4981612 0.49099585 -0.051667124 -0.6488335 0.04980747 -0.021239154
0.03997209 -0.6180565 0.38958925 -0.55830115 0.31183442 0.71246284 -0.34474358 -0.13963628
0.3533633

conv3.bias f4 [3]
00000000: 0cfa f5be c9df fa3f 7f0a 863f
-0.48042333 1.9599544 1.0471953

conv4.weight f4 [3, 3, 3, 1, 1]
00000000: b1e4 353a 006e 8dbd b1b0 01bf 7213 aebb
00000010: f047 193c 80f0 3d3e 3535 b73c 7cfa a63d
00000020: 39fd 033f 517b da3d 752e 0c3e 2f3d 2abd
00000030: e0c3 af3d 56cc 1d3e 07df 9d3e 93f1 3d3d
00000040: a773 aabe 037c 87bf b9ae 4c3d 0b31 473c
00000050: 19a6 52bf 7097 853d 1c88 653e 2c63 4740
00000060: f94f 6f3d be7d 743c 552a 923e
0.000693868 -0.069057465 -0.50660235 -0.0053123767 0.00935553 0.18548775 0.022364238 0.08153245
0.5155826 0.10668052 0.13689597 -0.041562255 0.08582282 0.15409979 0.3083422 0.04637296
-0.3329136 -1.058472 0.049971316 0.012157689 -0.82284695 0.06523025 0.22415203 3.115428
0.058425877 0.014922557 0.28547922

conv4.bias f4 [3]
00000000: d0d4 41bc 3ae4 2940 0ea8 1c40
-0.011830524 2.6545548 2.4477572

conv5.weight f4 [3, 3, 1, 3, 3]
00000000: 789c 113d c5a8 d03e 0e99 76bd 327e e23e
00000010: e563 d43e 9c40 27bf 5bf8 0bbf 3068 d0bd
00000020: a362 11bf 17a0 d73e d0c4 93bd 3ea5 ae3e
00000030: ac46 803e 15b7 1ebf 90a6 9cbd 6c93 e53e
00000040: 2884 73be fa3a c03e 1e21 4e3e 7842 86be
00000050: 17c2 2ebe d61c 9f3d 2b23 923e 780c 663e
00000060: 96a8 61be 6508 2f3e 002b 6a3d db43 ee3e
00000070: 5afa 1bbd e3e0 cabe 8228 04be 188f 113f
00000080: 5e1c 033f d6d3 8e3d 0bae e43d 6477 29bf
00000090: 4152 81be 61cb 223e 0f3d 55bd 3701 783d
000000a0: 48b9 e4bc 0c59 5c3f c3a6 923f 538d 1bbd
000000b0: c5c2 7b3f c3ff ab3e 0ea6 17be 274f c7bd
000000c0: d124 ca3e 2bc1 3abc ef4f fcbd f613 3c3e
000000d0: adbc 6dbe 2a30 8d3e 6662 b53e 99a9 193e
000000e0: 36a6 b53e 9abc a2be 7281 34be 3a2d 91be
000000f0: 2d8b 1f3e d654 8b3d bdab d63e 5aff 8e3e
00000100: 024c 6abe 7c9e 323d 1ca7 91be 321e c5be
00000110: 91ce f23e eb3f 3c3e 75fc 553d 81a4 193f
00000120: 3f5d 193f 9e18 71bd 7d43 a13e 4592 03bf
00000130: 5aba debe ec4d 1abe cf2a 1d3f dc3b abbd
00000140: 474e b83e
0.03554961 0.4075376 -0.060204558 0.44236904 0.41482463 -0.6533296 -0.54675835 -0.10176122
-0.5679113 0.42114326 -0.072152734 0.34110445 0.25053918 -0.6199811 -0.07648957 0.44839036
-0.23780882 0.37544996 0.2012982 -0.26222587 -0.17066227 0.07769172 0.28542456 0.22465694
-0.22036967 0.17093046 0.057169914 0.46536145 -0.03808055 -0.396247 -0.12906078 0.5685897
0.5121516 0.06973998 0.111660086 -0.661978 -0.25258067 0.15897895 -0.052060183 0.060548034
-0.02792038 0.86073375 1.1457142 -0.037976574 0.9834407 0.33593568 -0.14809439 -0.09731894
0.39481214 -0.011398594 -0.123199336 0.1836699 -0.23216505 0.2757581 0.35426635 0.15006103
0.3547837 -0.31784517 -0.17627504 -0.28354818 0.15580435 0.068032905 0.419279 0.27929193
-0.22880557 0.043608174 -0.28447807 -0.384996 0.47423223 0.18383758 0.052242715 0.6001664
0.5990791 -0.058861367 0.31496802 -0.51395065 -0.4350155 -0.15068787 0.61393446 -0.08361027
0.3599722

conv5.bias f4 [3]
00000000: f4e9 0140 10d9 a13f 0bb2 68bf
2.0299044 1.2644367 -0.9089667

conv6.weight f4 [3, 3, 3, 1, 1]
00000000: 0465 c23e f99d 8f3f 6273 83be 8630 243f
00000010: 9ef0 513f e80b bfbb 3870 f83e 365f 3ebf
00000020: 19b0 9d3e 38e9 6c3e 93d7 f8be 2de7 a13e
00000030: fa86 90be 121b e03e b5d5 8ebe b92e d63e
00000040: b05c 783f f00b 37bb 59a1 1dbd d8e3 853f
00000050: 0a44 12be 414c 68be 4dff 213f e197 16be
00000060: 9206 753d 8fd7 8ebd f1cb d13e
0.37967694 1.1220084 -0.25673968 0.6413654 0.8200778 -0.0058302768 0.48523116 -0.7436403
0.30798414 0.23135841 -0.4860197 0.31621686 -0.2822798 0.43770653 -0.2789742 0.41832522
0.9701643 -0.00279307 -0.03848395 1.0460157 -0.14283767 -0.22685339 0.63280183 -0.14706375
0.05982072 -0.06974708 0.40975907

conv6.bias f4 [3]
00000000: 027d 013f 531c 2dbf a95c 553f
0.5058137 -0.67621344 0.83344513

conv7.weight f4 [3, 3, 1, 3, 3]
00000000: 6e30 403f fcd4 3bbe ff44 55bd 4a35 813e
00000010: 6266 953e ea20 edbd 33bb a83e 9249 8bbd
00000020: 229c a33d be4a 123f 578f 8bbd cdac e83e
00000030: 8d23 843d 8c8f 1f3f a8c2 0a3f 04dd a13e
00000040: d5b4 d83e 3e83 973e d84a 24bf 4991 723e
00000050: 3419 0d3d 8dcd 98be 2824 adbd cae6 e9b9
00000060: 6047 7b3d 2a2c b0be 2818 173e 262b 1fbe
00000070: adb6 6d3c 5d0e cc3e 10b9 8e3e 81ca 0c3f
00000080: 16cf 54be 9615 da3d ce4b 1dbe f292 1b3f
00000090: b176 9ebf ff74 d4bd ef80 10bf cdb6 e8be
000000a0: 332c 873e 1479 84bc b411 bfbd 69ae 06be
000000b0: b562 853c 2bd2 2bbd 9ebf 1b3f eba4 103f
000000c0: d64f b8bd aa48 e73e 6c85 d43e 2883 1b3f
000000d0: 037e 093f e2bb 08bd 6cdf 913d 45a1 d1bd
000000e0: bf3a 9d3e 67f3 373c a8a7 bc3e 5122 7bbe
000000f0: e60f c2bd 07d3 16bd 6cd7 42be befe 96be
00000100: 4bb8 533f 0863 133f ee29 cfbe a89a 123f
00000110: 2942 b13d 3764 4cbf 08bb 5a3d 4bbd f63c
00000120: 16c2 26bf a5e7 3bbe 9bfc 243f 4ed6 b9be
00000130: 3a7b 3e3d 1de2 823e 318d d5be ba43 c93d
00000140: 7d69 79be
0.750739 -0.18342966 -0.052067753 0.2523597 0.29179674 -0.115785435 0.32955322 -0.06801142
0.07988764 0.571453 -0.06814449 0.45444337 0.06452093 0.6232841 0.5420327 0.31613934
0.42325464 0.29592317 -0.641767 0.23688234 0.034447864 -0.29844323 -0.08454162 -0.00044613174
0.061347365 -0.34408695 0.14755309 -0.15543804 0.014508885 0.39854708 0.27875566 0.54996496
-0.20782122 0.106486484 -0.15360948 0.60771096 -1.2379972 -0.10373878 -0.5644674 -0.45451966
0.2640091 -0.016171016 -0.093295485 -0.1315247 0.016282419 -0.04194848 0.6083926 0.56501645
-0.089996025 0.45172626 0.41508043 0.60747004 0.53707904 -0.033382304 0.071226925 -0.10235838
0.30708882 0.011227465 0.36846662 -0.2452481 -0.09475689 -0.036822345 -0.1902749 -0.29491228
0.82703084 0.57572985 -0.40461677 0.57267237 0.08655197 -0.79840416 0.053401023 0.030119559
-0.651399 -0.18350084 0.64447945 -0.36296314 0.046504237 0.25563136 -0.41709283 0.09827371
-0.24356647

conv7.bias f4 [3]
00000000: 2d43 26bf e793 993f 4892 783f
-0.6494625 1.1998261 0.9709821

conv8.weight f4 [3, 3, 3, 1, 1]
00000000: d61a d4bc e47a d63e 33d0 e03e e29b 7d3e
00000010: 9917 d1bf e2c9 b93d 4255 0a3d 040c 55bf
00000020: eb2d 823d 11c2 f1bc 9d43 e63e abf0 df3e
00000030: a1bf 793e 1030 d6bf 04bf c53d 7977 473d
00000040: e5d4 5ebf 09ec 4a3d 84cc 3abc 7234 d43e
00000050: b9e6 db3e 6905 623e eebc ccbf a103 a83d
00000060: 3bbc 353d 477b 57bf 3565 833d
-0.025891703 0.41890633 0.43908843 0.24766496 -1.6335326 0.09071709 0.033772714 -0.8322146
0.063564144 -0.029511483 0.4497346 0.43738303 0.24389507 -1.6733418 0.09655574 0.048697922
-0.870436 0.049541507 -0.011401299 0.41446263 0.42949465 0.22072376 -1.5995157 0.08203817
0.044368964 -0.8417248 0.06415788

conv8.bias f4 [3]
00000000: aad6 dabe da75 62bf 1450 86bf
-0.427419 -0.8846108 -1.0493188
