saved_model_resnet/upsample_at_location_5.pt (torch, 7314 bytes, 16 tensors)

conv1.weight f4 [3, 3, 1, 3, 3]
-0.043589503 -0.38485834 -0.11558559 0.012066708 0.43022624 -0.21563557 0.03453347 0.075986445
0.07110792 -0.44012082 -0.17242073 -0.15431339 -0.15742911 0.8103657 0.09912634 -0.30757874
-0.06835342 0.269568 -0.46051013 -0.33267877 -0.17237546 0.08309783 0.28881043 0.03779528
0.55572563 0.110722356 -0.33492166 0.1919195 0.10195144 0.060070764 -0.06273187 0.03976269
-0.07551159 0.19920166 -0.21199778 0.21436764 0.9091217 -0.21663377 0.81812185 -0.031237122
-0.15721828 0.019672973 0.6281263 0.31505534 0.502551 0.7246707 0.0020422654 0.71782964
-0.080151714 0.06899417 -0.15026297 0.818036 -0.18520689 0.69387066 -0.071124196 -0.5503442
-0.015455467 -0.3963067 0.010513545 0.05722333 -0.09002605 0.07234659 0.3430771 0.0851049
-0.011199988 -0.18834151 -0.38395104 -0.24325708 -0.011170124 0.27746448 0.22476946 -0.052776147
-0.46433324 -0.49468213 0.098846495 -0.8807196 -0.18458363 -0.39126977 0.41336647 0.48004726
0.031919405
00000000: e88a 32bd 270c c5be 23b8 ecbd 71b3 453c
00000010: 9d46 dc3e 92cf 5cbe f872 0d3d c89e 9b3d
00000020: 07a1 913d 8457 e1be 0f8f 30be 5404 1ebe
00000030: 1935 21be 2074 4f3f c002 cb3d f67a 9dbe
00000040: e1fc 8bbd d104 8a3e fcc7 ebbe df54 aabe
00000050: 3183 30be 322f aa3d f6de 933e 39cf 1a3d
00000060: 0944 0e3f 67c2 e23d da7a abbe 8c86 443e
00000070: ebcb d03d c30c 763d 9179 80bd 34de 223d
00000080: d2a5 9abd 85fb 4b3e f215 59be 3183 5b3e
00000090: 33bc 683f 3ed5 5dbe 6f70 513f fee4 ffbc
000000a0: d4fd 20be 3729 a13c e3cc 203f ef4e a13e
000000b0: 2fa7 003f 0584 393f 87d7 053b afc3 373f
000000c0: 9526 a4bd d14c 8d3d 89de 19be cf6a 513f
000000d0: e0a6 3dbe 82a1 313f 90a9 91bd 5ce3 0cbf
000000e0: ed38 7dbc b6e8 cabe 0141 2c3c 0363 6a3d
000000f0: 945f b8bd 732a 943d cda7 af3e 7a4b ae3d
00000100: 2880 37bc 99dc 40be 3b95 c4be 6218 79be
00000110: e502 37bc d30f 8e3e f729 663e cd2b 58bd
00000120: 16bd edbe fa46 fdbe 0870 ca3d d776 61bf
00000130: 7e03 3dbe 8354 c8be c5a4 d33e c1c8 f53e
00000140: ecbd 023d

conv1.bias f4 [3]
6.2618413 0.5473456 0.6311765
00000000: 0161 c840 d71e 0c3f c894 213f

conv2.weight f4 [3, 3, 3, 1, 1]
-0.12325397 -0.026734969 -0.002366223 0.92334586 0.40947506 0.16832161 -0.07392148 -0.16972156
-0.08688814 0.009769214 -0.016567253 -0.014650933 0.23282859 0.10410064 0.04020563 0.6751314
0.45590177 0.2974288 0.5877276 0.38188285 0.24928178 -0.0109094875 0.008085422 0.015883563
-0.29334897 -0.11890526 0.17649229
00000000: 946c fcbd 4b03 dbbc a212 1bbb 6560 6c3f
00000010: b7a6 d13e 805c 2c3e 2564 97bd 7dcb 2dbe
00000020: 69f2 b1bd 0e0f 203c 0cb8 87bc 780a 70bc
00000030: 9e6a 6e3e b732 d53d a9ae 243d 69d5 2c3f
00000040: f56b e93e 9648 983e 5175 163f 2686 c33e
00000050: b943 7f3e b5bd 32bc b878 043c 3f1e 823c
00000060: d631 96be 9a84 f3bd 65ba 343e

conv2.bias f4 [3]
-1.0911889 1.617811 1.707875
00000000: 14ac 8bbf 6e14 cf3f a69b da3f

conv3.weight f4 [3, 3, 1, 3, 3]
-0.04460757 -0.078689 0.20374294 -0.15111789 0.43385983 -0.28136542 0.025879754 0.13065891
-0.4703067 -0.20280841 -0.3107963 -0.43254024 -0.13080834 0.29911715 0.05350764 0.17853937
-0.16301292 0.313836 -0.48986697 0.08033979 -0.2834562 0.7000889 0.88479584 -0.4707268
0.57247156 0.5548758 -0.20960996 -0.13343708 -0.09708968 -0.044281445 0.42327294 0.28684297
-0.017948784 -0.033312038 -0.5618523 0.21892996 -0.40178522 0.42833772 -0.1840581 0.042284694
0.029117066 -0.09411749 0.37283728 -0.53523266 0.4400807 0.13341562 0.094343334 0.31774387
0.06598615 -0.15260388 -0.07411218 0.28478745 -0.13657792 0.08187178 0.25117227 -0.4483428
-0.10114803 -0.19044141 0.45298728 -0.021942059 -0.34137496 0.33874738 0.087567486 0.41078764
0.15594137 -0.043489642 0.18989319 0.087399215 0.1097442 -0.43307716 -0.0011382701 -0.11861855
0.069327764 0.20224962 0.3922359 0.43396124 0.06438314 -0.044885226 0.05405226 0.09093051
-0.22846341
00000000: 6db6 36bd b327 a1bd fda1 503e a6be 1abe
00000010: e022 de3e 210f 90be c701 d43c 73cb 053e
00000020: 0acc f0be 02ad 4fbe b120 9fbe ea75 ddbe
00000030: 9ff2 05be e225 993e d42a 5b3d 06d3 363e
00000040: dcec 26be 1daf a03e d8cf fabe 3089 a43d
00000050: 2c21 91be 0739 333f fb81 623f 1a03 f1be
00000060: 7f8d 123f 570c 0e3f fea3 56be bba3 08be
00000070: f4d6 c6bd 7660 35bd 3bb7 d83e 15dd 923e
00000080: 5409 93bc 3472 08bd 8dd5 0fbf 2d2f 603e
00000090: cbb6 cdbe 154f db3e ba79 3cbe b732 2d3d
000000a0: ea86 ee3c acc0 c0bd 87e4 be3e 0205 09bf
000000b0: 4252 e13e 1b9e 083e 1437 c13d 53af a23e
000000c0: bf23 873d 3144 1cbe 20c8 97bd a9cf 913e
000000d0: 15db 0bbe 64ac a73d a799 803e 308d e5be
000000e0: b326 cfbd 1303 43be f3ed e73e d5bf b3bc
000000f0: b3c8 aebe 4c70 ad3e 9556 b33d c252 d23e
00000100: 18af 1f3e 3222 32bd 5c73 423e 5cfe b23d
00000110: 91c1 e03d 4abc ddbe 0232 95ba 48ee f2bd
00000120: b7fb 8d3d 861a 4f3e 25d3 c83e 2b30 de3e
00000130: 4fdb 833d 92d9 37bd e765 5d3d c639 ba3d
00000140: 50f2 69be

conv3.bias f4 [3]
0.8037525 4.2578044 -1.454818
00000000: b9c2 4d3f ef3f 8840 7a37 babf

conv4.weight f4 [3, 3, 3, 1, 1]
0.08235288 0.16187948 -0.078571275 -0.18265647 1.3729208 -0.5053478 0.026883937 -0.04334531
0.020353088 0.40530586 0.13489695 0.110292844 0.0018786718 0.4935605 -0.17201124 -0.0013516316
-0.39185193 0.15696514 0.106698334 0.4271247 -0.23419549 0.03509853 -0.26395983 0.058747575
-0.11831379 1.0381113 -0.37059397
00000000: a0a8 a83d bcc3 253e fae9 a0bd 4c0a 3bbe
00000010: debb af3f 795e 01bf b43b dc3c da8a 31bd
00000020: 85bb a63c 4084 cf3e 6d22 0a3e 37e1 e13d
00000030: c43d f63a f6b3 fc3e b723 30be 3b29 b1ba
00000040: d1a0 c8be 78bb 203e a884 da3d 17b0 da3e
00000050: f1d0 6fbe 7ac3 0f3d be25 87be 4ca1 703d
00000060: 804e f2bd d5e0 843f 7ebe bdbe

conv4.bias f4 [3]
-0.07122882 2.5529315 -0.4010826
00000000: 6ae0 91bd 3b63 2340 b35a cdbe

conv5.weight f4 [3, 3, 1, 3, 3]
0.59301853 0.5538323 -0.15927859 0.23720688 0.08132577 -0.2839132 -0.41109908 -0.1284611
-0.37254664 -0.4818768 0.04142378 0.6242887 0.33024374 0.18652354 -0.41190094 -0.29418722
-0.20311177 -0.1715161 -0.15657021 -0.14511202 -0.0434785 -0.5245965 0.44408685 0.38671154
-0.3880484 0.08691388 0.05159311 0.0065695173 -0.24197613 0.10104377 -0.31592357 -0.013969736
-0.03301215 -0.29330593 0.22577827 0.18871014 1.0000125 0.16905281 0.92662084 0.46500787
-0.3054716 0.20357844 0.56727123 -0.22593851 0.14172165 -0.35822356 -0.32305646 0.04491381
0.18520638 -0.2204574 -0.10736181 0.14369689 0.32270545 0.25705308 -0.40842518 -0.4343472
0.11518247 -0.19008331 -0.12654446 0.26466236 0.13346648 0.39953893 0.083544895 0.02788723
0.16075878 0.08042167 -0.12448141 -0.02150084 0.27046815 -0.0029018996 0.11568135 -0.03599759
-0.0042057806 -0.013667465 0.23018986 0.46203643 -0.05094806 -0.4817008 -0.0071851206 -0.0050355387
0.023591436
00000000: 10d0 173f f4c7 0d3f ed19 23be 5ce6 723e
00000010: 208e a63d 125d 91be 947b d2be 4e8b 03be
00000020: 6fbe bebe 8eb8 f6be fbab 293d 62d1 1f3f
00000030: b515 a93e 0700 3f3e aee4 d2be b59f 96be
00000040: 88fc 4fbe eba1 2fbe f153 20be 3f98 14be
00000050: 8316 32bd f54b 06bf 5a5f e33e 0eff c53e
00000060: 48ae c6be e8ff b13d 4c53 533d 1b45 d73b
00000070: 97c8 77be 09f0 ce3d bcc0 a1be 52e1 64bc
00000080: c037 07bd 322c 96be 6b32 673e 3b3d 413e
00000090: 6900 803f 2e1c 2d3e 0637 6d3f 8315 ee3e
000000a0: c666 9cbe de76 503e b038 113f 6d5c 67be
000000b0: 7b1f 113e 1469 b7be a867 a5be 8bf7 373d
000000c0: bea6 3d3e 96bf 61be 82e0 dbbd 4725 133e
000000d0: a639 a53e 769c 833e 1b1d d1be c262 debe
000000e0: c9e4 eb3d 33a5 42be df94 01be d381 873e
000000f0: 70ab 083e 5e90 cc3e 9619 ab3d c373 e43c
00000100: f39d 243e 1eb4 a43d 1cf0 febd 8822 b0bc
00000110: cd7a 8a3e cc2d 3ebb 58ea ec3d 3572 13bd
00000120: a5d0 89bb 81ed 5fbc e4b6 6b3e 0a90 ec3e
00000130: eaae 50bd 7da1 f6be 2971 ebbb 2901 a5bb
00000140: d442 c13c

conv5.bias f4 [3]
3.2466812 2.96063 0.8132254
00000000: a0c9 4f40 f67a 3d40 8a2f 503f

conv6.weight f4 [3, 3, 3, 1, 1]
0.2702165 1.5396575 0.3218166 0.1556273 0.3337986 0.6690997 -0.0019608515 -0.17457727
0.04141197 0.09675501 0.5158839 0.0839684 0.050138067 -0.23094954 0.16805601 -0.051265474
-0.123319425 -0.036900107 0.14016047 -0.013383688 0.27130902 0.08348948 0.29065487 0.5125122
0.055065826 1.3917354 -0.045429945
00000000: d159 8a3e 7f13 c53f 25c5 a43e c35c 1f3e
00000010: a6e7 aa3e 1e4a 2b3f a181 00bb 62c4 32be
00000020: 999f 293d 7e27 c63d f810 043f a0f7 ab3d
00000030: 935d 4d3d 097e 6cbe e016 2c3e bffb 51bd
00000040: e58e fcbd 9124 17bd 3a86 0f3e 4247 5bbc
00000050: 04e9 8a3e 88fc aa3d b7d0 943e 0034 033f
00000060: b48c 613d 6324 b23f c014 3abd

conv6.bias f4 [3]
2.3255024 2.638049 -0.005535071
00000000: 08d5 1440 cbd5 2840 8a5f b5bb

conv7.weight f4 [3, 3, 1, 3, 3]
0.09898491 -0.13278496 -0.08282453 -0.3303909 0.4655679 0.30749655 -0.18704316 -0.17211992
0.19613041 0.20831402 -0.15495588 -0.24437702 0.35071522 -0.16957434 0.14829007 -0.026719922
0.101625815 0.23776668 0.31623527 -0.38116676 0.52799445 -0.25276846 -0.0167903 -0.47559696
0.18192971 0.1953227 -0.090429194 0.21638133 -0.11665426 0.1482429 -0.16995564 0.21213478
0.48583427 0.5157316 0.063912824 -0.21207397 -0.28974798 -0.5356818 0.25373536 0.3255312
-0.7316911 -0.062886454 0.2241384 0.01729935 -0.23801123 0.4759432 0.116847515 -0.54344636
-0.20018625 0.0137136225 -0.43041617 -0.17040403 0.5414181 0.54781324 0.73920274 -0.06313
-0.85513896 0.25341418 -0.13106911 -0.44561422 0.4343548 0.39167222 0.5956013 0.08469174
-0.28331435 0.12700327 0.122244425 0.32292777 -0.095165364 -0.3910532 -0.42357895 0.11427144
-0.5700911 0.047877315 0.88720894 -0.52073556 0.15877202 0.5177699 0.53461856 -0.038277138
-0.2891903
00000000: 9ab8 ca3d c8f8 07be e89f a9bd ff28 a9be
00000010: ea5e ee3e 3070 9d3e 3e88 3fbe 3440 30be
00000020: 69d6 483e 4550 553e c1ac 1ebe f83d 7abe
00000030: f290 b33e e5a4 2dbe 5ad9 173e bde3 dabc
00000040: 3221 d03d 1c79 733e 97e9 a13e 4a28 c3be
00000050: a52a 073f de6a 81be d08b 89bc 7281 f3be
00000060: c84b 3a3e ad02 483e f132 b9bd 1193 5d3e
00000070: 6ee8 eebd fdcc 173e da08 2ebe dc39 593e
00000080: 45bf f83e fc06 043f bae4 823d eb29 59be
00000090: d959 94be 7122 09bf 9ae9 813e 07ac a63e
000000a0: 1c50 3bbf 9dca 80bd 8984 653e 5eb7 8d3c
000000b0: 37b9 73be d4ae f33e c04d ef3d 4d1f 0bbf
000000c0: a0fd 4cbe 1aaf 603c 825f dcbe 657e 2ebe
000000d0: 609a 0a3f 7d3d 0c3f 643c 3d3f 4d4a 81bd
000000e0: 63ea 5abf 81bf 813e fb36 06be 8c27 e4be
000000f0: c163 de3e 4389 c83e 5479 183f dd72 ad3d
00000100: 940e 91be 250d 023e 495b fa3d ca56 a53e
00000110: 0fe6 c2bd 2038 c8be 57df d8be 2507 ea3d
00000120: 7ef1 11bf 011b 443d 2020 633f ed4e 05bf
00000130: 2295 223e 918c 043f c3dc 083f 7dc8 1cbd
00000140: c010 94be

conv7.bias f4 [3]
1.0637652 1.5353203 -0.91709125
00000000: 7529 883f 6085 c43f 7ec6 6abf

conv8.weight f4 [3, 3, 3, 1, 1]
-0.5491797 0.37141883 -0.30782083 -0.32701015 -0.47319868 -0.011601465 -0.21293177 -0.38121045
-0.6738462 0.0063630603 0.07442659 0.68255734 -0.030094262 -0.16161387 -1.494074 0.01658022
0.12301977 1.1098044 0.0059291404 0.0754242 0.6732903 -0.024873547 -0.15859604 -1.4650643
0.015963778 0.12513642 1.0865803
00000000: 0a97 0cbf 9c2a be3e b19a 9dbe e06d a7be
00000010: 1947 f2be 1214 3ebc c90a 5abe 042e c3be
00000020: 2f81 2cbf 3881 d03b f86c 983d 14bc 2e3f
00000030: 3e88 f6bc 1b7e 25be d13d bfbf 3ed3 873c
00000040: caf1 fb3d 120e 8e3f 3c49 c23b 0178 9a3d
00000050: c15c 2c3f 9cc3 cbbc 0067 22be 3a87 bbbf
00000060: 78c6 823c c323 003e 1015 8b3f

conv8.bias f4 [3]
-0.3705647 -1.011104 -0.85666364
00000000: a8ba bdbe db6b 81bf 4f4e 5bbf
