saved_model_resnet/upsample_at_location_1.pt (torch, 7314 bytes, 16 tensors)

conv1.weight f4 [3, 3, 1, 3, 3]
0	0xbe9944ab	-0.29935202
1	0x3e622c20	0.22087145
2	0xbe5e0233	-0.21680526
3	0x3ea0c243	0.3139821
4	0xbe3c4fdf	-0.18389843
5	0x3f06e10c	0.52687144
6	0xbe07c3ad	-0.13258238
7	0x3dc559e7	0.09636288
8	0xbea8ce4e	-0.32969898
9	0xbe1382c1	-0.14405347
10	0x397257d2	0.00023111634
11	0x3e966a73	0.2937809
12	0xbea6ed8c	-0.3260311
13	0x3deabf6f	0.11462294
14	0x3e88f578	0.26749778
15	0x3e3ebd6a	0.18626943
16	0x3e020059	0.12695445
17	0xbee7b4ad	-0.45255032
18	0xbf00b829	-0.50281006
19	0x3e63f580	0.2226162
20	0x3db07713	0.086164616
21	0x3b04e229	0.0020276404
22	0x3ef1188d	0.47089043
23	0x3e62d830	0.22152781
24	0x3d88be1a	0.06676884
25	0xbe9fd70b	-0.31218752
26	0xbe666a89	-0.22501577
27	0xbe647a27	-0.22312222
28	0xbec74880	-0.389225
29	0xbf0280c7	-0.5097775
30	0xbe836dd0	-0.25669718
31	0xbeb7b8f3	-0.35883293
32	0xbed520f2	-0.41626698
33	0x3cbce1cd	0.023056889
34	0xbdce5706	-0.10075192
35	0xbf0a1cde	-0.539503
36	0xbda33a84	-0.07970145
37	0xbd01a6ba	-0.031653143
38	0x3e360ccb	0.17778318
39	0xbe65d822	-0.2244573
40	0x3d977f97	0.07397383
41	0xbe46d95b	-0.19418852
42	0x3cd794fd	0.02631616
43	0xbde37049	-0.11105401
44	0xbe07ee44	-0.13274485
45	0xbe2eb7a3	-0.1706224
46	0xbe2c5f8b	-0.16833322
47	0x3e908d38	0.2823274
48	0x3cf911ab	0.030403933
49	0x3e553990	0.2082274
50	0xbe947c3f	-0.29001042
51	0xbe5f91d8	-0.21832979
52	0xbc6b874a	-0.014375517
53	0x3d7443c6	0.059634946
54	0x3da752b0	0.08170068
55	0x3b99d498	0.0046945326
56	0xbf2f1994	-0.68398404
57	0x3db64f57	0.089018516
58	0x3f25338c	0.6453178
59	0x3ebd0105	0.3691484
60	0xbecf4662	-0.40483385
61	0xbdb3eafe	-0.087850556
62	0xbcfba514	-0.030718364
63	0x3d9d8740	0.076918125
64	0xbec3d5b2	-0.38248974
65	0xbf145838	-0.5794711
66	0xbd02a3e7	-0.03189459
67	0x3c9d632c	0.019212328
68	0x3ea3772a	0.31926852
69	0xbe51d908	-0.20492947
70	0x3e9d74ea	0.3075326
71	0x3e277d99	0.16356505
72	0x3e4d72a6	0.20063266
73	0xbdfa34dc	-0.122171134
74	0xbe897844	-0.26849568
75	0x3e2ef56a	0.17085806
76	0xbecc2ded	-0.3987879
77	0x3e460838	0.19339073
78	0x3e0dc574	0.13844854
79	0xbe1d4749	-0.15359224
80	0x3e34915e	0.17633578

conv1.bias f4 [3]
0	0x411cb530	9.794235
1	0xbeb76637	-0.3582017
2	0x405d991a	3.4624696

conv2.weight f4 [3, 3, 3, 1, 1]
0	0xbbfd7c75	-0.0077357837
1	0xbc3c7779	-0.011503094
2	0xbc06ad64	-0.0082200505
3	0xbefd8cd8	-0.49521518
4	0x3f04ec93	0.51923484
5	0xbe70e387	-0.23524295
6	0xbc251a2a	-0.010077039
7	0x3e92170e	0.28533214
8	0xbc32be2f	-0.010909601
9	0x3ab2b521	0.0013634303
10	0x3fbfe152	1.4990637
11	0x3b5d7d4a	0.0033796602
12	0xbec00153	-0.3750101
13	0x3e19458d	0.14967938
14	0xbe95169d	-0.29118815
15	0x3c91358b	0.017725727
16	0x3dcaadd4	0.09896436
17	0x3d9a2883	0.07527258
18	0x3d0244c9	0.03180388
19	0x3dc105ca	0.09424932
20	0x3d465696	0.04842242
21	0xbf147795	-0.5799497
22	0x3e30dded	0.17272158
23	0x3d0e74a2	0.0347792
24	0xbc9ae54f	-0.018908171
25	0xbd4b30a9	-0.049606953
26	0xbd1219de	-0.0356692

conv2.bias f4 [3]
0	0x3f017e9e	0.5058383
1	0x3c13ca94	0.009020466
2	0x3ed61964	0.41816247

conv3.weight f4 [3, 3, 1, 3, 3]
0	0x3edccc8c	0.43124807
1	0xbec3f966	-0.38276213
2	0xbe0a12ee	-0.13483784
3	0x3ec18197	0.37794182
4	0xbe3729cf	-0.17887042
5	0x3d9564ff	0.07294654
6	0x3f3d1d26	0.738726
7	0xbdcf6f66	-0.101286694
8	0x3c263d4d	0.010146451
9	0xbe39ff68	-0.18163836
10	0x3e40f33c	0.18842787
11	0xbce113d9	-0.027475284
12	0x3edf1209	0.43568447
13	0xbeb33261	-0.34999374
14	0x3e6fba51	0.23410918
15	0xbefa03ce	-0.48831028
16	0x3ed07338	0.40712905
17	0xbe87dbac	-0.26534784
18	0x3ea3afb5	0.3196999
19	0xbf387ac4	-0.72062325
20	0xbdcc8aa6	-0.099873826
21	0xbe23796e	-0.1596429
22	0xbe31c021	-0.17358448
23	0xbe8d3508	-0.27579522
24	0xbd59ac34	-0.05314274
25	0x3f0838ab	0.5321147
26	0x3f25ce0d	0.64767534
27	0x3da94853	0.08265748
28	0x3ed6025d	0.41798678
29	0xbda1edbc	-0.07906672
30	0x3eaf7080	0.34265518
31	0x3ef853fb	0.48501572
32	0xbd2fb4ba	-0.042896964
33	0x3d60e6b9	0.054907534
34	0xbe4242c5	-0.18970783
35	0xbc913eeb	-0.017730197
36	0x3da035ea	0.07822783
37	0xbe7e4a3d	-0.24833007
38	0x3de8dc89	0.11370189
39	0x3e28ce3d	0.16484924
40	0xbc78c03a	-0.015182549
41	0x3b69ba47	0.0035664008
42	0x3d170aef	0.03687566
43	0xbf04db5b	-0.5189721
44	0x3ed56dfe	0.4168548
45	0xbb2061c7	-0.0024472342
46	0x3ec9dabc	0.39424694
47	0xbeb89904	-0.36054242
48	0xbdbd1e16	-0.09234254
49	0xbf1d3e18	-0.6142287
50	0x3e88b325	0.26699176
51	0x3f10b7f5	0.56530696
52	0xbebcd1b7	-0.3687875
53	0x3f74df20	0.9565296
54	0xbed78261	-0.4209166
55	0xbebda386	-0.3703882
56	0x3d156a36	0.036478244
57	0xbe7f931c	-0.24958462
58	0xbe6770f4	-0.22601682
59	0x3e8d6a5d	0.2762021
60	0x3e92a89c	0.28644264
61	0x3ec87836	0.39154214
62	0xbe06fe85	-0.13183029
63	0x3ed3cbe4	0.41366494
64	0x3e3ccece	0.18438265
65	0xbde8ba77	-0.1136369
66	0xbecbb29a	-0.397847
67	0xbec7cdb1	-0.39024118
68	0x3c9f726e	0.019463744
69	0x3f14ef72	0.58177865
70	0xbeb93e90	-0.36180544
71	0x3eab4cde	0.33457083
72	0xbe26a120	-0.16272402
73	0x3e89124c	0.26771772
74	0xbd0c61f4	-0.034273103
75	0xbe1b0ed3	-0.15142374
76	0x3eb6df7b	0.35717377
77	0xbe842e85	-0.25816742
78	0xbdd2679f	-0.102736704
79	0xbe5e6bb3	-0.21720771
80	0x3e8f5c27	0.27999994

conv3.bias f4 [3]
0	0x402de5fe	2.7171626
1	0x3fb0eebb	1.3822855
2	0x3e8c8b59	0.27450064

conv4.weight f4 [3, 3, 3, 1, 1]
0	0x3d16ba0e	0.03679853
1	0xbec9b614	-0.39396727
2	0x3c9d9de9	0.019240336
3	0x3d5005ae	0.050786667
4	0x3f2dff0f	0.67967314
5	0x3c7fecd7	0.015620432
6	0xbb841180	-0.0040304065
7	0x3e6f6c1c	0.23381084
8	0xbb99d47d	-0.00469452
9	0x3c23465f	0.009965508
10	0x3fa381e6	1.2774017
11	0x3e46cfa7	0.1941515
12	0xbdfdb3aa	-0.12387784
13	0xbe0ac845	-0.1355296
14	0xbe62b34d	-0.2213871
15	0xbdfff86f	-0.12498557
16	0xc0106669	-2.2562506
17	0xbdb26e95	-0.08712498
18	0xbe0c36ef	-0.1369283
19	0xbf67fd86	-0.9062122
20	0xbe4da5de	-0.20082805
21	0x3e1420fb	0.14465706
22	0x3eaf1a4f	0.3419976
23	0x3e00eda8	0.12590659
24	0x3b5d9b06	0.0033814325
25	0x3fa887be	1.3166425
26	0xbcdd34f5	-0.027002791

conv4.bias f4 [3]
0	0xbf2d691a	-0.677385
1	0x3e923b0b	0.2856067
2	0xbd239962	-0.0399412

conv5.weight f4 [3, 3, 1, 3, 3]
0	0xbe836e7e	-0.25670236
1	0x3de5ecd9	0.11226816
2	0xbed53ef6	-0.41649598
3	0x3e8b9d65	0.2726852
4	0x3ded5773	0.11588945
5	0xbe8363f9	-0.2566221
6	0x3eb1f2ca	0.34755546
7	0xbcb5a8c3	-0.022175198
8	0xbe037a1c	-0.1283955
9	0xbeeae5a0	-0.45878315
10	0xbdc08908	-0.09401137
11	0x3e4987e9	0.19680752
12	0x3ea29aac	0.3175863
13	0x3b16464a	0.002293008
14	0x3f282435	0.6568025
15	0x3e0765ed	0.13222475
16	0xbc9d8df4	-0.019232728
17	0xbd9f6428	-0.07782775
18	0x3ddbfab8	0.1074118
19	0x3e01fb12	0.12693432
20	0xbe0a9ee8	-0.1353718
21	0xbd686362	-0.056735404
22	0x3e5dd412	0.2166293
23	0xbe39059d	-0.18068548
24	0xbf279f40	-0.6547737
25	0x3e81f8a0	0.25384998
26	0x3ea07362	0.3133803
27	0x3dfd36c9	0.12363965
28	0x3f529e9f	0.82273287
29	0xbe1cec78	-0.1532458
30	0xbe2132c6	-0.15742025
31	0x3e8c3704	0.27385724
32	0xbef4a30f	-0.47780654
33	0xbd54181f	-0.051780816
34	0xbe3059c3	-0.17221741
35	0xbea97ba1	-0.33102134
36	0x3ed6713b	0.41883263
37	0xbeba0250	-0.3632989
38	0x3f0f9bbd	0.5609701
39	0x3e234e06	0.15947732
40	0xbcb85926	-0.022503447
41	0x3b22ae62	0.0024823179
42	0xbdf6365e	-0.120220885
43	0xbeaf53e3	-0.34243688
44	0x3e75b3cd	0.2399437
45	0xbedc42d4	-0.43019736
46	0xbbbbccd0	-0.0057312027
47	0xbe70aeb7	-0.23504148
48	0xbe73beff	-0.23803328
49	0x3ec35f3b	0.38158593
50	0x3e7656a3	0.24056487
51	0x3e12def4	0.14342862
52	0x3f115fc8	0.56786776
53	0xbebba2de	-0.36647695
54	0x3ceb5915	0.028729001
55	0xbf0a1060	-0.53931236
56	0xbe8f7255	-0.28016916
57	0xbc9f2470	-0.019426554
58	0xbe947a2b	-0.28999457
59	0x3e8fd045	0.28088585
60	0x3e1365d4	0.14394313
61	0xbec0e978	-0.37678123
62	0x3f84cc30	1.0374813
63	0xbe12bf52	-0.14330795
64	0x3e7f3fef	0.24926732
65	0xbf678827	-0.90442127
66	0x3e335102	0.17511371
67	0x3e50ca03	0.20389561
68	0xbd8818fc	-0.066453904
69	0x3e7d1568	0.24715197
70	0x3e0a6a12	0.13517025
71	0x3e303407	0.17207347
72	0x3ea693a6	0.32534522
73	0x3eb629e3	0.35578832
74	0x3dd1f76c	0.1025227
75	0x3956214d	0.00020421036
76	0xbf107969	-0.5643526
77	0x3e12c9bd	0.1433477
78	0xbee21448	-0.44156098
79	0xbdf09a72	-0.11748208
80	0x3de0315d	0.10946915

conv5.bias f4 [3]
0	0x3f253c1c	0.64544845
1	0x3e80e6a0	0.25175953
2	0x3f62e329	0.8862787

conv6.weight f4 [3, 3, 3, 1, 1]
0	0xbef115d5	-0.4708697
1	0xbe97fba1	-0.29684165
2	0xbe6a4d9f	-0.22881173
3	0x3d9d7412	0.07688154
4	0x3daa6d17	0.083215885
5	0x3deb1e33	0.114803694
6	0xbd98c468	-0.074593365
7	0xbf01742b	-0.50567883
8	0xbd2f422c	-0.042787716
9	0xbe19bc45	-0.15013225
10	0xbef0245d	-0.46902743
11	0x3c382128	0.011238374
12	0x3daaedb5	0.0834612
13	0x3f8dd95c	1.1081958
14	0x3e3ae627	0.18251859
15	0x3e1c5de1	0.15270187
16	0xbeb7779b	-0.3583344
17	0x3e61b02c	0.2203986
18	0x3c8e1379	0.01734327
19	0x3f0445dd	0.516691
20	0x3e22e4fc	0.15907663
21	0xbc0530b0	-0.008129284
22	0xbe936c29	-0.28793457
23	0x3d5f60f2	0.054535814
24	0x3e1b5f8f	0.15173171
25	0x3faa5b75	1.330916
26	0x3e9f099b	0.31062016

conv6.bias f4 [3]
0	0x3f787bf1	0.9706412
1	0xbd131a1c	-0.03591357
2	0x3e09af25	0.13445719

conv7.weight f4 [3, 3, 1, 3, 3]
0	0xbe083d69	-0.13304676
1	0x3e8700a1	0.26367667
2	0x3dfd96ea	0.123823
3	0x3efd7e56	0.4951045
4	0xbea1df47	-0.3161566
5	0xbe132b6e	-0.14372036
6	0x3f239dc7	0.63912624
7	0xbdf60712	-0.12013067
8	0xbe53cce4	-0.20683628
9	0x3dc21dcc	0.094783396
10	0xbda19485	-0.07889656
11	0x3d85d185	0.06534103
12	0xbe2c7268	-0.16840518
13	0x3ca0c695	0.019625941
14	0xbe8b3b02	-0.27193457
15	0x3e0c2ab2	0.13688162
16	0x3d6adc16	0.057338797
17	0x3ef15c0e	0.47140545
18	0xbfd250f6	-1.6430957
19	0xbdf95cc4	-0.12175897
20	0xbfcf94a9	-1.6217242
21	0xbee03d0f	-0.43796584
22	0x3efae31a	0.4900139
23	0xbf8b1846	-1.0866783
24	0xc04d2d29	-3.2058814
25	0x3cb8ee0f	0.022574453
26	0xc048df1a	-3.138617
27	0xbede0e47	-0.43370268
28	0xbd5696ff	-0.052390095
29	0x3d763aa3	0.060114514
30	0xbf4c3490	-0.79767704
31	0x3d93182b	0.07182344
32	0x3def6e43	0.11690953
33	0xbf4e5a6f	-0.8060674
34	0x3db3a729	0.08772118
35	0xbccb0760	-0.02478379
36	0x3f6ded8d	0.929406
37	0x3f60b187	0.87770885
38	0x3f2f867a	0.6856457
39	0x3f16b664	0.58872056
40	0x3ea5196d	0.3224596
41	0x3e58540d	0.21125813
42	0x3f495975	0.78652126
43	0x3f0ed432	0.55792534
44	0x3f44ee51	0.7692614
45	0xbf069f0d	-0.5258644
46	0xbf04c1f3	-0.51858443
47	0xbf0cb0b8	-0.5495715
48	0xbf136ee6	-0.5759109
49	0xbeb1651f	-0.34647462
50	0xbf09e984	-0.5387194
51	0x3cf124ca	0.029436488
52	0xbf175df1	-0.5912772
53	0xbf32d502	-0.69856274
54	0xbf4289c3	-0.7599146
55	0xbea69571	-0.3253589
56	0x3f0d57c3	0.5521204
57	0xbfbddf4e	-1.4833772
58	0xbe97c5a1	-0.29642966
59	0xbe01e47f	-0.1268482
60	0xbf858f26	-1.043431
61	0xbed1044f	-0.408236
62	0xbdc8d284	-0.09805778
63	0x3dbacd75	0.09121219
64	0x3eb3c76b	0.3511308
65	0x3ef946f0	0.48686934
66	0x3ec541ba	0.38526708
67	0x3e2b0eb4	0.16704828
68	0xbdb77000	-0.08956909
69	0x3f0736d6	0.5281805
70	0x3f19b921	0.6004811
71	0x3f14de9c	0.58152175
72	0xbd626c98	-0.055279344
73	0xbeda7d84	-0.42673886
74	0xbf1b3367	-0.6062531
75	0xbdfbb868	-0.12291032
76	0x3d0046c4	0.031317487
77	0xbeff6278	-0.49879813
78	0xbf2e130e	-0.67997825
79	0xbf8efeec	-1.1171546
80	0xbf178059	-0.5918022

conv7.bias f4 [3]
0	0x3ee65dde	0.4499349
1	0x3e2a8530	0.1665237
2	0xbf271ff6	-0.65283144

conv8.weight f4 [3, 3, 3, 1, 1]
0	0xba4fe5ec	-0.00079306844
1	0xbc9591bf	-0.018257974
2	0x3c5734e5	0.01313517
3	0xbf28e355	-0.6597188
4	0x3a6044de	0.0008555184
5	0xbf485100	-0.78248596
6	0xbfa58619	-1.2931548
7	0xbeb69e13	-0.35667476
8	0xbf85e6fa	-1.0461113
9	0xbef6052b	-0.48050818
10	0xbf30d6f2	-0.6907798
11	0xbefc9913	-0.49335536
12	0xbd93c5c0	-0.07215452
13	0x3fc82799	1.5637084
14	0xbdc785b2	-0.09742297
15	0x3dc70841	0.09718371
16	0x3f439e52	0.7641345
17	0x3e06f056	0.13177618
18	0xbef6765c	-0.48137176
19	0xbf3a51f0	-0.72781277
20	0xbee7edf2	-0.45298725
21	0xbd752a37	-0.059854712
22	0x3fc52348	1.5401392
23	0xbdd09197	-0.10184019
24	0x3e0828bb	0.13296787
25	0x3f140558	0.57820654
26	0x3e61190a	0.21982208

conv8.bias f4 [3]
0	0xbebbadc2	-0.36656004
1	0xbf045262	-0.51688206
2	0xbec25733	-0.37957153
