saved_model_resnet/upsample_at_location_8.pt (torch, 7314 bytes, 16 tensors)

conv1.weight f4 [3, 3, 1, 3, 3]
0	0xbe9568d5	-0.29181543
1	0xbda179f0	-0.07884586
2	0xbe459a73	-0.19297199
3	0x3f64f3be	0.8943442
4	0xbdbefff4	-0.09326163
5	0x3edf48af	0.4361014
6	0xbeb52e2f	-0.35386798
7	0x3d7b4ea5	0.0613543
8	0xbe35660c	-0.17714709
9	0xbead583f	-0.3385639
10	0x3ba2c6ef	0.0049675624
11	0xbea0fda9	-0.31443527
12	0x3f460c3b	0.7736241
13	0xbd5aad68	-0.05338803
14	0x3f3b4886	0.73157537
15	0xbea3f4a0	-0.32022572
16	0x3de5ec8d	0.11226759
17	0xbead25a5	-0.33817783
18	0xbe0d7797	-0.13815151
19	0x3ca9079e	0.020633515
20	0xbee0d2e1	-0.43910888
21	0x3ed5fa77	0.41792652
22	0xbc4ab150	-0.012371376
23	0x3f574fd9	0.8410621
24	0xbdb9682c	-0.09053072
25	0xbdaf647d	-0.085640885
26	0xbe953bf7	-0.29147312
27	0x3eb2419b	0.34815678
28	0xbe9de31b	-0.3083733
29	0x3e27fd85	0.16405304
30	0xbe13c8e7	-0.14432107
31	0xbb14a29a	-0.0022679926
32	0xbf5edbce	-0.87054145
33	0x3e93ddf0	0.28880262
34	0x3e53aa7f	0.20670508
35	0x3e923545	0.28556266
36	0xbea98d1f	-0.3311548
37	0x3e2d991f	0.16952942
38	0xbc676c15	-0.01412489
39	0x3cac503d	0.021034354
40	0x3d83253a	0.06403585
41	0x3de32b36	0.11092226
42	0x3f1304ae	0.57429016
43	0xbcb84310	-0.022492915
44	0x3c618e3a	0.01376682
45	0x3cbb3875	0.02285407
46	0x3e1e65b5	0.15468486
47	0xbe62df18	-0.22155416
48	0x3dc02a05	0.093830146
49	0xbdae3c3d	-0.08507583
50	0x3e0012e1	0.12507202
51	0x3e398675	0.18117698
52	0xbe9736d4	-0.29534018
53	0x3e9db23a	0.3080004
54	0x3eb77007	0.35827658
55	0xbf156599	-0.5835815
56	0xbda87562	-0.08225514
57	0x3e1122ea	0.14173475
58	0xbd2e4484	-0.04254581
59	0x3e91c503	0.2847062
60	0x3e68448d	0.226824
61	0x3e19d66d	0.15023203
62	0xbe9b7e8c	-0.30369985
63	0xbeeda264	-0.46412957
64	0xbcf43c11	-0.029813798
65	0xbe22c53d	-0.15895553
66	0x3f2e61bb	0.68117875
67	0x3ef0af13	0.4700857
68	0x3e56f4a3	0.20991759
69	0x3bebba01	0.0071938043
70	0xbe80dac1	-0.25166896
71	0x3e98ddd7	0.2985675
72	0xbe5ec87e	-0.21756169
73	0xbd311b71	-0.04323906
74	0xbe3fb2f3	-0.18720607
75	0x3f0f3e93	0.55954856
76	0x3e98bd5f	0.2983198
77	0x3e73d8fa	0.23813239
78	0x3d76225c	0.06009136
79	0xbea40cf6	-0.32041138
80	0x3d8b2259	0.06793661

conv1.bias f4 [3]
0	0x40ee505a	7.4473085
1	0x3fdb3989	1.7126933
2	0x3f3caa32	0.736972

conv2.weight f4 [3, 3, 3, 1, 1]
0	0xbe117861	-0.14206077
1	0xbdc57d47	-0.096430354
2	0xbedd56de	-0.43230337
3	0xbd309713	-0.043112826
4	0xbe612560	-0.21986914
5	0xbdfd6214	-0.123722225
6	0x3d6c2e02	0.057661064
7	0x3d7c09f6	0.061532937
8	0xbe5f6a5b	-0.21817915
9	0x3decb912	0.11558737
10	0x3e9941d4	0.29933035
11	0x3f3138af	0.6922712
12	0xbc275156	-0.010212263
13	0xbd6456d7	-0.05574688
14	0xbd6a4a83	-0.057199966
15	0xbc437e24	-0.01193193
16	0xbb8e1150	-0.00433556
17	0xbd8f99ab	-0.07011732
18	0x3dbf3e26	0.09338026
19	0x3e2f69a9	0.1713015
20	0xbdd83cdb	-0.10558482
21	0x3e331e54	0.17492038
22	0x3ea48d59	0.3213909
23	0x3edb1563	0.42789754
24	0xbe24d4c3	-0.16096787
25	0xbedd76da	-0.4325474
26	0xbebce0a1	-0.36890128

conv2.bias f4 [3]
0	0x4024442b	2.5666606
1	0x40aab3d4	5.3344517
2	0x404c7392	3.1945539

conv3.weight f4 [3, 3, 1, 3, 3]
0	0xbf877887	-1.0583657
1	0x3f003f41	0.5009652
2	0x400a2053	2.158223
3	0xbff92b44	-1.9466329
4	0xc02e7597	-2.725927
5	0xbf95b0f0	-1.1694622
6	0xbf454e8b	-0.7707297
7	0xbf89a1ee	-1.0752542
8	0xc02a297d	-2.6587822
9	0xbef93602	-0.48674017
10	0x3ecb1689	0.3966563
11	0x3e6493e3	0.2232204
12	0xbe3f0076	-0.1865252
13	0xbe24aa01	-0.16080476
14	0x3dc2e52e	0.09516369
15	0xbe963cde	-0.29343313
16	0xbd005370	-0.031329572
17	0x3e93a47d	0.28836432
18	0x3ef771f5	0.4832913
19	0x3effeb23	0.49984083
20	0x3fb20717	1.3908414
21	0x3f39e5a7	0.72616047
22	0xbe13eb03	-0.14445119
23	0x3f1341e8	0.5752244
24	0x3dbad785	0.09123138
25	0xbe8edd49	-0.27903202
26	0xbf473301	-0.778122
27	0x3e377708	0.179165
28	0x3f48234c	0.7817886
29	0xbf2f5a5f	-0.6849727
30	0xbe68d35b	-0.22736876
31	0xbef73490	-0.4828229
32	0xbf200e7f	-0.6252212
33	0x3f76d633	0.9642059
34	0x3fb9194d	1.4460846
35	0x40390c7b	2.8913867
36	0xbda1e49d	-0.07904933
37	0x3e35d538	0.17757118
38	0x3dc26d66	0.09493522
39	0x3dbe5690	0.09293854
40	0xbd930695	-0.0717899
41	0x3d22afda	0.039718486
42	0x3e0d14da	0.13777485
43	0x3de86cdb	0.113488875
44	0xbf133f6e	-0.5751866
45	0xbea6fb7c	-0.32613742
46	0xbf066e07	-0.5251164
47	0xbf4b5d73	-0.7943947
48	0xbe4d0d43	-0.2002459
49	0x3e1dc7f2	0.15408304
50	0x3bdb2326	0.0066875396
51	0x3db49814	0.08818069
52	0x3d905917	0.070482425
53	0xbd649c14	-0.05581291
54	0x3ece6062	0.4030791
55	0x3eb9398d	0.3617672
56	0x3f28b12c	0.6589534
57	0xbf145373	-0.57939833
58	0xbee90cd5	-0.45517603
59	0xbe4b936f	-0.1988046
60	0xbea357e4	-0.31902993
61	0x3e1e8a52	0.15482453
62	0xbe035098	-0.12823713
63	0x3bce9648	0.006304536
64	0x3afd5571	0.0019327832
65	0xbe674730	-0.2258575
66	0xbd5754b8	-0.05257103
67	0xbc3b473d	-0.011430559
68	0x3cf43fca	0.029815573
69	0xbe33fc11	-0.17576624
70	0xbba534c2	-0.0050416896
71	0x3ee04b5f	0.43807504
72	0x3c57e438	0.01317697
73	0x3a1f078c	0.0006066493
74	0x3e685594	0.22688895
75	0xbc9c1cf6	-0.019056778
76	0xbd25102e	-0.040298633
77	0xbe716961	-0.23575355
78	0xbe1f8e0a	-0.15581527
79	0x3d4e1c95	0.050320227
80	0xbb0eaee0	-0.0021771714

conv3.bias f4 [3]
0	0x40736682	3.8031316
1	0xc0923d69	-4.5699964
2	0x40ff4fa9	7.978474

conv4.weight f4 [3, 3, 3, 1, 1]
0	0xbca80476	-0.02050994
1	0x3e0f39d1	0.13986899
2	0x3bc189e3	0.00590633
3	0x3ce90209	0.028443353
4	0xbe50b4c4	-0.20381457
5	0x3e10752d	0.14107199
6	0x3e837034	0.25671542
7	0xbe9ee3d6	-0.310332
8	0x3d6fa1b0	0.058503807
9	0x3ba5061a	0.0050361278
10	0x3e14f516	0.14546618
11	0xbd3629ea	-0.044473566
12	0x3e2ed900	0.17074966
13	0xbf0d40f0	-0.5517721
14	0xbd0d409d	-0.03448545
15	0xbf023c39	-0.5087314
16	0x3f86dd0a	1.0536206
17	0xbe58304f	-0.21112178
18	0xbaf63e71	-0.001878692
19	0xbdef2ddf	-0.11678671
20	0x3d8a5d18	0.067560375
21	0x3daf6dea	0.08565886
22	0xbf1dedff	-0.6169128
23	0x3e18072b	0.14846484
24	0x3dff308b	0.12460431
25	0x3f3d81ba	0.7402607
26	0xbdcacc93	-0.09902301

conv4.bias f4 [3]
0	0x4006ca15	2.106084
1	0x410e4581	8.891969
2	0x40b3283d	5.598662

conv5.weight f4 [3, 3, 1, 3, 3]
0	0x3c5e5598	0.013570212
1	0x3ea2d1dc	0.31800735
2	0x3e323ddc	0.1740641
3	0x3e069f15	0.13146622
4	0x3ebb728f	0.3661084
5	0xbc2b4f54	-0.010455925
6	0xbe8ebacf	-0.278769
7	0x3ee8068b	0.45317492
8	0xbe36ae49	-0.17839922
9	0x381b5079	3.7029826e-05
10	0x3e736cb0	0.2377193
11	0xbcbd4d13	-0.02310804
12	0xbe00784d	-0.12545891
13	0x3f1d6925	0.6148856
14	0xbe9190b7	-0.2843072
15	0xbe755be9	-0.23960842
16	0x3e9ae352	0.30251557
17	0xbe7458f2	-0.23862055
18	0xbe8da375	-0.2766377
19	0x3f25399d	0.64541036
20	0xbf16c00a	-0.5888678
21	0xbe9736c5	-0.29533973
22	0x3f219719	0.6312118
23	0xbebe2ec4	-0.37145054
24	0x3c61cded	0.013782007
25	0xbea45584	-0.32096493
26	0x3e4e9aa1	0.20176174
27	0x3dfb3f3d	0.12267921
28	0xbf0f2771	-0.5591956
29	0x3d9c9171	0.07644928
30	0xbd4a515c	-0.049393997
31	0xbde3532d	-0.11099849
32	0x3db0c6c5	0.08631662
33	0xbea7a91b	-0.32746205
34	0x3e2a4731	0.1662872
35	0xbe67c7b8	-0.2263478
36	0xbf0f2f5f	-0.5593166
37	0x3f67535c	0.9036157
38	0xbd3c85f1	-0.046026174
39	0xbd9e1adc	-0.07719967
40	0x3dc89176	0.097933695
41	0xbe36e304	-0.17860037
42	0xbf4c1696	-0.79721963
43	0x3f5da8f4	0.86585927
44	0xbcb975ad	-0.02263912
45	0xbe83fa4f	-0.25776908
46	0x3f23fcdd	0.64057714
47	0x3dbc84bf	0.09205007
48	0xbd5c9a08	-0.053857833
49	0x3d896d98	0.067103565
50	0xbe03cdb2	-0.12871435
51	0xbe7aefd3	-0.24505548
52	0x3e8f621e	0.28004545
53	0x3e8cac05	0.2747499
54	0x3f151d15	0.582475
55	0xbf2b47b2	-0.66906273
56	0x3eb7a7d2	0.35870224
57	0x3e16a94c	0.14713019
58	0xbe788525	-0.2426954
59	0x3d561fd8	0.052276462
60	0x3f1be7b6	0.6090044
61	0xbded4f14	-0.115873486
62	0x3ef42a64	0.4768859
63	0xbd17e254	-0.037081078
64	0x3ee032b1	0.43788674
65	0xbcdb4d22	-0.026770178
66	0xbe9a8cca	-0.3018554
67	0xbe29325c	-0.16523117
68	0x3d1c3831	0.038139526
69	0x3f3d6c49	0.73993355
70	0x3ef36f76	0.47545975
71	0x3d75827d	0.059938896
72	0xbd885581	-0.066569336
73	0xbc4ac37d	-0.01237571
74	0xbe45fa5e	-0.19333789
75	0xbd012ce0	-0.031536937
76	0xbe0394c1	-0.12849714
77	0xbd870ce8	-0.065942585
78	0x3d9a6aaf	0.075398795
79	0x3eca8f71	0.39562562
80	0x3e20565e	0.15657946

conv5.bias f4 [3]
0	0x3fb12c11	1.3841573
1	0x4008bd53	2.1365554
2	0x3ee60e22	0.44932657

conv6.weight f4 [3, 3, 3, 1, 1]
0	0x3f183c97	0.5946745
1	0xbe8910ff	-0.2677078
2	0x3e364006	0.1779786
3	0x3f6887f7	0.90832466
4	0x3e057ff6	0.13037094
5	0x3a3ec643	0.0007277468
6	0xbe9f11a1	-0.31068137
7	0xbdd1c894	-0.10243335
8	0xbb5d4f30	-0.0033769123
9	0x3fb71a27	1.4304856
10	0x3eba68b8	0.3640802
11	0xbd62c3da	-0.05536256
12	0x3dc14bfc	0.09438321
13	0x3bbaded9	0.005702835
14	0x3cd5edb0	0.026114315
15	0xbe5d8d6a	-0.21635976
16	0x3d80ebe1	0.0629499
17	0xbd141f6b	-0.036162775
18	0x3fa28cff	1.2699279
19	0x3dd2a34b	0.10285052
20	0x3d6a5134	0.057206348
21	0x4000c3d7	2.011953
22	0xbda5d2b8	-0.08096832
23	0x3dce6974	0.10078707
24	0x3ee7f4f8	0.45304084
25	0x3ceb1aae	0.028699245
26	0xbbc7a03d	-0.0060921

conv6.bias f4 [3]
0	0x3f7e43f7	0.99322456
1	0x3ff69a7a	1.9265893
2	0x3e2f006c	0.17090005

conv7.weight f4 [3, 3, 1, 3, 3]
0	0xbe5417ee	-0.20712253
1	0xbe7eaf35	-0.24871524
2	0xbee6b608	-0.45060754
3	0xbe8f3d7d	-0.279766
4	0x3e0b6b8a	0.13615242
5	0xbd9829f1	-0.07429875
6	0x3f04f2ae	0.519328
7	0x3d9096c5	0.07060007
8	0x3e9e1bdf	0.3088064
9	0x3ecbdf5c	0.39818847
10	0xbf74fedb	-0.9570138
11	0x3eb69791	0.3566251
12	0xbb874b1d	-0.0041288272
13	0xbeea57f6	-0.45770234
14	0xbe1bd3ac	-0.15217465
15	0x3efee73e	0.497858
16	0x3f49d529	0.7884088
17	0x3f78e076	0.972175
18	0xbf456cd8	-0.7711921
19	0x3e554c22	0.20829824
20	0x3e457c76	0.1928576
21	0x3e351afc	0.17686075
22	0xbe44d73a	-0.19222727
23	0x3e1e0943	0.1543322
24	0x3e904d30	0.2818389
25	0x3bef6290	0.0073054507
26	0xbe763e4b	-0.240472
27	0x3e9c6802	0.30548102
28	0xbd2a889d	-0.04163419
29	0xbd8cc1a2	-0.0687287
30	0x3d5a70ee	0.053330354
31	0xbe1fdb21	-0.15610935
32	0xbcbda1c1	-0.02314842
33	0x3f2a6e23	0.66574305
34	0x3e6ab57e	0.22920796
35	0x3eda6d4c	0.42661512
36	0x3d03f955	0.032220203
37	0x3f3eba57	0.7450308
38	0xbecf47f8	-0.40484595
39	0xbe3b5833	-0.18295364
40	0xbea11d50	-0.31467676
41	0xba01e7b4	-0.0004955486
42	0x3fc3e71c	1.5304904
43	0x3f81b8e5	1.013455
44	0x3cf2b48c	0.029627107
45	0x3f7f45ae	0.997157
46	0xbd55affb	-0.05216978
47	0xbede1110	-0.43372393
48	0x3f1b96f5	0.6077722
49	0xbe1d93b5	-0.15388377
50	0x3d839c8a	0.06426342
51	0xbdfb003f	-0.12255906
52	0x3d037e0d	0.032102633
53	0xbe6e83ec	-0.23292512
54	0x3dba2af2	0.090902224
55	0x3c978f1e	0.01850086
56	0x3d43b621	0.047781114
57	0xbf08b2cf	-0.5339784
58	0x3d52bf10	0.051451743
59	0xbb968baf	-0.0045942883
60	0xbdaf2163	-0.0855129
61	0xbeb41490	-0.35171938
62	0xbeec2506	-0.46121997
63	0x3d3a0423	0.0454141
64	0xbe4b4a8a	-0.19852653
65	0x3e1f6c70	0.1556871
66	0x3f0e9e06	0.55709875
67	0x3eb19316	0.3468253
68	0x3f326a15	0.6969312
69	0xbf6146f0	-0.8799887
70	0x3e8a1957	0.26972458
71	0x3f52fd96	0.8241819
72	0xbe1d4c8c	-0.15361232
73	0xbe342771	-0.1759317
74	0x3f08a484	0.5337603
75	0xbdbbb7ae	-0.091658935
76	0x3cc0a4bb	0.02351605
77	0x3e2a188e	0.1661093
78	0x3ef231de	0.4730367
79	0x3d85d65d	0.06535027
80	0x3df1635a	0.11786528

conv7.bias f4 [3]
0	0x40123f2b	2.2851055
1	0xc000e364	-2.0138788
2	0x403659e3	2.8492362

conv8.weight f4 [3, 3, 3, 1, 1]
0	0x3d98a6b1	0.07453669
1	0xbfe6d037	-1.8032292
2	0xbee51131	-0.44739679
3	0xbebb921e	-0.36634916
4	0x3fc10822	1.5080607
5	0x3e8c85c6	0.2744581
6	0xbc8b41ea	-0.016999204
7	0xbf92607f	-1.1435698
8	0xbea44d01	-0.3209
9	0x3dc4fe46	0.09618811
10	0xbfecf42b	-1.8512014
11	0xbeeb1354	-0.45913184
12	0xbeb8fde3	-0.361312
13	0x3fc67029	1.5502979
14	0x3e8e1027	0.27746698
15	0xbd1f7656	-0.038931213
16	0xbf92ca5d	-1.1468006
17	0xbeb63e88	-0.35594583
18	0x3d6c2b29	0.05765835
19	0xbfdd8ea9	-1.7309161
20	0xbef2fb4d	-0.47457352
21	0xbea22b6a	-0.31673747
22	0x3fbc01dd	1.4688069
23	0x3e8d3cb1	0.27585366
24	0xbc93439f	-0.01797658
25	0xbf8b48c7	-1.0881585
26	0xbecb8c8b	-0.39755663

conv8.bias f4 [3]
0	0xc008e480	-2.1389465
1	0xc0024127	-2.0352266
2	0xbfc12500	-1.5089417
