saved_model_resnet/upsample_at_location_0.pt (torch, 7314 bytes, 16 tensors)

conv1.weight f4 [3, 3, 1, 3, 3]
0.2457475 0.0363811 0.5310197 0.039301872 -0.6831407 -0.50241286 0.20840655 -0.18185581
0.5356658 0.06231241 -0.38299906 0.6195291 0.10374085 -0.23024431 -0.12157163 0.059991032
0.16066882 -0.15509228 -0.09215085 0.014089048 0.5456716 0.10907561 -0.7630729 -0.046480153
0.42937818 -0.107006885 0.049758736 -0.4273836 0.6714036 0.4246998 -0.3883698 -0.037726447
0.06627167 -0.48921674 0.033818368 -0.044973746 0.0092177475 0.41185206 0.5914525 -0.60728353
-0.059386022 -0.15037094 -0.12038626 -0.24002224 -0.037493415 0.34508714 -0.22914675 -0.12202132
-0.46203017 0.33058542 -0.09879206 -0.34759963 0.3830787 0.16059962 0.2795118 0.21767862
0.004241575 0.20325735 -0.11861456 0.45005465 -0.6123833 -0.066878036 -0.184686 0.49266806
-0.3179226 0.471829 0.20831867 -0.1943456 0.07278944 -0.35956135 -0.24032421 -0.0033343344
-0.07614498 0.17462617 0.51821893 -0.15725449 0.035076335 -0.27394864 -0.32718405 0.12804377
0.09664118
00000000: 3ca5 7b3e 5904 153d e8f0 073f 00fb 203d
00000010: 4fe2 2ebf 219e 00bf 8768 553e 6938 3abe
00000020: 6521 093f 4c3b 7f3d 7418 c4be 7699 1e3f
00000030: 1576 d43d 2ac5 6bbe 8cfa f8bd 28b9 753d
00000040: 5e86 243e 83d0 1ebe 96b9 bcbd c0d5 663c
00000050: 22b1 0b3f 0963 df3d bf58 43bf f961 3ebd
00000060: 75d7 db3e 6d26 dbbd d1cf 4b3d 06d2 dabe
00000070: 1be1 2b3f 4172 d93e 68d8 c6be 0c87 1abd
00000080: 71b9 873d 9e7a fabe 2185 0a3d 6436 38bd
00000090: 0906 173c 46de d23e 6e69 173f ef76 1bbf
000000a0: c23e 73bd d7fa 19be 128d f6bd 64c8 75be
000000b0: b292 19bd 43af b03e 72a5 6abe 50e6 f9bd
000000c0: 388f ecbe 7e42 a93e 7e53 cabd 94f8 b1be
000000d0: e422 c43e 3a74 243e 2c1c 8f3e 25e7 5e3e
000000e0: e9fc 8a3b b222 503e 31ec f2bd 906d e63e
000000f0: 27c5 1cbf 5af7 88bd 541e 3dbe fd3e fc3e
00000100: c0c6 a2be 9293 f13e 7d51 553e 8802 47be
00000110: a112 953d 6d18 b8be 8d17 76be d984 5abb
00000120: e6f1 9bbd 34d1 323e ffa9 043f 5207 21be
00000130: 34ac 0f3d ff42 8cbe ab84 a7be e81d 033e
00000140: d0eb c53d

conv1.bias f4 [3]
2.5088558 3.695613 6.2651863
00000000: 1891 2040 ec84 6c40 687c c840

conv2.weight f4 [3, 3, 3, 1, 1]
1.0159678 0.4262045 0.16931449 -0.38359267 -0.16976976 -0.0749965 -0.2810738 -0.09899333
-0.030031595 -0.2743852 -0.08427304 -0.02135596 -0.11287727 -0.023510786 0.02031679 0.1722802
0.0699618 0.03554222 -0.019822035 -0.014631966 0.022684518 0.32272786 0.1444053 0.06299491
0.45313624 0.15940632 0.023424031
00000000: 3c0b 823f 7a37 da3e c760 2d3e 4266 c4be
00000010: 20d8 2dbe c497 99bd e8e8 8fbe 04bd cabd
00000020: d204 f6bc 387c 8cbe 5897 acbd b2f2 aebc
00000030: 332c e7bd b199 c0bc 666f a63c 396a 303e
00000040: 2248 8f3d b894 113d d261 a2bc eaba 6fbc
00000050: e2d4 b93c 963c a53e fcde 133e 7a03 813d
00000060: 7901 e83e 693b 233e c1e3 bf3c

conv2.bias f4 [3]
4.6379147 4.6003733 4.5091
00000000: cc69 9440 4236 9340 8c4a 9040

conv3.weight f4 [3, 3, 1, 3, 3]
0.115074374 0.10116036 -0.03483516 0.3980057 0.3474224 -0.064103894 0.03855973 -0.18900973
-0.5116702 0.23235157 0.2199501 0.63901335 -0.68204176 -0.15242629 -0.45910355 0.15970837
0.13253866 0.6549557 -0.0321779 0.45549774 -0.0064340495 -0.14354874 -0.057477172 -0.49028763
0.2846807 0.5074591 -0.36786574 0.33288345 0.39271066 0.00971376 -0.20683329 -0.31096235
0.19856083 -0.036807954 -0.08119666 -0.19126251 0.53897095 -0.34347662 0.5989187 -0.25996938
0.17939262 0.06893398 -0.4562142 0.29839292 0.53707516 0.5853462 0.18685386 -0.32884678
0.31670165 0.04928485 0.04829748 -0.49862474 -0.08291571 0.13846707 -0.029339712 0.09643146
-0.16514203 -0.09789744 0.010974474 -0.008808324 -0.46103525 -0.23280245 -0.22224186 0.19959478
-0.149986 -0.3250411 0.17968054 0.29350683 -0.029539004 0.22976933 0.047603354 -0.42555007
-0.1735035 -0.18430932 -0.30053774 -0.109127544 0.055459186 0.17859806 -0.3662883 0.037910197
0.2387202
00000000: 1dac eb3d 2a2d cf3d 50af 0ebd 67c7 cb3e
00000010: 59e1 b13e e748 83bd cff0 1d3d c48b 41be
00000020: d1fc 02bf 92ed 6d3e 993a 613e 6196 233f
00000030: 4a9a 2ebf a315 1cbe 9f0f ebbe 978a 233e
00000040: 37b8 073e 2dab 273f f9cc 03bd 0037 e93e
00000050: b8d4 d2bb 71fe 12be 2f6d 6bbd fb06 fbbe
00000060: abc1 913e d7e8 013f e658 bcbe b36f aa3e
00000070: 5f11 c93e 7626 1f3c 1bcc 53be 7536 9fbe
00000080: 8853 4b3e f0c3 16bd 6f4a a6bd 52da 43be
00000090: 00fa 093f 2bdc afbe bc52 193f b51a 85be
000000a0: b3b2 373e 422d 8d3d e894 e9be f5c6 983e
000000b0: c27d 093f 40d9 153f 9e56 3f3e 9b5e a8be
000000c0: b826 a23e e9de 493d 94d3 453d be4b ffbe
000000d0: b6cf a9bd 50ca 0d3e d659 f0bc db7d c53d
000000e0: fe1a 29be 747e c8bd 48ce 333c ca50 10bc
000000f0: d00c ecbe c463 6ebe 5f93 63be 9362 4c3e
00000100: ee95 19be c96b a6be 2dfe 373e 8746 963e
00000110: c8fb f1bc a748 6b3e bcfb 423d b3e1 d9be
00000120: e7aa 31be 95bb 3cbe 15e0 99be 437e dfbd
00000130: 2c29 633d 69e2 363e 248a bbbe b947 1b3d
00000140: 1173 743e

conv3.bias f4 [3]
4.637516 1.8808609 -0.054806624
00000000: 8866 9440 0dc0 f03f e97c 60bd

conv4.weight f4 [3, 3, 3, 1, 1]
0.051097576 -0.4241616 0.15817642 -0.05352386 0.5744226 -0.18285905 0.03135097 0.17089494
-0.2573044 -0.097131945 1.235555 -0.37827516 -0.066215366 0.36472884 -0.15183654 0.4755267
0.35383457 0.009452126 0.00085165614 0.59978974 -0.12752257 -0.0065044668 -0.6222318 0.11169853
0.55464023 -0.15378985 -0.1421863
00000000: b14b 513d b62b d9be 00f9 213e d63b 5bbd
00000010: 5c0d 133f 673f 3bbe e069 003d 15ff 2e3e
00000020: 67bd 83be 1ded c6bd ab26 9e3f 48ad c1be
00000030: ec9b 87bd bdbd ba3e 0a7b 1bbe 3c78 f33e
00000040: ce29 b53e 17dd 1a3c ad41 5f3a d28b 193f
00000050: 4795 02be 6c23 d5bb 954a 1fbf 33c2 e43d
00000060: e7fc 0d3f 167b 1dbe 4999 11be

conv4.bias f4 [3]
1.739975 0.0012257595 1.5530508
00000000: 80b7 de3f aaa9 a03a 5eca c63f

conv5.weight f4 [3, 3, 1, 3, 3]
-0.6620043 -0.017423911 0.38021988 -0.570476 -0.09234369 0.8386888 -0.9766129 0.09821769
0.95886487 0.20010582 0.7664445 0.04359174 0.30730218 0.076819986 -0.45580128 -0.29771096
-0.27757686 -0.469387 -0.11637944 0.031917226 0.23107353 -0.06501395 -0.14151108 -0.35553032
0.5482186 0.43215874 -0.05412861 0.29999816 0.44551715 0.60177517 -0.48424777 -0.5692022
-0.4182357 -0.18301009 0.13665758 0.036191948 0.12006185 0.42629856 0.049180247 -0.1858084
-0.03449207 -0.31605482 -0.28422818 0.01596272 -0.0054918244 -1.2776977 0.108908966 -0.7123808
0.43826663 0.17388201 0.82534295 -0.2767737 0.21111806 -0.041472036 0.6732116 0.13490179
-0.19986302 0.54145974 -0.15823412 -0.7666032 0.5820616 -0.16810246 -0.2647528 0.072339565
-0.44679826 -0.22921714 -0.68310446 -0.07971177 0.39332294 0.6036366 -0.26149407 0.5315885
0.12898937 -0.15772064 0.11504285 -0.08133563 0.09861067 -0.03580945 -0.4539846 0.030693239
0.660476
00000000: 1d79 29bf 97bc 8ebc 2eac c23e b70a 12bf
00000010: b01e bdbd 4fb4 563f 4e03 7abf 5b26 c93d
00000020: 2b78 753f 8ae8 4c3e b535 443f 418d 323d
00000030: b656 9d3e cc53 9d3d c95e e9be 926d 98be
00000040: 8e1e 8ebe 7e53 f0be 5858 eebd a3bb 023d
00000050: 8a9e 6c3e 0926 85bd 48e8 10be 1208 b6be
00000060: 0e58 0c3f e943 dd3e f6b5 5dbd 5c99 993e
00000070: d31a e43e f00d 1a3f 53ef f7be 3cb7 11bf
00000080: fd22 d6be ff66 3bbe f7ef 0b3e 023e 143d
00000090: fde2 f53d ce43 da3e 3a71 493d 8f44 3ebe
000000a0: 8f47 0dbd f0d1 a1be 5b86 91be 40c4 823c
000000b0: c3f4 b3bb 998b a3bf aa0b df3d 975e 36bf
000000c0: 7c64 e03e 200e 323e ad49 533f 48b5 8dbe
000000d0: 552f 583e 95de 29bd 9857 2c3f b223 0a3e
000000e0: e4a8 4cbe 1b9d 0a3f 2008 22be 1b40 44bf
000000f0: fd01 153f 0d23 2cbe ae8d 87be c426 943d
00000100: bec2 e4be e6b7 6abe efdf 2ebf ed3f a3bd
00000110: a061 c93e ee87 1a3f 8de2 85be 2f16 083f
00000120: ca15 043e 8581 21be 969b eb3d 4b93 a6bd
00000130: 64f4 c93d eeac 12bd ab70 e8be 6370 fb3c
00000140: f514 293f

conv5.bias f4 [3]
2.116605 1.5393772 -0.22979283
00000000: 7576 0740 500a c53f d04e 6bbe

conv6.weight f4 [3, 3, 3, 1, 1]
0.0953936 -0.0517314 0.18681253 0.4757036 -0.3041675 0.24056241 0.1859221 0.17915343
-0.03378527 0.19161528 0.816207 -0.0050133844 0.62348866 0.5228184 0.13720584 0.33584785
-0.1252755 -0.02255002 0.24251302 0.30727535 -0.36290824 0.40971836 0.4753844 -0.51385653
0.21683277 0.14082542 1.2008036
00000000: b85d c33d 4ee4 53bd c94b 3f3e 6c8f f33e
00000010: d8bb 9bbe fe55 763e 5d62 3e3e ff73 373e
00000020: 6c62 0abd cc36 443e f1f2 503f 5147 a4bb
00000030: f49c 1f3f 6dd7 053f b07f 0c3e 40f4 ab3e
00000040: 3848 00be d2ba b8bc 5555 783e 3253 9d3e
00000050: 1ccf b9be 9bc6 d13e 9665 f33e 1a8c 03bf
00000060: 6909 5e3e 8a34 103e efb3 993f

conv6.bias f4 [3]
0.4628956 0.05585441 0.33952332
00000000: a700 ed3e 98c7 643d 00d6 ad3e

conv7.weight f4 [3, 3, 1, 3, 3]
-0.3938354 -0.17412557 -0.39179623 -0.17888696 -0.35125262 -0.52741665 -0.44354796 -0.1992734
-0.19097105 0.1194781 -0.079093084 -0.0076588434 -0.07812356 -0.14143318 -0.042539038 0.03597256
-0.11390562 0.035890922 0.43297976 0.35564053 0.5505398 0.45461294 0.36469322 0.5013445
0.54124784 0.49170554 0.46676394 -0.22793198 -0.61673295 -0.65166944 -0.59303623 -0.34164354
0.041759808 0.36226237 -0.89816475 0.16989955 -0.26037925 -0.12249529 0.5005654 0.03740368
-0.19207558 0.14081676 0.28686732 -0.41276267 0.15332602 -0.45018515 -0.4971986 -0.33160928
-0.97788036 -0.24852534 0.053018264 -0.9209014 -0.47826377 -0.11903854 -0.605409 0.013031423
-0.5719611 -0.23371553 -0.1897836 0.1682046 -0.05583688 0.004489548 -0.66760886 0.5622435
0.49196267 0.61144763 0.52710414 0.30352888 0.5084046 0.5221397 0.6333152 0.77063215
-0.09159516 -0.17302684 -0.08200257 -0.039703727 0.16848078 -0.078975946 -0.041344825 -0.19529206
0.0025875205
00000000: cba4 c9be f94d 32be 8499 c8be 252e 37be
00000010: 62d7 b3be c704 07bf b818 e3be 530e 4cbe
00000020: ea8d 43be efb0 f43d 8efb a1bd 09f7 fabb
00000030: 3fff 9fbd dcd3 10be 6a3d 2ebd f757 133d
00000040: 5a47 e9bd 5c02 133d 86af dd3e 8416 b63e
00000050: 2df0 0c3f 07c3 e83e 12b9 ba3e 1d58 003f
00000060: 388f 0a3f d4c0 fb3e affb ee3e 0067 69be
00000070: 36e2 1dbf cfd3 26bf 39d1 17bf e7eb aebe
00000080: 550c 2b3d 747a b93e 20ee 65bf 26fa 2d3e
00000090: 6e50 85be d0de fabd 0e25 003f 9a34 193d
000000a0: 76af 44be 4532 103e 46e0 923e a155 d3be
000000b0: 7f01 1d3e ab7e e6be d190 febe b1c8 a9be
000000c0: 5e56 7abf 6d7d 7ebe ae29 593d 32c0 6bbf
000000d0: fdde f4be 7aca f3bd 16fc 1abf c081 553c
000000e0: 0b6c 12bf 2053 6fbe a256 42be d43d 2c3e
000000f0: 36b5 64bd 0f1d 933b 6ae8 2abf 31ef 0f3f
00000100: 88e2 fb3e d587 1c3f 4cf0 063f 2368 9b3e
00000110: ce26 023f f3aa 053f f220 223f 2648 453f
00000120: 3e96 bbbd f32d 31be f7f0 a7bd 60a0 22bd
00000130: 3a86 2c3e 24be a1bd 3159 29bd a4fa 47be
00000140: 6493 293b

conv7.bias f4 [3]
0.23885192 -0.6179209 0.62366426
00000000: 9995 743e 1030 1ebf 76a8 1f3f

conv8.weight f4 [3, 3, 3, 1, 1]
0.20689511 1.130905 -0.14900842 -0.7814569 -0.34505367 -0.32637465 -0.18252121 -0.25683272
-1.0663304 0.21302332 1.145302 -0.14354025 -0.90635645 -0.43718082 -0.1082034 -0.18461882
-0.26344368 -1.0537199 0.21273418 1.1087961 -0.13031454 -0.9847606 -0.49432144 0.2682618
-0.17289405 -0.24935937 -1.0214938
00000000: 50dc 533e 7fc1 903f aa95 18be 8f0d 48bf
00000010: e0aa b0be 941a a7be d7e6 3abe 947f 83be
00000020: 847d 88bf c922 5a3e 4299 923f 37fc 12be
00000030: fa06 68bf 2ad6 dfbe bf99 ddbd b70c 3dbe
00000040: 17e2 86be 4be0 86bf fdd6 593e 08ed 8d3f
00000050: 2d71 05be 4519 7cbf b317 fdbe 9c59 893e
00000060: 230b 31be 1058 7fbe 4fc0 82bf

conv8.bias f4 [3]
-0.35376936 -0.3567977 -0.3116761
00000000: 4221 b5be 30ae b6be 0394 9fbe
