saved_model_resnet/upsample_at_location_2.pt (torch, 7314 bytes, 16 tensors)

conv1.weight f4 [3, 3, 1, 3, 3]
00000000: a3b5 543d f044 ba3d c645 973e c18d 1c3d
00000010: 75ce 07bf 5bab b83e 8acc 7b3e a8f7 03bd
00000020: 15b5 88be 26d9 c7be 0036 ad3e 1398 963e
00000030: 932e 293e beca dbbe e58d 54be 45c6 a93e
00000040: 1d5b c2bd 60fe b63d dfd7 88be e556 4e3e
00000050: 4063 383e 9f3e d83e 3744 c4be 2bfa 873e
00000060: b99e a4bd a951 8ebd b425 d8bd bfda 673e
00000070: 703f 143e 724f 42bd e483 13be 806e dd3e
00000080: 1110 903e c717 1ebf 1950 dbbd be05 66bd
00000090: e7dd 13bd a185 f23d bc8f 933d 0a3a 07bb
000000a0: 9a02 233d 8fd5 e3bc 05fa efbb b27b 7bbe
000000b0: f0e9 343e 4e9b 41be 7bc8 7ebe 1f70 f73e
000000c0: bed3 673e b996 123f 7cb7 d5bb 994a 00bf
000000d0: d343 41bc 6a94 38be ee3c e53d 0e2e 0abf
000000e0: 3102 033f f6fd 383e 76db 753e 902b 953e
000000f0: a247 9ebe dff0 f1be ae0a 7bbe d4b6 8a3e
00000100: 553c 613e 365a 0dbe 92ea 9e3e d95a 883e
00000110: 2250 8ebe dc85 efbe 822d 02bf 3b42 6d3c
00000120: 5092 d93c bb68 9ebe a660 a93e a4f2 a73e
00000130: 0619 ab3e 52f4 463c 76fa 27be 30c7 1bbf
00000140: f2e5 cbbd
0.051931035 0.0909518 0.2954542 0.038221125 -0.53049403 0.36068234 0.24589744 -0.032218605
-0.26700655 -0.3903286 0.3383026 0.29412898 0.16521673 -0.42928118 -0.20757253 0.3315908
-0.09490035 0.08935237 -0.26727197 0.20150335 0.18006611 0.42235276 -0.38333294 0.2655805
-0.080380864 -0.06949169 -0.10554066 0.22642039 0.14477324 -0.047439046 -0.14405781 0.43248367
0.28137258 -0.6175503 -0.10708637 -0.05615782 -0.036100294 0.11841894 0.072051495 -0.002063396
0.039797403 -0.027811794 -0.007323506 -0.24558905 0.17667365 -0.189069 -0.24881165 0.4832773
0.22639367 0.57261235 -0.006522117 -0.50113827 -0.011795956 -0.18025365 0.11193262 -0.53976524
0.5117522 0.18065628 0.24009499 0.29134798 -0.30914026 -0.47254083 -0.24515793 0.27092612
0.21995671 -0.13803944 0.31038338 0.2663181 -0.2779551 -0.46781814 -0.5085069 0.014481123
0.026559025 -0.30939278 0.3308155 0.32802308 0.3341753 0.012143211 -0.16404137 -0.6085081
-0.09955968

conv1.bias f4 [3]
00000000: 2067 a640 f5fb 9340 6152 9240
5.2000885 4.6245065 4.572556

conv2.weight f4 [3, 3, 3, 1, 1]
00000000: 7971 0e3f ebff a73e 1293 d63d 4186 033f
00000010: 1cb3 513e e2c7 d43d 7658 173f 835c 24bd
00000020: 25b5 733d c45a 813e 9e89 adbe 3474 073e
00000030: 817a 2e3d e790 853f 694c 193b 3d85 4abe
00000040: 13de 5fbd a526 93be 22f6 b7bc 5d87 b8be
00000050: d9bf 2abd 8b77 513c 02c0 753e 502d 303d
00000060: 2f6c a33e ac5e 063f 013c 20bb
0.55641896 0.32812437 0.1047727 0.5137673 0.20478481 0.10389687 0.59119356 -0.04012729
0.059498925 0.2526456 -0.33894056 0.13227922 0.042597298 1.0434846 0.0023391491 -0.19777389
-0.054655146 -0.2874042 -0.022456232 -0.36040774 -0.041686866 0.012784849 0.23999026 0.043011963
0.31918475 0.5248821 -0.0024449828

conv2.bias f4 [3]
00000000: afd4 ef3f eb7a c33f faa5 ce40
1.8736781 1.5271887 6.457761

conv3.weight f4 [3, 3, 1, 3, 3]
00000000: ba49 85bd 8dcc debd 6e9d ab3c b436 5dbd
00000010: c055 83be 5165 143e 7f51 d9bc a38b bd3e
00000020: e1d6 1abd e290 343f c512 c73e da98 983e
00000030: e62d 20bd 4d2f 5bbe 6f0e b0bc 8530 4e3e
00000040: 2b78 6bbe 83d5 adbe c4ea 933f a8ff 3c3f
00000050: 5f47 8e3e 3bef 9ebe 6d71 f1be 13bc 26be
00000060: 236a 003f 8a61 43be 91a1 11bf fb8e ff3e
00000070: 9f5a a53e 79b6 fabd 582c 09bf 16e9 c03e
00000080: 8a4b 15bf af40 683d 6ce7 d33e 2253 9ebd
00000090: 2bae 95bc 7b54 dc3d 80a4 11bd be1a 35bc
000000a0: f7dc 5cbd 19b1 783c 74be d4bc 03f4 173e
000000b0: 5b29 d0bd ba59 223e 5489 51bc a541 463e
000000c0: 5029 8b3e b720 ebbe d68b 3ebe 6892 d6bc
000000d0: 27f7 29be 27b0 f73e f93d 6d3d 0f47 153d
000000e0: 8cb5 05be 0a01 4fbe 1da0 9dbb b220 aabe
000000f0: 57f0 1a3e 3428 66be 4ab4 19bf d275 b8bd
00000100: 888d 66be fc6e 483e 7b77 eb3e 8adf afbe
00000110: 5f97 d5bb 361b 97be 90f6 37bf 77c8 10bd
00000120: 128a 0ebc 4771 b9bd b249 633e 0cf0 593d
00000130: 2f9f 423e 33bc 03be eb61 d0be bc43 d5be
00000140: d1e5 83be
-0.06508203 -0.10878859 0.020949092 -0.054007247 -0.2565136 0.14491774 -0.026528118 0.37020597
-0.03780258 0.70533574 0.38881508 0.29804116 -0.039106272 -0.21404763 -0.021491257 0.20135696
-0.22995059 -0.3395196 1.155602 0.738276 0.27788827 -0.31041893 -0.4715685 -0.16282682
0.5016195 -0.19080177 -0.56887156 0.49913773 0.322957 -0.12241835 -0.5358329 0.3767783
-0.5831839 0.056702312 0.41387498 -0.077307 -0.018271526 0.10758301 -0.03555727 -0.011053739
-0.053921666 0.015178942 -0.025969721 0.14839177 -0.10164138 0.1585454 -0.012789089 0.19360979
0.27179956 -0.45923397 -0.1860803 -0.026192859 -0.16598187 0.4837658 0.05792043 0.03644472
-0.13057536 -0.2021524 -0.0048103468 -0.3322807 0.15130745 -0.22476274 -0.60040724 -0.090068474
-0.22514927 0.19573587 0.45989594 -0.34350234 -0.006518289 -0.29512948 -0.718606 -0.03534743
-0.008699911 -0.09054809 0.22196081 0.053207442 0.19006036 -0.12864761 -0.40699705 -0.4165324
-0.25761274

conv3.bias f4 [3]
00000000: 9905 843e 7bb0 0f40 2967 dbbd
0.2578552 2.2451465 -0.107130356

conv4.weight f4 [3, 3, 3, 1, 1]
00000000: ad03 1dbe 90a5 473f 0f5e 04bf 6646 b4bf
00000010: a95e 43be 127d afbe 7607 b4be 9a01 09bf
00000020: 6fe7 e7bd 6142 be3e e146 233e 44c8 2b3d
00000030: 84d0 62be 218f 283f 63a4 75be 360c 3c3f
00000040: 8993 7c3e 32a6 823d de67 afbe ca93 15be
00000050: f850 18bd afd0 5c3d 1535 843f 2c8c febd
00000060: 9ace d93e b7a1 b9be 2fd4 693e
-0.15333433 0.77987003 -0.5170602 -1.4083984 -0.19079079 -0.3427511 -0.35161942 -0.5351807
-0.11323439 0.37160018 0.15945007 0.041939035 -0.22149855 0.658434 -0.2398849 0.7345613
0.24665655 0.063793555 -0.34258932 -0.14607158 -0.037186593 0.053909954 1.0328699 -0.124290794
0.42540437 -0.3625619 0.22834848

conv4.bias f4 [3]
00000000: 1816 723e 2b16 05bf 66c8 ce3f
0.2364124 -0.5198695 1.6154907

conv5.weight f4 [3, 3, 1, 3, 3]
00000000: fd11 3dbc c51d efba c7f7 11be 3212 3bbd
00000010: 60d9 fdbd 95a6 623e 3693 1a3e 32fc e23e
00000020: 2e8e 9b3c 6618 0cbb e61f ad3e 578a b2be
00000030: dacd 95bc 1843 a3bd 24b1 4cbe da45 c0bd
00000040: 2f0f 823e 24c1 373e 3174 23be 0bd5 ffbe
00000050: b8ad 02be f597 7fbd 545e 3dbe 26fb 123f
00000060: 94ad 463e e962 b1bc ef54 713e 58d7 d9bd
00000070: 0e7f bb3b 329a 70bd 0a9a a9be e218 88be
00000080: bc4b bebd e5bf a03e eea0 043f a165 a4be
00000090: 0bb5 b3bd 58c8 df3d 2be7 c73e 7c41 82bd
000000a0: 5426 75be 216e 11be 75f3 a63d e744 cbbe
000000b0: 8eb1 3b3e 3d00 a33e 1011 9f3c 76c2 253e
000000c0: 7694 febd 1fe7 c9be 5f1a 5e3e bcac 053c
000000d0: b029 16bd 6ef9 87be 081e 973e 5759 ce3e
000000e0: 24e5 ccbe 676d 13be 3550 e9be 053b 5c3e
000000f0: 485e 0c3f c9ac d03e 46c2 9a3e b11c fe3d
00000100: a9bc 38be 5a6a 8cbd 0d1e 6fbd 6d81 0b3f
00000110: b7d9 093e c3a7 7dbe acde fabe f0bd 1d3e
00000120: 4b3e a13e 6d15 a93e c136 43be 23e3 933e
00000130: ef3a 64bd 6298 7f3e 4171 87be 0276 11bd
00000140: ff6c 31bf
-0.011539933 -0.0018243125 -0.14254676 -0.04567165 -0.123949766 0.22133859 0.15095219 0.44333035
0.018988695 -0.0021376847 0.338134 -0.3487117 -0.018286634 -0.079717815 -0.19989449 -0.09388323
0.2540221 0.17944771 -0.15962292 -0.49967226 -0.12761581 -0.062400777 -0.18493015 0.5741447
0.19402152 -0.02165361 0.23567556 -0.10636777 0.005721933 -0.058740802 -0.33125335 -0.26581484
-0.09291789 0.31396404 0.5180806 -0.32108787 -0.087747656 0.109268844 0.39043555 -0.063601464
-0.23940402 -0.14202167 0.081519045 -0.39701006 0.1832945 0.3183612 0.019417316 0.16187462
-0.124306604 -0.39434144 0.21689747 0.008158859 -0.03666085 -0.26557487 0.295151 0.40302536
-0.4001857 -0.14397202 -0.45569006 0.21506889 0.5483136 0.40756825 0.30226344 0.12407816
-0.18040718 -0.068562225 -0.058378268 0.54494363 0.13461958 -0.24771027 -0.4899801 0.15404487
0.31492838 0.3302416 -0.19063856 0.2888423 -0.055720266 0.24960473 -0.26453593 -0.03551293
-0.6930694

conv5.bias f4 [3]
00000000: 8adf 533f 7ec4 1540 c162 e33f
0.8276297 2.340118 1.7764512

conv6.weight f4 [3, 3, 3, 1, 1]
00000000: 241e 883e 965f 13be 4975 933f 447f a23d
00000010: d1bb 933f fb98 163e 30ab c23e 972a b03f
00000020: c419 883e abe8 4bbe c0fd 923f 034e f3be
00000030: cf0e bbbe 6891 a2be ac9c 5c3e ecbc c73e
00000040: d107 b6be db0d b03d 712e b93d 1207 bc3f
00000050: 0ff4 ad3e 5ab5 813d 94fb 5bbf fb37 30bd
00000060: 9426 75bd 394b 03bf 72c7 1b3f
0.26585495 -0.14391932 1.1520168 0.0793443 1.1541692 0.14706795 0.3802123 1.3762997
0.26582158 -0.19912975 1.1483688 -0.47520456 -0.36534736 -0.3175156 0.2154414 0.39011323
-0.35552838 0.08596393 0.09042061 1.4689658 0.33975264 0.06333418 -0.8593075 -0.043022137
-0.059851244 -0.51286656 0.60851204

conv6.bias f4 [3]
00000000: 9f43 c63e 2c13 ec3e 7166 6cbe
0.38723466 0.46108377 -0.23085953

conv7.weight f4 [3, 3, 1, 3, 3]
00000000: 43b1 0bbe 1738 a7bc 55fc 90bc b8d6 18bf
00000010: e6f9 433e ee91 17be 2ae2 2cbf 53df 5b3d
00000020: 549a b9be 3944 4d3e 18b8 b0bd 8437 89be
00000030: 94dc cf3e 89fb 383f d91b d6bd 6208 af3e
00000040: f737 493e 9dfa 31be 32b2 b6bd b945 0dbd
00000050: 00bc 7d3d 3e41 6e3f 3933 163f 3b0f a4bd
00000060: bf04 323c b019 043f 160a 2f3f 7fbf a23e
00000070: c962 4cbf 677a 963d 4ac0 523f c2ba 40bf
00000080: 0475 5abe 11b2 d43e ddd3 6d3d 2b31 35be
00000090: c9be c93e b435 9ebd e90e d63e d39d 98be
000000a0: e63b 40be ec71 42be f4fc 8ebe c38b 4bbe
000000b0: 9dd4 babd 72d8 70be 2e53 98be 82f2 b0be
000000c0: aa7d 093f a630 aebe 3d3a db3d f927 083e
000000d0: 7aa0 f43e 610e 983e 45d1 283f 12e9 a63b
000000e0: 819c ef3c 5ecb 0f3f 7b15 003e 9295 a13e
000000f0: 0695 4f3f 9573 ce3e ef4d 1a3f e390 9fbf
00000100: 0cb8 713d d191 f8be 25d9 5cbf 70b1 f33e
00000110: 706b 34be be3f 623e a48e 84be ca56 a9be
00000120: d96c a4be d49e 63be cf3a 9fbe 09b7 00bf
00000130: e6c9 97be 7508 85be a740 20be 8c54 3fbe
00000140: 3ebd 9fbe
-0.13641839 -0.020412488 -0.017698446 -0.59702635 0.19138297 -0.14801762 -0.675326 0.053679775
-0.36250556 0.20045556 -0.08628863 -0.26800168 0.40597975 0.7225881 -0.1045453 0.34186083
0.19650255 -0.17380758 -0.08920707 -0.03449032 0.06194687 0.930683 0.5867191 -0.080107175
0.010865389 0.51601696 0.68374765 0.31786725 -0.79838234 0.07347565 0.8232466 -0.7528497
-0.213337 0.41542104 0.058063377 -0.17694537 0.3940337 -0.07725087 0.4180825 -0.2980791
-0.1877285 -0.1898877 -0.27927363 -0.19877534 -0.09122584 -0.23520067 -0.2975096 -0.3456002
0.53707373 -0.3402149 0.107044674 0.13296498 0.47778684 0.2969847 0.6594432 0.005093702
0.029249432 0.5616969 0.12508194 0.31559426 0.81086767 0.40322557 0.6027517 -1.2466091
0.05901341 -0.4854875 -0.86268836 0.47596312 -0.17619109 0.22094628 -0.25890076 -0.33074027
-0.32114294 -0.22228557 -0.31099555 -0.5027929 -0.29646224 -0.25983015 -0.15649663 -0.18684596
-0.31199068

conv7.bias f4 [3]
00000000: 3fa4 82bf 3fb5 21bf ba07 09bf
-1.0206374 -0.63167185 -0.53527415

conv8.weight f4 [3, 3, 3, 1, 1]
00000000: 232f 53bc 20e1 8b3e 4b29 cc3f 3f32 863d
00000010: 660c 7c3f be66 213f 220f fd3c 2267 d9bd
00000020: 631f b0bf 8c93 5bbe 51a6 11bf d337 c6be
00000030: b20b 59be a79d 7fbd d18a 9abe eb59 bfbe
00000040: b48c 81bd 0992 47bc 9591 213c bfc3 983e
00000050: fb60 c43f 1758 e8bc c898 913f 48c8 143f
00000060: f66c 433c ec71 f7bd 2d6a a9bf
-0.012889656 0.27320194 1.5950102 0.065525524 0.9845642 0.630474 0.030891005 -0.10615374
-1.3759578 -0.21443003 -0.56894404 -0.38714465 -0.21195868 -0.06240621 -0.30184034 -0.3737329
-0.06325665 -0.012180814 0.00986137 0.29836842 1.5342096 -0.028362317 1.137475 0.58118105
0.011927834 -0.12082276 -1.3235527

conv8.bias f4 [3]
00000000: e5bb 84bf 98ce aebe 4f9b 3dbf
-1.0369841 -0.34141994 -0.7406511
